seg_models/DoubleDunk.pth (torch_old, 513861 bytes, 27 tensors)

cnn.0.mods.1.weight f4 [16, 3, 7, 7]
0.020532526 -0.12317955 -0.0024559665 0.007086215 0.10956447 -0.0077485316 0.034535695 -0.06613747
0.046618488 0.022857046 0.087156616 0.033098266 -0.07721515 -0.025485307 0.012942377 0.09168383
0.13693443 -0.10803201 0.082026474 -0.06575868 -0.05591845 0.0025745134 0.020686086 -0.11981704
0.09739717 -0.10151823 -0.07245676 -0.10401999 -0.010498884 -0.052843332 0.05191972 0.033320844
-0.05234768 0.0008783568 0.03932541 0.037150674 -0.021592041 -0.055186775 -0.011064251 0.06631424
-0.09872162 -0.056144897 0.0086609665 -0.050094705 -0.09095556 -0.027182048 0.07559682 0.011706622
0.07113571 0.10816237 0.030286279 2.840945e-06 -0.1339589 0.08707247 -0.04147878 0.047417097
-0.010326732 -0.036344364 0.017534774 0.007996501 -0.020661568 -0.0065634865 -0.03468555 -0.049352895
0.10975765 0.031877037 0.00073772547 -0.02093342 0.074498296 0.03219114 -0.05938471 -0.008475657
-0.07009999 -0.0209354 -0.044818986 -0.0061148987 0.07601509 0.03684523 -0.020193905 0.08810292
0.09712103 0.034456484 0.05841482 -0.032378815 0.01308475 0.030990215 -0.03565684 0.1548445
0.036550995 -0.07503101 -0.1372724 0.023659555 -0.071611926 0.012617648 0.027686106 0.043078925
0.051941566 0.011516498 -0.021176018 -0.16694091 0.08797373 -0.005912908 -0.08415014 0.009368455
0.015175758 0.023298062 0.06818729 -0.05305069 -0.09539203 -0.13069016 -0.06609311 0.012015438
0.053091962 -0.013174181 -0.040062305 -0.13206586 0.047147132 0.05571433 -0.028712995 0.07233794
-0.12192472 0.09058178 -0.073980905 0.052177638 -0.031842336 0.0071020764 -0.028851865 -0.08298254
-0.010424943 -0.13844407 6.0681185e-05 0.05179606 -0.03457808 -0.13890857 0.11277401 0.00975699
0.026171247 0.041436657 -0.019083045 -0.022465125 -0.09750846 0.016960142 0.066433534 -0.0034530754
-0.02094174 0.061953466 0.035048757 -0.025533713 0.038784046 0.025812084 0.013923269 0.045907058
-0.05612124 -0.11492698 0.006449402 -0.05176226 0.0028409383 -0.019368699 0.011500347 0.07723287
0.08700193 -0.020279156 -0.08796423 -0.04431359 -0.06690638 0.02295138 -0.034512125 -0.026595984
-0.053337306 0.016014962 0.039093256 0.01186631 0.01882466 0.06428855 0.0757102 -0.0076794266
0.0020663224 -0.07950595 0.012076235 -0.0045649433 -0.015559329 0.013262891 -0.0351679 -0.08887555
-0.02676106 -0.028600229 -0.0175879 -0.12273502 0.016496718 -0.021508157 0.023824427 -0.069213465
0.0118272705 -0.004906493 -0.00901341 -0.027079618 0.017986782 0.04752179 0.112409025 0.078534186
-0.0066727335 -0.10491102 0.055805597 0.101870105 0.07102537 -0.022405438 -0.016776532 -0.02350943
0.03395818 0.045873407 0.017506855 -0.053938985 0.06149388 -0.017943256 0.052862886 -0.030176843
-0.017444666 0.0037234325 0.098446 -0.034135967 -0.05591077 -0.029529858 -0.04716219 0.012594763
-0.047227994 -0.014146338 -0.008513098 -0.07781189 -0.022390794 -0.038943388 0.045288634 0.095444575
0.04694376 -0.0415867 -0.022307169 0.0010499336 0.054037083 -0.049805854 0.15227237 0.003131728
0.013082008 -0.05274931 -0.016480844 -0.04799594 0.0125054885 -0.010457957 -0.0044488483 -0.0015334394
-0.0018590338 -0.01952548 0.01259735 -0.024079667 -0.040481504 -0.053990427 -0.1102179 -0.09758883
00000000: d433 a83c 8f45 fcbd 48f4 20bb 7b33 e83b
00000010: 5663 e03d 65e7 fdbb 4d75 0d3d 1573 87bd
00000020: 07f3 3e3d b33e bb3c 2b7f b23d 0c92 073d
00000030: fa22 9ebd 90c6 d0bc 430c 543c bbc4 bb3d
00000040: 8a38 0c3e e33f ddbd 7ffd a73d 7dac 86bd
00000050: bf0a 65bd 2bb9 283b de75 a93c a362 f5bd
00000060: 2b78 c73d cae8 cfbd 3664 94bd 6f08 d5bd
00000070: 8303 2cbc 4072 58bd c6a9 543d 707b 083d
00000080: 856a 56bd 8741 663a ae13 213d 4e2b 183d
00000090: cbe1 b0bc 870b 62bd d546 35bc c3cf 873d
000000a0: 902e cabd 31f8 65bd bae6 0d3c 1b30 4dbd
000000b0: e946 babd e3ac debc 81d2 9a3d 22cd 3f3c
000000c0: 99af 913d 3c84 dd3d ee1a f83c 10a7 3e36
000000d0: 862c 09be 0d53 b23d a7e5 29bd 6e38 423d
000000e0: 7431 29bc d4dd 14bd 16a5 8f3c c203 033c
000000f0: 7342 a9bc 8412 d7bb 6f12 0ebd 4326 4abd
00000100: 9ec8 e03d 7f91 023d eb63 413a 907c abbc
00000110: 9092 983d dbda 033d 623d 73bd 7bdd 0abc
00000120: 9590 8fbd b780 abbc 1d94 37bd 7d5f c8bb
00000130: cdad 9b3d 06eb 163d b06d a5bc 4e6f b43d
00000140: 64e7 c63d 3e22 0d3d 6144 6f3d a69f 04bd
00000150: 6b61 563c 31df fd3c e80c 12bd 8e8f 1e3e
00000160: 7fb6 153d dca9 99bd 2391 0cbe afd1 c13c
00000170: 46a9 92bd 40ba 4e3c f9cd e23c 8773 303d
00000180: aec0 543d b2af 3c3c 5479 adbc 8ff2 2abe
00000190: 922b b43d 11c1 c1bb e956 acbd 267e 193c
000001a0: bea3 783c 94db be3c c7a5 8b3d ae4b 59bd
000001b0: e65c c3bd a4d3 05be d35b 87bd 66dc 443c
000001c0: f576 593d 85d8 57bc 5f18 24bd 463c 07be
000001d0: 5a1d 413d b634 643d 8437 ebbc ea25 943d
000001e0: abb3 f9bd f182 b93d 4d83 97bd 38b8 553d
000001f0: 1c6d 02bd 89b8 e83b bf5a ecbc c0f2 a9bd
00000200: 61cd 2abc 48c4 0dbe ed83 7e38 1b28 543d
00000210: bfa1 0dbd 0c3e 0ebe 0ff6 e63d c8db 1f3c
00000220: 1565 d63c 7cb9 293d 0c54 9cbc c808 b8bc
00000230: 84b2 c7bd ffef 8a3c 4e0e 883d fe4c 62bb
00000240: 038e abbc ebc2 7d3d 498f 0f3d 142c d1bc
00000250: 05dc 1e3d dd73 d33c 6c1e 643c 0a09 3c3d
00000260: 63df 65bd d65e ebbd 8155 d33b aa04 54bd
00000270: 092f 3a3b 1bab 9ebc f46b 3c3c 442c 9e3d
00000280: 112e b23d 7920 a6bc 9726 b4bd 2b82 35bd
00000290: 3606 89bd 8804 bc3c 965c 0dbd d2df d9bc
000002a0: 3878 5abd cf31 833c 4020 203d e96a 423c
000002b0: 2c36 9a3c b7a9 833d f30d 9b3d b3a3 fbbb
000002c0: 236b 073b 04d4 a2bd 67db 453c 8595 95bb
000002d0: 8eec 7ebc 994c 593c 370c 10bd 6204 b6bd
000002e0: 033a dbbc 074b eabc 8014 90bc 805c fbbd
000002f0: 2024 873c e031 b0bc 722b c33c cabf 8dbd
00000300: 2bc7 413c a5c6 a0bb fbac 13bc 13d6 ddbc
00000310: 0459 933c 35a6 423d b436 e63d 88d6 a03d
00000320: f2a6 dabb 97db d6bd 6994 643d 46a1 d03d
00000330: c075 913d 9c8b b7bc f06e 89bc d996 c0bc
00000340: bc17 0b3d c1e5 3b3d 896a 8f3c 20ef 5cbd
00000350: 02e1 7b3d bcfd 92bc c186 583d 6d35 f7bc
00000360: 1ee8 8ebc d504 743b 0e9e c93d 28d2 0bbd
00000370: b102 65bd 9ae8 f1bc 242d 41bd 445a 4e3c
00000380: 2472 41bd 0bc6 67bc 857a 0bbc d75b 9fbd
00000390: e66c b7bc 1a83 1fbd 9380 393d 7278 c33d
000003a0: 1a48 403d d156 2abd 86bd b6bc ed9d 893a
000003b0: fd55 5d3d 3901 4cbd 4aed 1b3e ad3d 4d3b
000003c0: eb55 563c a90f 58bd d602 87bc 6497 44bd
000003d0: d2e3 4c3c da57 2bbc a5c7 91bb b0fd c8ba
000003e0: d3aa f3ba e6f3 9fbc 1e65 4e3c b942 c5bc
000003f0: efcf 25bd 1125 5dbd ecb9 e1bd a7dc c7bd

cnn.0.mods.2.weight f4 [16]
0.4647052 0.051596142 0.16380896 0.15286858 0.6796176 0.49461514 0.7520739 0.2690694
0.6745521 0.818291 0.81949764 0.29181984 0.87880117 0.8466446 0.60187835 0.29017
00000000: d7ed ed3e 7a56 533d 89bd 273e 9589 1c3e
00000010: 6bfb 2d3f 323e fd3e ea87 403f 77c3 893e
00000020: 72af 2c3f 857b 513f 99ca 513f 6969 953e
00000030: 1df9 603f b3bd 583f b314 1a3f 2a91 943e

cnn.0.mods.2.bias f4 [16]
0.00041523043 0.0006585797 -0.0042634117 -0.004202608 -0.0013903171 -0.00104251 0.0014431874 0.003896917
0.0023609179 0.0012126614 0.00019972044 0.00049148663 -0.0022299383 -0.0013066864 0.003302925 0.0002715674
00000000: 49b3 d939 89a4 2c3a 17b4 8bbb 08b6 89bb
00000010: 4d3b b6ba d5a4 88ba 5529 bd3a 6b63 7f3b
00000020: a1b9 1a3b 2af2 9e3a 0c6c 5139 1cd7 003a
00000030: 2824 12bb 1f45 abba e375 583b 2961 8e39

cnn.0.mods.4.weight f4 [32, 16, 3, 3]
-0.015947178 -0.017789269 -0.012508912 -0.01391826 -0.015992278 0.0034200314 -0.023715328 -0.0015141096
-0.0018725152 -0.00013252631 0.00015634378 4.777016e-05 -0.00019939092 5.136387e-05 -1.8678396e-05 -0.00036313996
-0.00014084723 -2.0786496e-05 -0.018386934 -0.05199986 0.0075807776 0.028487027 0.0018121224 -0.029852629
-0.0035182845 0.017240677 0.0025128962 0.06595055 0.058949795 -0.004695656 0.01983059 0.004089196
0.024682686 0.001089283 0.0012906641 -0.017158492 -0.024770772 0.06702904 -0.03785646 0.06908868
-0.020264067 0.01010493 0.03242478 0.08373203 0.0753566 -0.029257406 -0.0202657 0.0005526938
-0.04035215 0.05806093 0.10471448 -0.028708767 -0.03143705 -0.061568704 0.050971515 0.012048204
-0.02055077 -0.032079607 -0.069087245 0.04473135 0.056624483 -0.028675336 -0.044284754 0.0051649795
0.01569581 -0.017201092 -0.0017135872 -0.0025653401 -0.022778857 -0.0011067787 -0.020265456 0.009228597
-0.009707523 -0.027155321 -0.0077490746 0.006232737 0.059088714 -0.03443713 0.029585114 -0.015632588
-0.046059556 0.1753241 0.043064795 -0.044393986 0.052608576 -0.057747193 0.039958123 0.033646725
-0.039466962 0.043296993 -0.013129546 0.010934281 -0.050303087 0.0066949567 -0.010431868 -0.04609655
0.020898197 -0.025070889 -0.042061843 0.0024623235 -0.0051755016 -0.004733623 0.0040722336 -0.011655946
0.01203607 0.0049316618 -0.022360645 -0.0036810697 0.04027974 0.031883884 0.012539439 0.11199863
0.058010116 0.054439183 -0.031195417 0.013002018 -0.04179077 0.12590016 0.083302945 0.035610966
0.05079133 0.062295485 -0.10331182 0.06895485 -0.06686798 -0.016999397 -0.09182805 0.011886883
0.048550192 -0.0132951215 0.039544687 0.06697743 -0.041908782 -0.0980077 -0.020396212 0.0006157981
0.019500654 -0.02374615 0.02858908 -0.074674435 0.08000092 0.023062596 -0.033925187 0.04082404
0.10621171 -0.093595415 0.056193672 0.0013255998 0.06647668 0.12972558 -0.061544243 -0.019123977
-0.07536952 -0.008209735 0.010428976 -0.07903657 -0.07805623 -0.003938251 -0.04213937 0.042414974
-0.039901484 0.05333617 0.09060645 0.044284653 -0.021232981 -0.013566194 -0.1468603 -0.039267115
-0.007422897 -0.005540409 -0.013268223 -0.06121056 0.01354879 0.032748565 -0.06139569 -0.02733727
0.09355638 -0.06980728 0.040584452 0.02605712 0.037695367 0.0070157535 -0.030084688 -0.0022075798
0.14228626 -0.11210412 -0.033216577 0.06776435 -0.037291877 -0.008097371 0.054329526 0.066477254
0.0036234218 0.025391342 -0.045336086 0.083929256 0.032782875 0.015456281 0.122488566 0.023853984
-0.0011433128 -0.089058295 0.032670654 -0.10231481 0.084142394 -0.06934466 0.04746595 -0.062499553
-0.020357776 0.00815421 -0.045661695 -0.026179416 0.026469015 -0.061285924 -0.018256404 -0.010873578
0.02937097 0.02349655 0.007822981 -0.037583217 0.08797744 0.10278533 0.013727678 0.049360633
-0.15261717 0.144689 0.030481411 0.06763186 -0.08549813 -0.14340436 -0.014324357 0.0019521035
-0.017722368 -0.035252746 0.043766495 0.03823761 0.013612159 -0.041688632 -0.05236985 -0.015617408
-0.15812498 0.03816386 0.05557642 0.06308383 -0.08747518 0.057854403 0.02055752 0.13352
-0.046221703 -0.029225774 0.006409803 0.038115747 -0.045868926 0.06296689 -0.023854729 -0.006182131
00000000: a8a3 82bc cdba 91bc 2ef2 4cbc 6a09 64bc
00000010: 3d02 83bc 9b22 603b a646 c2bc 1675 c6ba
00000020: 2f6f f5ba c3f6 0ab9 37f0 2339 d25c 4838
00000030: 9813 51b9 896f 5738 8daf 9cb7 d263 beb9
00000040: 64b0 13b9 a95e aeb7 32a0 96bc cefd 54bd
00000050: 2c68 f83b a05d e93c bd84 ed3a 808d f4bc
00000060: 0593 66bb 523c 8d3c 67af 243b 1511 873d
00000070: 5775 713d 04de 99bb c373 a23c aafe 853b
00000080: 5833 ca3c 46c6 8e3a 802b a93a f78f 8cbc
00000090: 13ec cabc 8546 893d 600f 1bbd 5e7e 8d3d
000000a0: d400 a6bc 268f 253c d9cf 043d b37b ab3d
000000b0: 9054 9a3d 3aad efbc 4104 a6bc a7e2 103a
000000c0: 4c48 25bd 4cd1 6d3d 8c74 d63d a62e ebbc
000000d0: 23c4 00bd 772f 7cbd 82c7 503d d565 453c
000000e0: 175a a8bc e865 03bd 9d7d 8dbd 3838 373d
000000f0: 13ef 673d 8ae8 eabc ee63 35bd fd3e a93b
00000100: 8094 803c 4ee9 8cbc 729a e0ba 441f 28bb
00000110: ba9a babc 5511 91ba be03 a6bc 8b33 173c
00000120: 4d0c 1fbc d674 debc f3eb fdbb fd3b cc3b
00000130: 0207 723d f30d 0dbd 7b5c f23c ea0f 80bc
00000140: f2a8 3cbd 2988 333e b664 303d 78d6 35bd
00000150: 177c 573d 5288 6cbd 21ab 233d 26d1 093d
00000160: 1ca8 21bd 3058 313d 4f1d 57bc b325 333c
00000170: 9c0a 4ebd 5e61 db3b 6dea 2abc bccf 3cbd
00000180: b232 ab3c 7761 cdbc 0a49 2cbd ef5e 213b
00000190: 4197 a9bb 821c 9bbb 5f70 853b 95f8 3ebc
000001a0: f032 453c c799 a13b ac2d b7bc 1a3e 71bb
000001b0: 5efc 243d ad98 023d 3872 4d3c 8a5f e53d
000001c0: 049c 6d3d 9ffb 5e3d 888d ffbc 6b06 553c
000001d0: cc2c 2bbd f9eb 003e bc9a aa3d cedc 113d
000001e0: 920a 503d 8d29 7f3d 2695 d3bd 3338 8d3d
000001f0: 14f2 88bd 5242 8bbc 5810 bcbd 33c1 423c
00000200: 91dc 463d c8d3 59bc 9cf9 213d 762b 893d
00000210: 8ba8 2bbd 43b8 c8bd f515 a7bc 836d 213a
00000220: d6bf 9f3c 4987 c2bc a533 ea3c e9ee 98bd
00000230: 86d7 a33d c5ed bc3c 23f5 0abd 1c37 273d
00000240: 8685 d93d f4ae bfbd 562b 663d c0bf ad3a
00000250: ed24 883d c8d6 043e d115 7cbd e3a9 9cbc
00000260: 565b 9abd 2082 06bc 4cde 2a3c eddd a1bd
00000270: f2db 9fbd 720c 81bb 559a 2cbd 53bb 2d3d
00000280: bd6f 23bd 0777 5a3d e08f b93d d363 353d
00000290: caf0 adbc be44 5ebc 8c62 16be 8ed6 20bd
000002a0: c63b f3bb 528c b5bb f662 59bc edb7 7abd
000002b0: befb 5d3c 5c23 063d 0c7a 7bbd 69f2 dfbc
000002c0: 7d9a bf3d 1ff7 8ebd e23b 263d be75 d53c
000002d0: 7566 1a3d 68e4 e53b 2a74 f6bc 0bad 10bb
000002e0: 7db3 113e d896 e5bd 1b0e 08bd 09c8 8a3d
000002f0: 5ebf 18bd d6aa 04bc a388 5e3d 3a25 883d
00000300: ee76 6d3b 8101 d03c 55b2 39bd 1ae3 ab3d
00000310: 5647 063d 573c 7d3c 49db fa3d 6e69 c33c
00000320: 36db 95ba 3264 b6bd aad1 053d 6d8a d1bd
00000330: d952 ac3d 9304 8ebd a86b 423d 88ff 7fbd
00000340: 5ac5 a6bc 3c99 053c c207 3bbd 3776 d6bc
00000350: 8cd5 d83c f306 7bbd 748e 95bc 1727 32bc
00000360: 639b f03c d67b c03c f62b 003c dcf0 19bd
00000370: 842d b43d 1d81 d23d 0eea 603c 602e 4a3d
00000380: ad47 1cbe 5a29 143e 27b4 f93c 9382 8a3d
00000390: a519 afbd 98d8 12be b5b0 6abc b9dd ff3a
000003a0: 802e 91bc 2f65 10bd 7f44 333d 0a9f 1c3d
000003b0: 8805 5f3c b3c1 2abd c581 56bd 28e0 7fbc
000003c0: 84eb 21be b551 1c3d 1aa4 633d 1832 813d
000003d0: 3026 b3bd bdf8 6c3d 3f68 a83c 78b9 083e
000003e0: f852 3dbd e46a efbc 5309 d23b 421f 1c3d
000003f0: 0ee1 3bbd c9f4 803d fe6a c3bc 7993 cabb

cnn.0.mods.5.weight f4 [32]
0.049484424 0.51751316 0.7793085 0.82782036 0.50660425 0.6567833 0.69855815 0.48464495
0.090950154 0.8853739 0.507892 0.19626728 0.67730606 0.8803207 0.7693791 0.10079785
0.85133475 0.007312975 0.70453095 0.9499809 0.3570331 0.57915723 0.24050157 0.855349
0.8745961 0.008724651 0.60184705 0.100447915 0.96980435 0.59570396 0.96752965 0.28702846
00000000: 2eb0 4a3d be7b 043f c380 473f 09ec 533f
00000010: d1b0 013f f322 283f b5d4 323f 6223 f83e
00000020: 1344 ba3d dda7 623f 3605 023f 4afa 483e
00000030: ee63 2d3f b35c 613f 07f6 443f 1a6f ce3d
00000040: 13f1 593f aea1 ef3b 245c 343f f331 733f
00000050: 0bcd b63e a643 143f 0b46 763e 27f8 5a3f
00000060: 88e5 5f3f d7f1 0e3c a612 1a3f a3b7 cd3d
00000070: 1945 783f 0e80 183f 06b0 773f 65f5 923e

cnn.0.mods.5.bias f4 [32]
-0.0022694746 0.002060676 -0.0018375373 0.00010083044 -0.00035051373 0.00052506576 0.0029418757 -0.0014100125
0.005798457 0.0029014528 0.004329542 -0.00074441475 -0.004851054 -0.0036888733 0.0014544809 0.005448797
-0.003480068 0.00041269322 -0.0017105939 -0.0011636476 0.0009799493 -0.0033877343 0.0058751167 0.0026306002
-0.0001264843 0.0044140844 -0.0035256606 0.0018683125 0.0014498769 0.00076787185 -0.00017558232 -0.0015598511
00000000: 77bb 14bb 680c 073b 85d9 f0ba ee74 d338
00000010: 28c5 b7b9 91a4 093a 7ccc 403b 2bd0 b8ba
00000020: fc00 be3b 4d26 3e3b d5de 8d3b d424 43ba
00000030: 97f5 9ebb 06c1 71bb 48a4 be3a d28b b23b
00000040: da11 64bb bf5e d839 0236 e0ba 8985 98ba
00000050: a471 803a c004 5ebb 0d84 c03b 2666 2c3b
00000060: dfa0 04b9 06a4 903b c50e 67bb 2ae2 f43a
00000070: cc09 be3a 024b 493a 851c 38b9 eb73 ccba

cnn.0.mods.7.weight f4 [64, 32, 3, 3]
0.059320726 -0.017387602 -0.08022112 -0.04971416 -0.051257152 0.037722837 -0.03052398 -0.055114076
-0.023543159 -0.037341945 0.027148906 0.067662895 0.0098954 -0.023352351 -0.0022802458 0.006001138
-0.051608954 0.029178781 0.023099277 -0.045092393 -0.05681183 -0.04865109 0.14238948 -0.011642343
-0.031090325 -0.0341771 0.01569489 0.11694529 0.035779122 0.020781262 -0.058737323 0.10609647
-0.02645208 -0.068802424 -0.021567626 0.03939811 0.021345558 0.02879394 -0.007988612 -0.0025865494
-0.023985991 0.04637462 0.09674335 -0.07122736 -0.007048242 0.087568745 0.040404193 0.0134391
-0.04348623 0.025830619 -0.050347336 0.002661975 0.0039020723 -0.040839724 -0.025181817 0.028964933
-0.0024319454 -0.03495589 0.010469856 -0.01341688 -0.017013667 0.09981349 0.014341663 -0.070019804
0.028487854 0.07659392 0.053882804 0.025067048 0.009388716 0.058155056 0.06172151 0.06147359
0.05304506 0.054081365 -0.10282959 -0.015644232 0.020219188 -0.017494865 -0.093354106 -0.01913395
-0.03444486 -0.033119943 0.031320434 -0.0040197405 -0.05525629 -0.106825195 -0.017383514 0.05155536
-0.07319683 0.025653318 0.004687851 -0.07982073 -0.08893871 -0.013216754 -0.04671092 0.016641641
0.05799014 0.01193744 -0.07805755 -0.044413663 0.004909374 -0.040268693 0.005505975 0.060324114
0.04592536 -0.040171206 0.054456387 -0.042207267 0.032845348 0.003779885 0.018087098 -0.09788091
0.0048053246 0.0057544513 0.08779306 0.034715176 0.011640037 0.01815323 -0.008151149 -0.061168272
-0.045897078 0.062011052 0.03650435 0.04106501 0.0088871615 0.021418083 -0.023068497 -0.044302583
0.020742416 0.030901434 -0.01041802 -0.0011018562 0.0062410156 0.0022199936 0.06645697 0.007593135
-0.024050595 -0.052169096 -0.080697395 -0.04077178 -0.025124539 0.051098157 0.011751145 -0.0046747373
-0.07636734 0.04224389 -0.0015622419 -0.02117442 0.024034193 -0.024837391 -0.057281703 0.0056009195
0.00012516763 0.0014511291 0.0023963132 0.00060992193 0.0017935433 0.0024272827 -0.0037011018 0.0020132507
0.0025536744 0.0005466463 0.0044565294 0.047493305 0.00022074397 0.017255697 -0.06616658 -0.027285593
0.061043695 -0.059624575 0.034485802 0.011472151 -0.069942884 0.021029234 0.004664718 0.032141935
0.009809041 -0.028837258 0.0684044 -0.040625267 0.017945405 0.028041836 -0.0033691209 0.038698234
0.0012655382 -0.013326172 0.018891541 0.008048117 0.0347871 0.02440983 -0.03025928 0.01574331
-0.038344618 0.01782205 -0.028620258 -0.054100793 0.010214187 0.046674363 0.05570575 0.0144545315
0.016624376 0.009935056 0.03571931 -0.038042955 -0.03449457 -0.04415702 0.013629837 0.09044385
0.019723382 -0.035233796 -0.08718865 -0.088408954 -0.04635947 0.05121294 0.06956203 -0.079678945
0.019577276 -0.036392134 -0.021358274 -0.0055462793 0.029984321 0.007111434 -0.0478369 0.015679495
0.07728151 0.0016236969 0.00011197332 -0.0008702958 0.0007906964 -0.008775218 0.008373895 -0.0008566238
-0.00080369663 -0.0015337602 0.0071758386 0.038097996 -0.07544176 0.023938643 -0.01666111 0.034018442
0.008483504 -0.07900222 -0.100912705 -0.06229369 -0.100586005 0.007688414 -0.032981146 0.025098978
-0.0057307854 -0.03364423 -0.036958493 0.0058265533 0.019079195 -0.030560948 0.030469656 0.0007049707
00000000: 4afa 723d 7270 8ebc f84a a4bd 13a1 4bbd
00000010: 05f3 51bd 4383 1a3d 6d0d fabc 4cbf 61bd
00000020: 95dd c0bc def3 18bd 6267 de3c d892 8a3d
00000030: 5120 223c 6e4d bfbc 2d70 15bb 32a5 c43b
00000040: e963 53bd 5708 ef3c b23a bd3c cdb2 38bd
00000050: 85b3 68bd 5e46 47bd 8cce 113e 87bf 3ebc
00000060: 23b1 febc 49fd 0bbd 9292 803c 0381 ef3d
00000070: 218d 123d 773d aa3c 8c96 70bd 1b49 d93d
00000080: 08b2 d8bc 49e8 8cbd 97ae b0bc ea5f 213d
00000090: e1dc ae3c 45e1 eb3c abe2 02bc 1983 29bb
000000a0: 457e c4bc 50f3 3d3d 6121 c63d a6df 91bd
000000b0: f0f4 e6bb 3e57 b33d de7e 253d ac2f 5c3c
000000c0: 9e1e 32bd bc9a d33c 0239 4ebd 8874 2e3b
000000d0: e9b9 7f3b 8e47 27bd 194a cebc de47 ed3c
000000e0: 4661 1fbb e82d 0fbd c289 2b3c 79d2 5bbc
000000f0: 3f60 8bbc 046b cc3d 4bf9 6a3c 8b66 8fbd
00000100: 5c5f e93c 46dd 9c3d 37b4 5c3d 6959 cd3c
00000110: 21d3 193c ff33 6e3d b2cf 7c3d bbcb 7b3d
00000120: c745 593d 6c84 5d3d 5298 d2bd 5528 80bc
00000130: b6a2 a53c 6451 8fbc 7030 bfbd cdbe 9cbc
00000140: 0e16 0dbd c7a8 07bd db49 003d 07b8 83bb
00000150: 6b54 62bd 2bc7 dabd df67 8ebc b72b 533d
00000160: 38e8 95bd e826 d23c 8b9c 993b 0d79 a3bd
00000170: 8025 b6bd 168b 58bc f353 3fbd 0d54 883c
00000180: 1287 6d3d 4195 433c a3dc 9fbd 1aeb 35bd
00000190: d0de a03b c9f0 24bd 776b b43b 6b16 773d
000001a0: 3b1c 3c3d 908a 24bd a90d 5f3d 87e1 2cbd
000001b0: d888 063d f2b7 773b 652b 943c c975 c8bd
000001c0: fc75 9d3b d68f bc3b d9cc b33d 8031 0e3d
000001d0: dbb5 3e3c 15b6 943c 668c 05bc 958b 7abd
000001e0: 93fe 3bbd 4dff 7d3d 9685 153d c933 283d
000001f0: 759b 113c fa74 af3c 25fa bcbc a076 35bd
00000200: 00ec a93c 0125 fd3c 58b0 2abc 296c 90ba
00000210: 6f81 cc3b 507d 113b 981a 883d d5cf f83b
00000220: c105 c5bc 43af 55bd ad44 a5bd 4f00 27bd
00000230: fad1 cdbc 4d4c 513d e087 403c 8a2e 99bb
00000240: 7b66 9cbd ee07 2d3d 24c4 ccba fa75 adbc
00000250: 5be3 c43c c977 cbbc 38a0 6abd eb87 b73b
00000260: 6e3f 0339 d033 be3a 770b 1d3b 2be3 1f3a
00000270: 5415 eb3a 0c13 1f3b 2f8e 72bb bef0 033b
00000280: 8c5b 273b d04c 0f3a 1408 923b 5788 423d
00000290: 8277 6739 d25b 8d3c 5882 87bd 0986 dfbc
000002a0: f408 7a3d e638 74bd fc40 0d3d b0f5 3b3c
000002b0: 373e 8fbd 8045 ac3c 7eda 983b 43a7 033d
000002c0: 1ab6 203c 1d3c ecbc 9b17 8c3d ae66 26bd
000002d0: 3e02 933c feb7 e53c 78cc 5cbb 0a82 1e3d
000002e0: 6ae0 a53a 0456 5abc 6fc2 9a3c 40dc 033c
000002f0: eb7c 0e3d 20f7 c73c 4fe2 f7bc 1df8 803c
00000300: 3f0f 1dbd 8cff 913c 0875 eabc cb98 5dbd
00000310: 6859 273c 9e2d 3f3d b62b 643d b3d2 6c3c
00000320: d82f 883c a5c6 223c 694e 123d eed2 1bbd
00000330: 2e4a 0dbd fedd 34bd ae4f 5f3c a03a b93d
00000340: ee92 a13c 5051 10bd f78f b2bd c10f b5bd
00000350: 6de3 3dbd a9c4 513d 8a76 8e3d b72e a3bd
00000360: 8660 a03c eb0f 15bd 8cf7 aebc 90bd b5bb
00000370: aea1 f53c 0807 e93b a0f0 43bd 4972 803c
00000380: c545 9e3d 3ad2 d43a 38d3 ea38 9024 64ba
00000390: bd46 4f3a efc5 0fbc a932 093c 0d8f 60ba
000003a0: 2baf 52ba 7408 c9ba 4c23 eb3b a50c 1c3d
000003b0: 3681 9abd f91a c43c e17c 88bc ec56 0b3d
000003c0: 65fe 0a3c eacb a1bd 52ab cebd ab27 7fbd
000003d0: 0900 cebd 17ef fb3b 3d17 07bd 5f9c cd3c
000003e0: 50c9 bbbb 88ce 09bd ca61 17bd acec be3b
000003f0: f94b 9c3c f45a fabc 809b f93c c8cd 383a

cnn.0.mods.8.weight f4 [64]
0.6440101 0.37904772 0.73149014 0.7458766 0.11867567 0.2853378 0.36791068 0.57567656
0.573093 0.30144146 0.43974122 0.61465204 0.73578906 0.53170806 0.35755956 0.6289814
0.30083284 0.042548522 0.43820322 0.6033504 0.42545328 0.20594129 0.3526601 0.29308575
0.017784217 0.12677757 0.8134636 0.14253 0.065411896 0.62463087 0.37426203 0.38088882
0.8171585 0.010498986 0.74057776 0.075942695 0.6609263 0.85943824 0.5551027 0.7777382
0.29052186 0.59872437 0.8468275 0.4524261 0.5546462 0.59871966 0.13153498 0.7988544
0.58500725 0.15908757 0.850614 0.17214286 0.07065744 0.59447014 0.6519922 0.8603024
0.91041523 0.57849014 0.6068522 0.2738244 0.30532384 0.3879739 0.39471263 0.58379865
00000000: d9dd 243f 8b12 c23e f042 3b3f c5f1 3e3f
00000010: 3b0c f33d cc17 923e ca5e bc3e 8a5f 133f
00000020: 39b6 123f 8956 9a3e c325 e13e d659 1d3f
00000030: ac5c 3c3f 051e 083f 0c12 b73e ed04 213f
00000040: c306 9a3e 5c47 2e3d 2c5c e03e 2c75 1a3f
00000050: 03d5 d93e 46e2 523e dd8f b43e 560f 963e
00000060: 35b0 913c fbd1 013e 273f 503f 62f3 113e
00000070: acf6 853d cfe7 1f3f 469f bf3e dc03 c33e
00000080: 4d31 513f f003 2c3c 8196 3d3f d887 9b3d
00000090: 7732 293f 2504 5c3f 361b 0e3f da19 473f
000000a0: 48bf 943e 0046 193f b0c9 583f 65a4 e73e
000000b0: 4bfd 0d3f b145 193f 1bb1 063e b981 4c3f
000000c0: 09c3 153f dae7 223e d7c1 593f 3846 303e
000000d0: d9b4 903d 322f 183f f6e8 263f c73c 5c3f
000000e0: f910 693f ee17 143f aa5a 1b3f b632 8c3e
000000f0: 6853 9c3e 84a4 c63e c617 ca3e d473 153f

cnn.0.mods.8.bias f4 [64]
-0.007789867 -0.0038635358 -0.0022762483 -0.0029841794 -7.848969e-05 -0.0014844656 0.00199124 0.0021666677
0.0030371645 0.004491121 -0.000526927 -0.0001513716 0.0015496871 -0.003819982 0.00031299924 0.002071523
0.0031750682 0.0021531102 0.00080211426 -0.0065318244 -0.001532519 0.002239914 -0.00072456745 0.00051793957
-0.0009464308 -0.00258067 0.00034404418 0.004876168 -0.0010995517 -0.0055621983 0.0029481193 -0.0049832924
0.0035472163 -0.00074802345 -0.007061322 -0.002663485 -0.0031199164 0.000541642 0.0014815277 -0.0024847502
0.000502401 -0.00081687764 -0.004442583 -0.00027889037 -0.0006938702 0.0024304718 0.0010561576 -0.00061600335
-0.0038087298 0.00014306049 -0.0009733656 0.0041456516 0.00046665425 0.0007037155 0.0006945279 0.0021317154
-0.0019442533 -0.0010945622 0.002343318 0.001667857 -0.005039709 -0.003768416 -0.005189508 -0.0031068812
00000000: 2442 ffbb 6033 7dbb 1c2d 15bb 3992 43bb
00000010: d59a a4b8 6692 c2ba 777f 023b a7fe 0d3b
00000020: 2a0b 473b 412a 933b 7921 0aba 81b9 1eb9
00000030: df1e cb3a aa58 7abb 0c1a a439 64c2 073b
00000040: ce14 503b 321b 0d3b fa44 523a ea08 d6bb
00000050: cede c8ba 85cb 123b e6f0 3dba 56c6 073a
00000060: e519 78ba 7520 29bb d460 b439 43c8 9f3b
00000070: d51e 90ba 1a43 b6bb 3c35 413b e34a a3bb
00000080: 6a78 683b 0117 44ba aa62 e7bb dd8d 2ebb
00000090: 8377 4cbb fbfc 0d3a d22f c23a 31d7 22bb
000000a0: 8fb3 033a bb23 56ba 1693 91bb 0838 92b9
000000b0: d7e4 35ba 8d48 1f3b c56e 8a3a 497b 21ba
000000c0: e29b 79bb 8202 1639 7629 7fba 3fd8 873b
000000d0: 46a9 f439 8c79 383a fa10 363a 40b4 0b3b
000000e0: 51d6 feba 6a77 8fba 5a92 193b ff9b da3a
000000f0: 2524 a5bb 87f7 76bb c00c aabb d19c 4bbb

cnn.1.blocs.0.weight f4 [64, 64, 3, 3]
0.039921213 0.012705137 0.005098662 0.008742744 0.009766629 0.032458577 0.0006611739 0.013725464
-0.028137352 0.0002640359 -0.00014716646 0.014090227 0.022665339 0.0129171815 -0.015427849 -0.019334693
0.005503428 -0.011200593 0.018305033 -0.011936342 -0.03244965 -0.012741677 0.005310859 0.0062220823
-0.016932415 -0.0035566844 0.015331919 -0.010094805 0.0031743832 -0.020467065 -0.003539278 -0.004153054
-0.007229285 0.0064671617 0.012903024 0.013749698 -0.0010663145 -0.001508069 -0.0021529263 0.00027927142
0.0006407495 1.3447561e-05 0.00081800687 -0.00037079336 -0.0009392057 -0.0006318226 0.00085162 -0.00048242992
-0.0047288015 0.0009480139 4.0078787e-05 -0.001627268 -0.0024721646 0.00013936336 -8.490207e-05 0.0014506929
0.0038074402 -0.0019014085 0.0005898047 0.010314419 -0.0028526154 -0.000977767 0.0012843877 -0.0011572714
0.002138896 -0.025462242 0.025722338 0.0070483317 -0.051610466 0.005484781 -0.02107574 -0.018576574
0.008781538 -0.018663963 0.0057008625 -0.0092849415 0.0010616602 0.00021165302 0.006949278 -0.006894237
0.016424986 0.00019481673 0.0012750146 -0.0012717765 0.0031011049 0.0013715016 0.00055832363 0.0019948701
0.0029778278 0.0019375696 -0.011363161 0.00070340466 0.029233554 -0.005098395 -0.015949903 0.0039811395
0.0028425928 -0.004966031 0.0049492097 -0.008480236 -0.0236818 0.0010137006 -0.0015045644 0.015026519
-0.018100489 -0.0022848723 -0.0008788182 -0.0018599307 -0.0054969504 0.0008655879 0.0014683057 0.01053849
-0.012334476 -0.0055980156 0.003334053 -0.0024185737 0.012735313 0.004452713 -0.011542342 0.010574767
-0.00028455834 -0.008060121 0.006524775 -0.0049411883 0.000952858 0.011996394 -0.0010008829 -0.0005036613
0.0020775865 0.004729615 0.00200433 0.0029865843 0.0012667088 0.000488476 0.0061857 0.0019217973
0.013081784 -0.014182108 -0.0010597467 -0.025974464 0.005186081 -0.006621958 -0.010715749 0.04187159
0.0009805904 0.0029863224 0.0015092831 -0.0005886529 0.00569423 -0.01327246 0.009016657 -0.002261194
-0.0019625025 -0.0003076644 0.00013616316 0.00025240882 -0.00039555857 -9.368928e-05 0.00017174066 -0.00039481054
0.0001392054 0.0001658316 0.0020445364 0.001791697 0.0010848754 0.0008328805 -0.0010440963 0.003413293
-0.0037161564 -0.0017081825 0.0030077174 -0.0002938693 -0.00085953076 -0.008898479 0.0073711365 -0.002597611
0.011541084 0.00042396615 0.0020795723 0.0044584465 -0.004999407 0.009152039 -0.009341939 0.011806055
0.00493952 -0.0027161096 0.0071570007 0.003373453 0.004465524 -0.0007998496 0.019527104 0.0030453466
-0.0050519994 0.01763093 0.0035558525 0.014977195 -0.007250976 -0.00094566966 -0.0030731189 0.009913623
-0.009148044 -0.004440894 -0.0008682527 -0.0018410103 -0.0021711076 0.0019297734 0.0077827694 -0.00023156006
0.0005959186 0.0024866343 0.0012156822 0.0012148005 -0.0037476048 7.635754e-05 -0.00057710084 -0.0014417479
0.00014584737 0.00010882853 9.4734394e-05 0.0004169338 0.00011057095 5.263184e-05 9.717405e-05 1.6510401e-05
6.9524656e-05 -0.0051025334 0.0003483856 0.0008955746 0.0006103663 0.0011462002 0.001987608 0.0011016637
0.0002952867 0.0009273111 0.013723336 -0.012135301 -0.0047917087 -0.035076994 -0.0029169326 0.012563653
0.0030705493 -0.019099448 0.00104121 -0.00027563365 -0.0023899083 0.00016450993 0.0073200697 0.0010392489
-0.0028486096 0.0009785005 -2.5787736e-05 0.0014305867 0.00032919843 0.0011082591 0.0011436229 7.7248806e-05
00000000: 6d84 233d 3529 503c ad12 a73b ba3d 0f3c
00000010: 3604 203c 49f3 043d a152 2d3a c5e0 603c
00000020: 4e80 e6bc 4c6e 8a39 b250 1ab9 b2da 663c
00000030: a9ac b93c 96a2 533c 17c5 7cbc ca63 9ebc
00000040: 1a56 b43b b182 37bc 70f4 953c a690 43bc
00000050: ede9 04bd 78c2 50bc b706 ae3b 9ce2 cb3b
00000060: d9b5 8abc 4317 69bb bb32 7b3c ae64 25bc
00000070: 5009 503b 8caa a7bc 3bf3 67bb 5816 88bb
00000080: a3e3 ecbb 7cea d33b 3567 533c 6a46 613c
00000090: 94c3 8bba 66aa c5ba 1c18 0dbb 2d6b 9239
000000a0: f9f7 273a d69c 6137 836f 563a 0b67 c2b9
000000b0: 0735 76ba e6a0 25ba 403f 5f3a a6ee fcb9
000000c0: 10f4 9abb 2384 783a 451a 2838 0e4a d5ba
000000d0: 0a04 22bb 1122 1239 740d b2b8 2d25 be3a
000000e0: 3f86 793b af38 f9ba 209d 1a3a cffd 283c
000000f0: f2f2 3abb 6b28 80ba e658 a83a 96af 97ba
00000100: b82c 0c3b 3196 d0bc a7b7 d23c b1f5 e63b
00000110: 7f65 53bd aeb9 b33b 08a7 acbc e62d 98bc
00000120: 71e0 0f3c 2be5 98bc 4dce ba3b de1f 18bc
00000130: 6827 8b3a 2def 5d39 c5b6 e33b 0de9 e1bb
00000140: b18d 863c b847 4c39 641e a73a bdb1 a6ba
00000150: e83b 4b3b f5c3 b33a 775c 123a 5ebc 023b
00000160: a927 433b 0cf6 fd3a 8d2c 3abc b064 383a
00000170: 357b ef3c 7010 a7bb 5fa9 82bc 3874 823b
00000180: cb4a 3a3b 16ba a2bb fb2c a23b b0f0 0abc
00000190: 5600 c2bc 26de 843a ce34 c5ba ca31 763c
000001a0: 7a47 94bc ccbd 15bb 7e60 66ba ebc8 f3ba
000001b0: c31f b4bb 9fe8 623a 2a74 c03a a1a9 2c3c
000001c0: 8b16 4abc 8f6f b7bb 2180 5a3b ef80 1ebb
000001d0: c6a7 503c 10e8 913b 171c 3dbc ca41 2d3c
000001e0: c630 95b9 990e 04bc c8cd d53b b1e9 a1bb
000001f0: 38c9 793a 868c 443c 0f30 83ba 2308 04ba
00000200: 1e28 083b e3fa 9a3b 145b 033b 92ba 433b
00000210: b207 a63a 120d 003a 6ab1 ca3b d1e4 fb3a
00000220: fb54 563c 135c 68bc 33e7 8aba 66c8 d4bc
00000230: 00f0 a93b 03fd d8bb 1c91 2fbc 8b81 2b3d
00000240: 2787 803a 2db6 433b 23d3 c53a d44f 1aba
00000250: aa96 ba3b bb74 59bc 9aba 133c 8a30 14bb
00000260: 549d 00bb 044e a1b9 05c7 0e39 bd55 8439
00000270: f962 cfb9 0d7b c4b8 4815 3439 93fe ceb9
00000280: aaf7 1139 15e3 2d39 a1fd 053b 60d7 ea3a
00000290: 6132 8e3a aa55 5a3a 0fda 88ba 8eb1 5f3b
000002a0: c28a 73bb 18e5 dfba 201d 453b 7812 9ab9
000002b0: 2252 61ba edca 11bc 9389 f13b ae3c 2abb
000002c0: d116 3d3c c647 de39 6f49 083b 2918 923b
000002d0: 11d2 a3bb 6ff2 153c ef0e 19bc 2f6e 413c
000002e0: b2db a13b c200 32bb 4685 ea3b 2615 5d3b
000002f0: 8853 923b ffac 51ba 4ef7 9f3c 7094 473b
00000300: 3e8b a5bb bd6e 903c 4e09 693b e962 753c
00000310: 9899 edbb d1e6 77ba 6166 49bb c06c 223c
00000320: ade1 15bc eb84 91bb 749b 63ba 0e4e f1ba
00000330: 2449 0ebb 73f0 fc3a 9a06 ff3b eece 72b9
00000340: 6c37 1c3a cdf6 223b 8757 9f3a f139 9f3a
00000350: 609a 75bb 2422 a038 9548 17ba 08f9 bcba
00000360: 9bee 1839 df3a e438 24ac c638 e897 da39
00000370: 54e2 e738 02c1 5c38 ecc9 cb38 d17f 8a37
00000380: c4cd 9138 2733 a7bb 86a7 b639 fec4 6a3a
00000390: fd00 203a 193c 963a 8742 023b b365 903a
000003a0: b6d0 9a39 cb16 733a d8d7 603c 24d3 46bc
000003b0: c403 9dbb e5ac 0fbd 022a 3fbb c8d7 4d3c
000003c0: 453b 493b 7276 9cbc 3679 883a ec82 90b9
000003d0: 02a0 1cbb 4c80 2c39 32dd ef3b 6837 883a
000003e0: bdaf 3abb 0741 803a be52 d8b7 8682 bb3a
000003f0: 4498 ac39 0143 913a 9ee5 953a a300 a238

cnn.1.blocs.1.weight f4 [64]
0.022782346 0.25885817 0.87464947 0.8962786 0.4861273 0.39233828 0.7463757 0.54911876
0.11522299 0.69589436 0.29070488 0.37279722 0.09906105 0.32677707 0.61101145 0.51409274
0.9066675 0.3981266 0.3150645 0.5285614 0.93230325 0.9103366 0.16585757 0.12051778
0.028811071 0.7984973 0.56747454 0.059141535 0.33165374 0.49284577 0.50389636 0.21484809
0.14666376 0.9631811 0.936339 0.34015277 0.05232644 0.68016756 0.7226894 0.30000642
0.7346634 0.05711871 0.72161186 0.06715105 0.79891634 0.22867726 0.79193944 0.7369521
0.34235832 0.15471034 0.7191861 0.7614616 0.30965328 0.57770675 0.31632906 0.89999276
0.4495684 0.9257649 0.9135051 0.6333079 0.19592975 0.6179861 0.0643082 0.10721927
00000000: 0ba2 ba3c 0f89 843e 07e9 5f3f 8472 653f
00000010: ade5 f83e 90e0 c83e 7a12 3f3f 0c93 0c3f
00000020: 08fa eb3d 2226 323f 45d7 943e 47df be3e
00000030: 85e0 ca3d 534f a73e 3f6b 1c3f 959b 033f
00000040: 5c1b 683f 40d7 cb3e 2250 a13e cd4f 073f
00000050: 6dab 6e3f d20b 693f 91d6 293e 07d2 f63d
00000060: 3205 ec3c 526a 4c3f 0346 113f 653e 723d
00000070: 85ce a93e 4856 fc3e 5aff 003f 2301 5c3e
00000080: 062f 163e 0993 763f eab3 6f3f 8128 ae3e
00000090: 4054 563d 761f 2e3f 2c02 393f 719a 993e
000000a0: e712 3c3f 4ff5 693d 8ebb 383f 7d86 893d
000000b0: c885 4c3f 5f2a 6a3e 8bbc 4a3f e5a8 3c3f
000000c0: 9749 af3e 636c 1e3e 951c 383f 26ef 423f
000000d0: e08a 9e3e 97e4 133f e2f5 a13e ed65 663f
000000e0: d42d e63e eefe 6c3f 78db 693f 7720 223f
000000f0: cfa1 483e 5634 1e3f 04b4 833d c795 db3d

cnn.1.blocs.1.bias f4 [64]
0.0032984673 0.00027818495 0.001613815 0.004141338 -0.0019006309 0.009647661 0.0011119312 -0.0017175656
0.0028056044 0.005879214 0.00032481202 0.0072023827 0.0028452624 0.0023225122 -0.0006064294 0.0034583714
-0.00013204647 0.006984424 0.0010502768 0.00034204067 -0.0045930194 0.0036319487 0.0037232612 0.0016294791
0.004053131 -0.0029380927 -0.0017436668 0.0011626177 0.005524522 0.00026862274 0.002979336 -0.002556648
0.006421446 -0.0008274318 0.0069081425 0.0025712128 0.0024734982 0.005036797 0.0051884963 0.0018597621
0.0016884835 -0.0024929189 0.0023793075 0.0041809254 -0.0013333476 0.003047817 0.0019776877 -0.0046685617
0.0004432099 -0.0025992058 0.0040665013 0.005212142 0.001898817 -0.0017207345 0.00351792 0.0030343954
0.0062163067 0.00010264281 0.00033862598 0.0073368605 0.0067469217 0.0021513302 0.0034117545 0.004983294
00000000: 192b 583b 5ad9 9139 a586 d33a 10b4 873b
00000010: 971e f9ba 3911 1e3c 38be 913a f01f e1ba
00000020: 3bde 373b 6ca6 c03b 884b aa39 f701 ec3b
00000030: 9577 3a3b 4a35 183b caf8 1eba d8a5 623b
00000040: f475 0ab9 98dd e43b 71a9 893a ec53 b339
00000050: 0a81 96bb fd05 6e3b f501 743b 3f94 d53a
00000060: 21d0 843b 048d 40bb c08b e4ba fa62 983a
00000070: 0d07 b53b efd5 8c39 f740 433b 708d 27bb
00000080: fe6a d23b 02e8 58ba b35d e23b cb81 283b
00000090: 6a1a 223b b70b a53b 4304 aa3b 43c3 f33a
000000a0: 1b50 dd3a 3d60 23bb 28ee 1b3b 2500 893b
000000b0: b9c3 aeba e2bd 473b 189c 013b bcfa 98bb
000000c0: a05e e839 7057 2abb 4940 853b 9eca aa3b
000000d0: bae1 f83a 458a e1ba e78c 663b b5dc 463b
000000e0: 29b2 cb3b f041 d738 9c89 b139 0c6a f03b
000000f0: 4815 dd3b 55fd 0c3b be97 5f3b e64a a33b

cnn.1.blocs.3.weight f4 [64, 64, 3, 3]
-0.00046035694 -0.00088975404 -0.00059027004 -0.0013659974 -0.002106758 -0.0026867043 -0.0023511872 0.0052458732
-0.004431844 -0.019732056 0.0059963427 -0.00034766403 0.0142857805 -0.0042069517 0.05584092 -0.010543658
-0.021428933 -0.020736312 -0.031146083 0.006401642 0.040587254 0.066844806 -0.008180805 0.021641534
0.037513744 0.008610652 -0.0007752069 0.047586583 0.041423827 0.06665905 0.012014043 -0.023610175
-0.00365893 0.0020549896 0.0088265445 -0.04248214 0.027952714 0.024292577 -0.005760402 -0.026459234
0.024191147 -0.006286328 -0.023510067 -0.014424531 -0.05130106 -0.008132367 -0.009055696 0.02103305
-0.035114728 0.032818995 0.0149487 -0.013537066 -0.011757552 -0.008563574 -0.012366498 0.027028592
0.002487615 0.042904716 0.011448892 0.028251402 0.013356408 -0.01344975 0.01476717 0.059726544
-0.0052952482 -0.026222253 0.04070941 -0.0300378 -0.027420959 -0.012938357 0.0025977755 0.0020157862
0.022994112 0.016743537 0.024778057 0.01603955 -0.007626248 -0.010595863 -0.03394468 0.005229682
0.020872079 0.003419444 -0.00071410264 -0.0036487416 -0.009091575 -0.03392739 -0.0075087557 0.00056206295
-0.021130264 -0.027736561 -0.07891958 0.01898333 -0.0123070665 -0.015777221 -0.045478646 0.013735946
-0.032313667 -0.018644571 0.039998792 0.022139033 -0.03126613 -0.04070592 -0.008061879 -0.02491446
0.012635011 -0.015222555 0.040460955 -0.018889545 0.0020697783 0.010547121 -0.016630575 -0.0026958843
-0.008495733 -0.0044059497 0.054548193 0.027037805 0.027351413 0.001006501 0.0012053906 -0.008709118
-0.050319616 -0.0028431113 -0.0044582565 0.006030304 0.015704377 0.03161194 -5.428135e-05 0.0025568178
0.027641008 0.024980664 -0.016290838 0.01352599 -0.036480855 -0.019480053 -0.016219102 -0.020621479
-0.024811663 0.06522775 0.04176927 0.022966886 0.034500938 -0.030638315 -0.008309049 -0.03111072
-0.0148203755 -0.05015378 -0.038571563 0.04070772 -0.029727018 0.015457082 0.005511415 -0.031017631
-0.004430962 0.020479992 0.022883644 0.030302988 -0.033847533 -0.033942547 -0.017700996 0.0103072785
-0.026220715 -0.012170692 0.018771278 -0.042643312 0.008226855 -0.01219414 -0.0062794355 -0.027438905
0.033857353 -0.028382292 -0.016912268 -0.010420108 0.04473689 -0.015063048 -0.012533428 -0.017677525
0.045872413 -0.007956228 -0.008533443 0.035033282 0.0027763343 -0.0039915987 0.0009793619 -0.04808317
0.0231743 -0.008802787 0.075047486 -0.048952013 0.019227417 0.037065707 -0.031840958 -0.014476399
0.027677774 0.03347386 0.04818619 -0.021029178 0.013824767 -0.011693324 0.019353148 -0.019695472
0.0059432536 -0.0082088215 0.0016043931 -0.013764989 0.0020024893 -0.0064432826 0.005815388 0.013044096
-0.022293046 -0.016978236 0.000592521 0.0015654577 0.01380283 0.0010428788 0.014512969 -0.030302335
-0.0042782025 0.013266525 -0.00037365555 -0.0068503395 0.0030852011 0.0032451078 9.5743475e-05 0.006352386
-0.0033363807 -0.057563968 0.0040061455 0.00972944 -0.02518374 -0.03327183 -0.020061875 0.015219261
-0.09171876 -0.061440703 0.016001169 -0.012770821 -0.03905446 0.0038066064 -0.06617135 0.044301614
-0.022767961 -0.059995346 0.0014873607 0.0043703527 -0.012217835 0.004716793 -0.01032273 0.0057956637
0.006056017 -0.014831004 0.015666934 0.0032717923 0.04298683 -0.0037454376 -0.0037609553 -0.026430288
00000000: 105c f1b9 623e 69ba 5abc 1aba 440b b3ba
00000010: 8911 0abb 6b13 30bb 6016 1abb 93e5 ab3b
00000020: 0139 91bb 1fa5 a1bc f87c c43b ad46 b6b9
00000030: e80e 6a3c 78da 89bb 73b9 643d 4fbf 2cbc
00000040: bb8b afbc 33df a9bc 1226 ffbc dec4 d13b
00000050: d23e 263d eee5 883d c808 06bc 9649 b13c
00000060: 03a8 193d b113 0d3c 4137 4bba 26ea 423d
00000070: 08ac 293d 8a84 883d 8cd6 443c 206a c1bc
00000080: a9ca 6fbb 01ad 063b 369d 103c c101 2ebd
00000090: 17fd e43c 3a01 c73c c1c1 bcbb 09c1 d8bc
000000a0: 832c c63c 8bfd cdbb 2f98 c0bc de54 6cbc
000000b0: 0f21 52bd 9f3d 05bc 585e 14bc 814d ac3c
000000c0: 76d4 0fbd 366d 063d 64eb 743c 92ca 5dbc
000000d0: bfa2 40bc 3c4e 0cbc da9c 4abc 116b dd3c
000000e0: 4107 233b dbbc 2f3d 2294 3b3c 7c6f e73c
000000f0: d6d4 5a3c 575c 5cbc 00f2 713c d2a3 743d
00000100: c383 adbb 0dd0 d6bc e9be 263d d511 f6bc
00000110: eba1 e0bc 67fb 53bc 713f 2a3b 481b 043b
00000120: 265e bc3c be29 893c 5afb ca3c 6065 833c
00000130: 9be5 f9bb 459a 2dbc 9409 0bbd c15d ab3b
00000140: ecfb aa3c c018 603b 9e32 3bba ba1f 6fbb
00000150: d4f4 14bc 72f7 0abd 020c f6bb 6857 133a
00000160: 6019 adbc c937 e3bc 97a0 a1bd ee82 9b3c
00000170: 94a3 49bc 3b3f 81bc d147 3abd bc0c 613c
00000180: 565b 04bd 80bc 98bc c6d5 233d eb5c b53c
00000190: ea10 00bd 40bb 26bd f915 04bc 6919 ccbc
000001a0: 1403 4f3c 0668 79bc 63ba 253d 3fbe 9abc
000001b0: 1ea5 073b d5cd 2c3c d83c 88bc 6fad 30bb
000001c0: b031 0bbc c95f 90bb ed6d 5f3d 637e dd3c
000001d0: 1210 e03c 92ec 833a 32fe 9d3a b0b0 0ebc
000001e0: f11b 4ebd 7e53 3abb 9116 92bb db99 c53b
000001f0: 77a6 803c 867b 013d 28ac 63b8 4990 273b
00000200: 656f e23c 40a4 cc3c 5d74 85bc 1d9c 5d3c
00000210: f36c 15bd a294 9fbc ecdd 84bc 60ee a8bc
00000220: d441 cbbc 2096 853d 4116 2b3d 0d25 bc3c
00000230: db50 0d3d 34fd fabc ad22 08bc e9db febc
00000240: 29d1 72bc 0d6e 4dbd 37fd 1dbd 23bd 263d
00000250: 1386 f3bc b33f 7d3c 1a99 b43b b018 febc
00000260: 9a31 91bb a8c5 a73c 7b76 bb3c f93d f83c
00000270: b6a3 0abd 5707 0bbd ae01 91bc dcdf 283c
00000280: d3cc d6bc 9567 47bc 39c6 993c c1aa 2ebd
00000290: eec9 063c eec9 47bc b9c3 cdbb 8ec7 e0bc
000002a0: 02ae 0a3d fb81 e8bc 998b 8abc 1ab9 2abc
000002b0: 073e 373d 01cb 76bc 0259 4dbc 75d0 90bc
000002c0: b6e4 3b3d d75a 02bc dbcf 0bbc 0f7f 0f3d
000002d0: 29f3 353b f5cb 82bb ef5d 803a dcf2 44bd
000002e0: 08d8 bd3c 9139 10bc 7fb2 993d e881 48bd
000002f0: d182 9d3c 36d2 173d aa6b 02bd 6b2e 6dbc
00000300: 80bc e23c e31b 093d e25e 453d 6245 acbc
00000310: 4781 623c 5b95 3fbc 7e8a 9e3c 6658 a1bc
00000320: a0bf c23b 4b7e 06bc 804a d23a 8c86 61bc
00000330: 323c 033b 2c22 d3bb 038f be3b e7b6 553c
00000340: e89f b6bc f115 8bbc 6953 1b3a 0b30 cd3a
00000350: 4425 623c 35b1 883a cec7 6d3c 9a3c f8bc
00000360: 2a30 8cbb d75b 593c 33e7 c3b9 d078 e0bb
00000370: 1631 4a3b e0ab 543b e3c9 c838 ad27 d03b
00000380: 2ea7 5abb 32c8 6bbd fc45 833b 3b68 1f3c
00000390: 214e cebc 0b48 08bd cd58 a4bc 355a 793c
000003a0: 0cd7 bbbd 3fa9 7bbd e214 833c b53c 51bc
000003b0: 92f7 1fbd 4278 793b d884 87bd 9c75 353d
000003c0: e083 babc aebd 75bd 8bf3 c23a 2d35 8f3b
000003d0: 502d 48bc 548f 9a3b ab20 29bc 8de9 bd3b
000003e0: 8d71 c63b bdfd 72bc f157 803c 916b 563b
000003f0: f512 303d 0476 75bb 5c7a 76bb 5584 d8bc

cnn.1.blocs.3.bias f4 [64]
-3.514142e-08 -1.08585825e-08 -1.8566663e-08 -1.7130303e-08 -1.1064458e-07 -3.6818744e-08 -5.034235e-08 1.3456172e-07
-1.624242e-08 5.3287465e-08 3.0248323e-08 7.092225e-08 2.4794715e-09 4.5171228e-07 -1.9585732e-08 -1.14852465e-08
-8.80064e-10 9.5563344e-08 -4.3819743e-09 1.1567399e-07 -7.218796e-08 -1.2522827e-07 -3.1646074e-08 -5.2063964e-08
3.6267586e-08 -9.634442e-08 -1.0689012e-08 -2.0755259e-07 -1.6094974e-07 -8.2489294e-08 8.3859625e-08 -8.0173706e-08
-2.5630231e-07 -1.0894515e-07 3.666613e-09 -1.2518966e-07 -2.3562569e-08 -1.1326073e-11 3.3970544e-08 -2.4356156e-08
-2.988964e-08 5.961627e-08 6.7185333e-09 -1.0367278e-07 2.1615962e-08 -1.6212804e-09 -3.4616914e-07 2.8546472e-08
3.4163065e-08 -4.649007e-07 1.516336e-09 3.0011204e-08 3.4607237e-09 4.876698e-08 -1.605415e-07 7.828888e-09
-1.8813893e-08 4.452917e-08 4.7957293e-08 8.366061e-08 3.6563546e-09 1.9960412e-08 8.186878e-08 1.02263456e-07
00000000: 66ee 16b3 8d8c 3ab2 867c 9fb2 ef25 93b2
00000010: 809b edb3 a322 1eb3 0038 58b3 0b7c 1034
00000020: 7685 8bb2 30de 6433 62ea 0133 eb4d 9833
00000030: 5363 2a31 dd82 f234 7b3d a8b2 a650 45b2
00000040: 00e9 71b0 8138 cd33 4190 96b1 7368 f833
00000050: c005 9bb3 7c76 06b4 3aeb 07b3 ef9c 5fb3
00000060: a2c4 1b33 e8e5 ceb3 c6a2 37b2 9fdb 5eb4
00000070: 87d1 2cb4 f824 b1b3 5116 b433 f62b acb3
00000080: ec99 89b4 3bf5 e9b3 bdf7 7b31 df6b 06b4
00000090: a366 cab2 1940 47ad 02e7 1133 c137 d1b2
000000a0: 0260 00b3 6406 8033 d8d8 e631 b7a2 deb3
000000b0: 01ae b932 bcd3 deb0 20d9 b9b4 5b36 f532
000000c0: b0ba 1233 7797 f9b4 5467 d030 abe5 0033
000000d0: b2d1 6d31 dd73 5133 5061 2cb4 d07f 0632
000000e0: 309c a1b2 5740 3f33 9af9 4d33 e8a8 b333
000000f0: 4543 7b31 6975 ab32 d6cf af33 ee9b db33

cnn.1.activationF.0.weight f4 [64]
0.40975747 0.22329792 0.5527139 0.8183604 0.7867126 0.53712434 0.6665249 0.9267822
0.08273446 0.23139201 0.26115268 0.3583557 0.7912576 0.8630161 0.057426896 0.84605825
0.1367399 0.21730389 0.8306762 0.45920238 0.29900634 0.49978405 0.67905796 0.3733739
0.54877526 0.35816765 0.27048358 0.38261247 0.5226081 0.6484698 0.7442782 0.53584975
0.8605262 0.7045555 0.17774902 0.75946563 0.44885954 0.010851791 0.16668323 0.49993458
0.2471349 0.59656626 0.28101248 0.27162325 0.8161 0.01719929 0.26488668 0.31666702
0.4151011 0.5482423 0.013597438 0.09513543 0.015752016 0.37495112 0.69819415 0.029170016
0.07514825 0.38791662 0.5827933 0.36864665 0.53583425 0.5028389 0.7016211 0.94054514
00000000: bbcb d13e 36a8 643e a87e 0d3f 1180 513f
00000010: ff65 493f fb80 093f 60a1 2a3f 9941 6d3f
00000020: af70 a93d 07f2 6c3e ceb5 853e 667a b73e
00000030: dc8f 4a3f a0ee 5c3f 7738 6b3d 4697 583f
00000040: 8b05 0c3e e984 5e3e 32a7 543f 931c eb3e
00000050: 5c17 993e b2e3 ff3e bed6 2d3f dd2a bf3e
00000060: 897c 0c3f c061 b73e d37c 8a3e c8e5 c33e
00000070: a5c9 053f 1e02 263f 0489 3e3f 732d 093f
00000080: 724b 5c3f c05d 343f d703 363e 576c 423f
00000090: ebd0 e53e b6cb 313c 02af 2a3e 6df7 ff3e
000000a0: ee10 7d3e 91b8 183f dee0 8f3e 3412 8b3e
000000b0: eeeb 503f 87e5 8c3c 3a9f 873e 2e22 a23e
000000c0: 2288 d43e 9b59 0c3f cac7 5e3c 5dd6 c23d
000000d0: 5f0a 813c 98f9 bf3e dabc 323f f5f5 ee3c
000000e0: 53e7 993d 029d c63e f131 153f 41bf bc3e
000000f0: 6f2c 093f 0dba 003f 719d 333f 91c7 703f

cnn.1.activationF.0.bias f4 [64]
-0.0044889245 -0.00052087684 -0.0003743546 0.0040668854 0.004520438 0.01450361 -0.00030586572 -0.0041524293
0.005248298 0.008888103 0.0024052947 0.0056034215 0.00235862 -0.0028490867 0.007994361 -0.0064865355
0.001381406 0.004896975 -4.5543253e-05 0.0081919525 0.0025853326 -0.0010397059 0.0003561168 3.5660785e-05
0.00052342576 0.004874415 -0.0027536536 0.00011380901 0.004337607 0.0016120977 -0.0061268806 -0.0014818773
-0.003974617 -0.0035322916 0.006304567 0.0104876775 -0.0003579029 0.0007801043 0.00406142 -0.0021829356
0.000659106 0.0027564855 -0.004399045 -0.0027564357 -0.0010037882 0.0032977932 -0.00046505406 -0.0020655799
-0.0060413065 -0.00035685214 0.004643498 0.013036564 0.0025610507 0.0070801666 -0.00086561975 0.0022243669
-0.003033688 -0.0009919145 -0.0024824473 0.0012820013 -0.0021063634 0.001830542 -0.003679606 0.0005738292
00000000: d417 93bb 748b 08ba 0645 c4b9 8243 853b
00000010: 2f20 943b 8da0 6d3c 9a5c a0b9 1a11 88bb
00000020: eaf9 ab3b 689f 113c 26a2 1d3b e89c b73b
00000030: 1493 1a3b beb7 3abb c8fa 023c 018d d4bb
00000040: 4b10 b53a ce76 a03b b205 3fb8 8a37 063c
00000050: af6e 293b be46 88ba 30b5 ba39 7a92 1538
00000060: 8236 093a 8fb9 9f3b a476 34bb bfac ee38
00000070: 7c22 8e3b 064d d33a 00c4 c8bb 8d3b c2ba
00000080: 813d 82bb 057e 67bb 8b96 ce3b 82d4 2b3c
00000090: eaa4 bbb9 ea7f 4c3a a915 853b 950f 0fbb
000000a0: dbc7 2c3a 27a6 343b dd25 90bb 51a5 34bb
000000b0: 8b91 83ba ca1f 583b 80d2 f3b9 ae5e 07bb
000000c0: 27f6 c5bb e217 bbb9 7c28 983b 5097 553c
000000d0: 4dd7 273b be00 e83b c2ea 62ba afc6 113b
000000e0: d7d0 46bb 2103 82ba 8eb0 22bb d308 a83a
000000f0: ea0a 0abb ccee ef3a 8b25 71bb 076d 163a

psp.0.1.weight f4 [1, 64, 1, 1]
0.0006467226 0.008319382 -0.021446677 0.005575063 0.0078538535 0.015855877 -0.007851982 0.05332723
0.0017639118 -0.0030882838 0.017841542 0.006861106 0.07866342 0.0070029777 0.0016160305 -0.0034678038
0.004309367 0.0062470185 0.026896209 0.04721393 0.0067594256 0.008356152 0.033739913 -0.069912165
0.00968293 0.006495086 0.008737671 0.09526284 0.0078751175 0.008881194 -0.0065490883 0.008537042
0.016746262 0.06889948 -0.0022359597 0.010357717 0.0073533766 0.00013216758 0.004133223 0.0073698736
0.0043972065 -0.08625636 -0.0034560256 0.004473335 0.020037536 0.0002794484 0.0052880803 0.006107854
0.008525726 0.007941359 0.00019585439 0.0026755435 0.00024383627 0.0063757556 -0.0063735372 0.00047946812
0.0017961966 0.0290783 -0.012915053 0.0064660176 0.007961311 0.008386686 0.055355396 -0.0027980302
00000000: d288 293a 044e 083c f1b0 afbc 05af b63b
00000010: 73ad 003c 2fe4 813c 99a5 00bc a76d 5a3d
00000020: 0f33 e73a ce64 4abb 6d28 923c 21d3 e03b
00000030: 4a1a a13d 3c79 e53b fcd0 d33a 1844 63bb
00000040: 9735 8d3b cab3 cc3b 7055 dc3c 6563 413d
00000050: 2c7e dd3b 3ee8 083c dd32 0a3d 1c2e 8fbd
00000060: 27a5 1e3c bbd4 d43b 7328 0f3c 2a19 c33d
00000070: a306 013c 6d82 113c bc99 d6bb f3de 0b3c
00000080: 752f 893c 2c1b 8d3d 2e89 12bb 6ab3 293c
00000090: 98f4 f03b 7796 0a39 fd6f 873b fb7e f13b
000000a0: 7116 903b 2da7 b0bd 7d7e 62bb 0e95 923b
000000b0: c225 a43c ee82 9239 a247 ad3b 6524 c83b
000000c0: 7daf 0b3c 791c 023c 435e 4d39 2c58 2f3b
000000d0: 4dae 7f39 b7eb d03b 1bd9 d0bb 1f61 fb39
000000e0: 5b6e eb3a 9d35 ee3c a999 53bc e3e0 d33b
000000f0: 2970 023c 5068 093c 57bc 623d 285f 37bb

psp.1.1.weight f4 [1, 64, 1, 1]
0.06119561 -0.015339639 -0.014494891 0.109099135 -0.031340685 -0.1309244 0.015466284 -0.031192467
-0.001084028 -0.016419351 0.032101348 -0.01451954 -0.0020563495 -0.03622934 -0.0012669121 0.041186105
0.034321725 -0.0026385763 0.09769607 -0.026491743 0.043576326 -0.0189076 0.027113628 0.0015458787
0.04538382 -0.039251983 -0.005967039 -0.021582458 -0.0037829655 -0.012273976 -0.07586628 0.03537055
0.10014397 -0.104271546 -0.004365391 -0.041181773 0.0020879721 -0.0003136756 -0.0010403981 -0.026533246
-0.004333003 -0.0026796132 -0.010132073 -0.016664667 -0.07689458 -0.00082047365 -0.0025123209 -0.040723607
0.027468588 -0.024486817 -0.00046147915 -0.0017819826 -8.5048705e-05 -0.04145993 -0.004425528 -0.0018253924
-0.0019267601 -0.08861802 -0.068636924 -0.0065201824 -0.05923298 0.07980229 0.07864115 -0.0068953983
00000000: 3fa8 7a3d 1c53 7bbc fb7b 6dbc 5e6f df3d
00000010: 175f 00bd 0c11 06be 4c66 7d3c 5887 ffbc
00000020: f215 8eba e081 86bc b47c 033d 5de3 6dbc
00000030: d2c3 06bb 3765 14bd 840e a6ba c3b2 283d
00000040: f094 0c3d f7eb 2cbb e114 c83d 3605 d9bc
00000050: 177d 323d 1ce4 9abc 661d de3c 159f ca3a
00000060: 62e4 393d b0c6 20bd 2787 c3bb b2cd b0bc
00000070: a1eb 77bb c918 49bc c85f 9bbd b6e0 103d
00000080: 4818 cd3d 528c d5bd 8e0b 8fbb 38ae 28bd
00000090: 5cd6 083b d474 a4b9 f85d 88ba 405c d9bc
000000a0: ddfb 8dbb 739c 2fbb ff00 26bc 5784 88bc
000000b0: e87a 9dbd 0e15 57ba c0a5 24bb cccd 26bd
000000c0: ce05 e13c 9498 c8bc aff2 f1b9 6a91 e9ba
000000d0: 2d5c b2b8 e3d1 29bd 0504 91bb 0142 efba
000000e0: 578b fcba 5d7d b5bd 8491 8cbd 41a7 d5bb
000000f0: 489e 72bd 626f a33d 9c0e a13d cbf2 e1bb
