seg_models/MsPacman.pth (torch_old, 513861 bytes, 27 tensors)

cnn.0.mods.1.weight f4 [16, 3, 7, 7]
0	0x3da08afa	0.07839008
1	0x3d2938a1	0.04131377
2	0x3cdf1a55	0.027234236
3	0x3e34b25c	0.17646164
4	0xbbc6cd97	-0.0060669887
5	0xbd183447	-0.03715923
6	0xbbeb9ede	-0.0071905693
7	0xbd2e7289	-0.042589698
8	0x3d2eb439	0.042652342
9	0xbbdd65b8	-0.0067565106
10	0x3c5b5fd7	0.013389549
11	0xbc3e64cb	-0.011620711
12	0xbe04a511	-0.12953593
13	0x3cea9f10	0.0286403
14	0x3bdc8c99	0.0067306277
15	0xbcc5c51d	-0.024141842
16	0x3c459674	0.012059797
17	0x3d03f1a0	0.032212853
18	0xbe10d176	-0.14142403
19	0xbdbd60f4	-0.09247008
20	0x3bafcb0e	0.005364782
21	0x3e09a0dc	0.13440269
22	0xbd22cca8	-0.039745957
23	0xbd48c15f	-0.049012538
24	0x3dae39b6	0.08507101
25	0xbd07c5a2	-0.03314746
26	0xbe00fac1	-0.12595655
27	0xbd90462f	-0.070446365
28	0xbd669d12	-0.056302138
29	0x3de7e38d	0.11322699
30	0xbbddca32	-0.0067684883
31	0x3cab6715	0.020923177
32	0x3cb81cbf	0.022474645
33	0xbd6addb4	-0.05734034
34	0xbd8aeaee	-0.067830905
35	0x3c649a27	0.013952768
36	0x3c3fcce6	0.011706566
37	0xbccba7f4	-0.02486036
38	0xbe19ce3c	-0.15020078
39	0xbd034d9e	-0.032056443
40	0xbd59fe2e	-0.05322092
41	0x3d8dcd11	0.06923879
42	0x3dfe04ec	0.124032825
43	0xbce0fc17	-0.027463956
44	0xbd90d40f	-0.07071697
45	0x3c951daa	0.018202621
46	0x3e14ffce	0.14550707
47	0xbd97ff33	-0.07421722
48	0xbc83f4da	-0.016107965
49	0x3da0ccd9	0.078515716
50	0x3d5026bd	0.050818194
51	0xbd38442c	-0.04498689
52	0x3d25263d	0.04031967
53	0xbd822291	-0.06354249
54	0x3d1ac0b3	0.03778143
55	0xbb76cfa8	-0.0037660394
56	0xbca7abbe	-0.020467635
57	0xbd57c8fa	-0.0526819
58	0xbcc646b7	-0.024203641
59	0xbd5782f9	-0.05261514
60	0xbc86a92b	-0.016438087
61	0xbd38f518	-0.045155615
62	0xbd054d93	-0.032544684
63	0x3cf5acec	0.029989682
64	0xbc78a052	-0.015174942
65	0xbd5ba781	-0.05362654
66	0xbb2ce443	-0.0026381172
67	0x3da29abd	0.0793967
68	0xbdd6f774	-0.10496417
69	0xba9f4f3a	-0.0012154349
70	0x3dd5f971	0.10447968
71	0xbdf84f25	-0.121244706
72	0xbe1a9099	-0.15094222
73	0x3cb14c42	0.021642808
74	0xbad68732	-0.0016367196
75	0xbc75835c	-0.014984932
76	0x3d5a81d4	0.05334647
77	0xbd05fb47	-0.03271034
78	0xbd38b533	-0.04509468
79	0xbded322f	-0.115818374
80	0xbd998492	-0.07495989
81	0x3ddd66cc	0.108106226
82	0xbd603588	-0.05473855
83	0xbd1e18a2	-0.03859771
84	0xbd997e09	-0.074947424
85	0xbdaa771b	-0.08323499
86	0x3dd54019	0.10412616
87	0xbc6ab31f	-0.014324932
88	0xbc888758	-0.0166661
89	0xbc2c61c3	-0.010521355
90	0xbc8a7a55	-0.016904036
91	0xbe165970	-0.14682555
92	0x3d84e255	0.06488482
93	0x3d8059c4	0.062671214
94	0x3beb0ec5	0.0071733915
95	0x3d8bdc8a	0.06829174
96	0xbd297101	-0.041367535
97	0x3c72d3c4	0.014820997
98	0xbd4ae8e3	-0.049538504
99	0x3da10554	0.078623444
100	0x3d4cc33f	0.04999089
101	0xbdbf717c	-0.09347817
102	0xbcf672eb	-0.030084094
103	0xbd2edbc1	-0.042690042
104	0x3d901813	0.07035842
105	0xbd45de31	-0.0483076
106	0xbbe54cef	-0.0069976966
107	0x3d08cfd2	0.033401318
108	0x3be163cd	0.0068783523
109	0xbd290aa3	-0.04126991
110	0xbd274a67	-0.04084244
111	0xbdf2ef27	-0.11862021
112	0xbb05e8bb	-0.0020432908
113	0xbd6608c8	-0.05616072
114	0xbd37943c	-0.0448191
115	0x3de3dc1b	0.11125966
116	0xbd0e610a	-0.034760512
117	0xbce1b0a2	-0.027550045
118	0xbd79a874	-0.060951665
119	0x3df8e464	0.12152937
120	0xbd64991d	-0.055810083
121	0x3d3c6eed	0.046004225
122	0xbd2aadf1	-0.04166979
123	0xbd3876cd	-0.045035172
124	0x3cea01a0	0.028565228
125	0xbd1b586b	-0.03792612
126	0x3dde9253	0.10867753
127	0xbd656b49	-0.05601052
128	0xbdd0158a	-0.10160358
129	0x3cc44060	0.023956478
130	0xbba6bdd3	-0.005088547
131	0xbcc8be6f	-0.024504868
132	0x3ca1a5a9	0.019732313
133	0xbcc61b58	-0.02418296
134	0x3aaea87a	0.0013325356
135	0xbc9e4f5d	-0.019324953
136	0x3e243dee	0.1603925
137	0x3d69de89	0.05709699
138	0x3c8f2fcf	0.017478852
139	0x3cca70ef	0.024712054
140	0xbd8176de	-0.063215
141	0xbd82bb83	-0.06383421
142	0xbc136e7b	-0.008998509
143	0x3cf2246b	0.029558381
144	0x3c61b061	0.013774962
145	0x3e32e006	0.1746827
146	0xbc377d5f	-0.011199324
147	0xbd27c98c	-0.040963694
148	0xbd207937	-0.0391781
149	0xbe044ff7	-0.12921129
150	0x3df235e0	0.11826682
151	0x3d18cf15	0.037306864
152	0x3e30b2b9	0.17255677
153	0x3d668909	0.05628303
154	0xbc9e322d	-0.019311035
155	0xbd336c68	-0.043804556
156	0xbde971bc	-0.11398646
157	0xbdc52918	-0.09626979
158	0x3cfbb63e	0.030726548
159	0xbd2824ff	-0.041050907
160	0x3cda839b	0.026674083
161	0x3cef655b	0.029223135
162	0xbc71bc0a	-0.014754305
163	0xbc3258e7	-0.010885454
164	0xbd4a5b30	-0.04940337
165	0xbd1774a4	-0.03697647
166	0xbd6d127d	-0.05787896
167	0xbc4a495e	-0.012346594
168	0x3d7b8075	0.061401803
169	0xbd99519a	-0.074862674
170	0xbdc92743	-0.09821942
171	0xbc05842c	-0.008149188
172	0xbc242da6	-0.010020649
173	0x3d84346f	0.064553134
174	0xbca0ff87	-0.019653095
175	0x3d83cd01	0.06435586
176	0xbcd2daef	-0.025739161
177	0xbb87cf99	-0.0041446206
178	0xbd2ec295	-0.042666037
179	0x3c9f2a6b	0.019429406
180	0xbd05a8e0	-0.032631755
181	0x3d9d4ded	0.07680879
182	0x3d88fa4a	0.06688364
183	0x3bbb7e92	0.0057218755
184	0x3d92d957	0.071703605
185	0x3dc28d35	0.09499589
186	0x3c138d0d	0.009005797
187	0xbd40c747	-0.047065046
188	0x3cdf9834	0.027294256
189	0xbc381ca7	-0.0112373
190	0x3c6981fc	0.014252182
191	0x3db92e2f	0.09042012
192	0x3d917d53	0.07103982
193	0xbcce844c	-0.025209568
194	0xbc5755b2	-0.01314299
195	0x3d1f3044	0.03886439
196	0xbb5cacd8	-0.003367236
197	0xbd88b212	-0.06674589
198	0xbd469aa5	-0.048487324
199	0x3cd8db22	0.026471678
200	0xbe165b12	-0.14683178
201	0xbdf7627b	-0.120793305
202	0xbc9e7fbf	-0.019348023
203	0xbc1d75a8	-0.009610571
204	0xbc4ac8ec	-0.012377005
205	0xbb0dece7	-0.0021656097
206	0x3ca0d112	0.019630942
207	0x3da74945	0.08168272
208	0x3dcb71c5	0.09933809
209	0x3e350370	0.17677093
210	0xbe5439d8	-0.2072519
211	0xbd8b1076	-0.06790249
212	0xbb7697b1	-0.0037627036
213	0xbd3de1b3	-0.04635782
214	0xbdd4b207	-0.103855185
215	0x3bfac1d7	0.007652502
216	0xbc81372a	-0.015773375
217	0x3dcb7f3a	0.09936376
218	0xbdcfd75b	-0.10148498
219	0x3c959999	0.018261718
220	0xbcfbceba	-0.030738223
221	0xbc8ff70f	-0.017573861
222	0xbd6bcb8d	-0.057567168
223	0x3d9e9361	0.07742954
224	0xbd88574c	-0.066572756
225	0x3d8d8451	0.06910003
226	0x3cbc9205	0.023018846
227	0xbc9ea6ce	-0.019366648
228	0x3c764aa2	0.015032442
229	0x3d46d44e	0.048542313
230	0x3b1e2751	0.002413232
231	0x3c60b248	0.013714381
232	0x3d65f1ad	0.056138683
233	0xbda6087b	-0.08107086
234	0xbbcad600	-0.0061900616
235	0xbd58de84	-0.052946582
236	0xbd74bf25	-0.059752602
237	0x3dd358c4	0.10319665
238	0xbc75df35	-0.01500683
239	0x3dac21ed	0.08404908
240	0xbd0dff1a	-0.034667112
241	0x3c4ea7d8	0.012613259
242	0xbd8bc4ce	-0.06824647
243	0x3ce6d25e	0.028176483
244	0x3ccd9493	0.02509526
245	0xbd070cb2	-0.03297109
246	0xbd63ab93	-0.055583548
247	0x3d287e33	0.041135978
248	0x3c9cf12e	0.019157972
249	0x3e076945	0.13223751
250	0xbd8b8d61	-0.06814075
251	0x3d80d189	0.06289966
252	0x3cd34cd9	0.02579348
253	0xbd2bc55f	-0.041936275
254	0x3d2b44a1	0.041813497
255	0xbbea5a3d	-0.0071518705

cnn.0.mods.2.weight f4 [16]
0	0x3ebd9a0b	0.37031588
1	0x3f31709f	0.6931247
2	0x3f5d5eb5	0.86472636
3	0x3dbc7a57	0.09203022
4	0x3e7a6c33	0.24455337
5	0x3ef1bc2e	0.47213882
6	0x3f1e55df	0.6184978
7	0x3d2fa404	0.042881027
8	0x3ee59e6e	0.44847435
9	0x3f35e87a	0.71057856
10	0x3ea6eb2b	0.32601294
11	0x3e83df72	0.25756413
12	0x3c9fc317	0.019502206
13	0x3c593feb	0.013259868
14	0x3ec8cf7b	0.39220795
15	0x3e557b4b	0.20847814

cnn.0.mods.2.bias f4 [16]
0	0x3b29e541	0.0025924
1	0xbb12e0cf	-0.0022411828
2	0x3aa2f712	0.0012433252
3	0xba86ea6f	-0.0010293255
4	0x3a83ab7d	0.0010045614
5	0xbb1126d8	-0.0022148397
6	0x39deefb1	0.00042521724
7	0x3a553cfd	0.0008134393
8	0x3b1e29df	0.0024133844
9	0x3a7c1215	0.00096157315
10	0xbb20e093	-0.002454792
11	0x3ab44eae	0.0013756359
12	0x3b2a4f19	0.0025987087
13	0xb9c0e15b	-0.00036788997
14	0x3a76b88e	0.0009411656
15	0xbb1123a3	-0.0022146485

cnn.0.mods.4.weight f4 [32, 16, 3, 3]
0	0x3d98dff2	0.07464589
1	0xbc01a304	-0.007912401
2	0xbd00e576	-0.03146883
3	0x3d8bcf5e	0.068266615
4	0x3d074431	0.033024017
5	0x3bfed351	0.0077766557
6	0x3ca0e9ed	0.019642795
7	0xbcc45752	-0.023967419
8	0xbdee5c91	-0.116387494
9	0xbd5a4f45	-0.053298254
10	0xbcb771bb	-0.022393098
11	0xbc4b4449	-0.012406417
12	0x3d744923	0.05964006
13	0xbc662541	-0.014046968
14	0x3dd16be3	0.10225656
15	0xbd19d336	-0.037554942
16	0x3ac5c997	0.0015089986
17	0xbcff8301	-0.031190397
18	0x3dea6c0e	0.11446391
19	0x3d59ff87	0.053222205
20	0xbdabc167	-0.08386498
21	0xbafd792e	-0.0019338483
22	0xbdb3fddb	-0.087886535
23	0x3d54d293	0.05195863
24	0xbc546ba8	-0.01296512
25	0xbe43d1ef	-0.19123052
26	0xbe0fa982	-0.14029506
27	0xbd854b10	-0.06508458
28	0x3dc8d0f7	0.09805482
29	0xbd8148db	-0.06312724
30	0xbd8fdd0e	-0.07024585
31	0x3d225de2	0.039640315
32	0x3b80dfbe	0.003932922
33	0x3aae508c	0.0013299151
34	0x3ce5d70f	0.02805665
35	0xbd29f5d9	-0.041494224
36	0x3d5899da	0.0528811
37	0x3dd71bd2	0.10503353
38	0x3d78b4e1	0.060719375
39	0xbdbd6c31	-0.092491515
40	0x3cd74cc5	0.026281724
41	0x3dcae7bb	0.0990748
42	0xbc16ba52	-0.009199696
43	0x3d804c13	0.0626451
44	0x3d610d4d	0.054944325
45	0xbd1fa9e4	-0.03898038
46	0x3cd88084	0.026428469
47	0x3ddbf635	0.1074032
48	0x3dffa3a0	0.12482381
49	0xbd88947e	-0.06668948
50	0xbcdbc5a0	-0.026827633
51	0x3c90712d	0.017632091
52	0xbd886f6a	-0.066618755
53	0x3cb2e18c	0.021836065
54	0xbd8cbacb	-0.068715654
55	0xbcd99122	-0.026558463
56	0x3c0f7a7a	0.008757228
57	0x3bdb420d	0.0066912235
58	0x3d723556	0.059132896
59	0xbdc7db08	-0.09758574
60	0xbcd36724	-0.025806017
61	0x3dc459a6	0.095874116
62	0x3c0ff929	0.008787432
63	0xbcbe8372	-0.023256037
64	0x3ca16f02	0.019706253
65	0xbd18a174	-0.03726335
66	0x3d5225c8	0.051305562
67	0xbda5e300	-0.080999374
68	0x3d2c4212	0.042055197
69	0x3dc99904	0.098436385
70	0x3c306c44	0.010768
71	0x3dc2cf31	0.09512175
72	0x3d4b0655	0.049566586
73	0xbc29990b	-0.01035143
74	0x3df4a3e8	0.11945325
75	0x3d0c0916	0.034188353
76	0x3cfe9df7	0.031081183
77	0xbace3fe3	-0.0015735592
78	0xbdbb80bc	-0.091554135
79	0xbd3f2a74	-0.046671346
80	0xbcf26610	-0.029589683
81	0x3d09aade	0.033610217
82	0x3bc6a5c2	0.0060622403
83	0xbdab4a21	-0.08363748
84	0x3be11515	0.0068689683
85	0x3daebd81	0.08532239
86	0xbd9a6ff7	-0.07540887
87	0xbd097d96	-0.033567034
88	0x3e066afa	0.13126746
89	0x3c8ee50c	0.017443202
90	0xbc28f820	-0.010313064
91	0x3e02c7f3	0.12771587
92	0xbd04395f	-0.032281276
93	0x3d7be26d	0.061495233
94	0xbe180b0b	-0.14847963
95	0x3aad80dc	0.0013237256
96	0xbc7fb092	-0.0156060625
97	0x3d8f4a98	0.069966495
98	0xbd962510	-0.07331288
99	0x3d9bdf91	0.07611001
100	0xbd8b31b9	-0.06796593
101	0x3d878372	0.06616868
102	0xbda17b1e	-0.07884811
103	0xbd69309c	-0.056931123
104	0xbcefdb89	-0.029279487
105	0x3c59665f	0.013269036
106	0xbb90f0ea	-0.0044232504
107	0x3ce438ff	0.02785921
108	0xbdd31cb9	-0.10308213
109	0x3c5dde9c	0.013541844
110	0xbe094c85	-0.13408096
111	0xbc78958c	-0.0151723735
112	0xbe07342e	-0.13203499
113	0x3d3d3665	0.046194453
114	0xbb952ff1	-0.004552834
115	0xbd23a046	-0.03994777
116	0x3e011da3	0.12608962
117	0x3c84b7f9	0.016201006
118	0xbdf2dbfd	-0.11858366
119	0xbd1ce19d	-0.0383011
120	0xbd8a6019	-0.067566104
121	0x3d5c9b1e	0.05385887
122	0x3d89bd4e	0.0672556
123	0xbd3fb28d	-0.04680114
124	0xba2a8f0c	-0.0006506301
125	0xbdfe0b59	-0.12404508
126	0xbda40425	-0.08008603
127	0xbd83cff1	-0.06436146
128	0x3cae2098	0.021255776
129	0xbc9a0113	-0.01879934
130	0x3d63e5d1	0.055639092
131	0x3dc19929	0.09453041
132	0x3d8e2d41	0.06942225
133	0xbd8718ca	-0.06596525
134	0xbca078f2	-0.019588921
135	0x3d2b5d58	0.041837066
136	0x3d66fea2	0.05639518
137	0x3c0dc008	0.008651741
138	0xbc27f5ba	-0.010251457
139	0xbe08b7ee	-0.13351414
140	0x3bcad49c	0.006189896
141	0xbcf01e42	-0.029311303
142	0x3b7dfec0	0.003875658
143	0xbd71f1d5	-0.05906852
144	0xbba37f5f	-0.004989549
145	0xbd2ff4f3	-0.04295821
146	0xbd250378	-0.04028651
147	0xbd6b3a22	-0.057428487
148	0xbccd2f48	-0.02504696
149	0x3d849ba7	0.06475001
150	0xbdc0b3ce	-0.09409295
151	0xbd6ef698	-0.05834064
152	0x3b1e636c	0.0024168147
153	0xbcc194db	-0.02363055
154	0xbda50097	-0.08056753
155	0x3d06c2f5	0.03290077
156	0xbdc57e94	-0.096432835
157	0xbcab0652	-0.020877037
158	0x3bc125da	0.005894405
159	0xbd9ddb2f	-0.077078216
160	0xbc83f364	-0.016107269
161	0x3cc686ed	0.02423426
162	0xbb17ef6f	-0.0023183485
163	0x3db4f7ec	0.0883635
164	0xbd3f6bba	-0.046733595
165	0x3cd9e9ba	0.026600707
166	0xbdb73e20	-0.08947396
167	0x3c72a9ac	0.014810961
168	0x3da1ad8e	0.07894431
169	0x3d50b660	0.050955176
170	0xbda3200d	-0.079650976
171	0xbdb0e920	-0.08638215
172	0xbdb4a14a	-0.08819826
173	0xbe10ac48	-0.1412822
174	0x3e05b820	0.1305852
175	0xbe192947	-0.14957152
176	0xbd4da060	-0.050201774
177	0x3d34d332	0.044146724
178	0xbd9e2254	-0.07721391
179	0xbc88bcff	-0.016691683
180	0xbcd8119f	-0.02637559
181	0x3c97bedc	0.018523626
182	0xbdaf9f98	-0.08575362
183	0xbd3dad54	-0.046307877
184	0x3b923195	0.004461477
185	0x3d5ab3d1	0.053394143
186	0xbd307910	-0.043084204
187	0x3bbfadc6	0.005849573
188	0xbcbbfeb6	-0.022948604
189	0x3d97a6c5	0.07404856
190	0x3afee689	0.0019447367
191	0x3cc70f14	0.024299182
192	0x3c47a93e	0.012186347
193	0xbdeabebc	-0.11462161
194	0xbc2729c3	-0.010202828
195	0x3d9a05bd	0.07520626
196	0xbda8c9ac	-0.08241591
197	0xbdbcc975	-0.092181124
198	0xbdc8aca5	-0.09798554
199	0xbca83658	-0.020533726
200	0x3dc60867	0.09669571
201	0xbd0d6f15	-0.034529764
202	0xbdc613c5	-0.096717395
203	0x3d6da5e6	0.05801954
204	0x3ce6f49f	0.028192816
205	0x3d517925	0.051140923
206	0xbd88a88c	-0.06672773
207	0x3da0c107	0.07849317
208	0x3debbac5	0.11510233
209	0x3d5cacb5	0.053875644
210	0x3ddad4d4	0.10685125
211	0x3d80d1f5	0.06290046
212	0xbb9bad40	-0.0047508776
213	0xbd6071f5	-0.054796178
214	0x3dbccd85	0.09218887
215	0x3d02a259	0.031893108
216	0x3b854be6	0.0040678857
217	0x3dc1f160	0.09469867
218	0xbcc01368	-0.023446754
219	0xbd2c68a6	-0.042091988
220	0xbd05f00a	-0.032699622
221	0x3d2fabc8	0.042888433
222	0xbd18cb83	-0.03730346
223	0x3df129a2	0.11775519
224	0xbd575e9f	-0.052580472
225	0xbc9a76d3	-0.018855488
226	0xbd1e97bd	-0.038718928
227	0x3dab227b	0.08356186
228	0x3dc3c0f4	0.09558287
229	0x3c8b7cf7	0.017027361
230	0x3d1d972e	0.038474254
231	0x3de8b7a1	0.113631494
232	0xbded41ec	-0.11584839
233	0xbd96aab0	-0.07356775
234	0xbd815ecf	-0.063169114
235	0xbe0d7c56	-0.13816962
236	0xbd8b47b9	-0.068007894
237	0x3b79818d	0.0038071603
238	0x3cd604d1	0.026125344
239	0xbca42452	-0.02003685
240	0xbcdc4eb5	-0.026893
241	0x3d35025a	0.044191696
242	0xbdcedd85	-0.10100845
243	0xbbf7fcfe	-0.007568001
244	0xbd97205e	-0.073792204
245	0xbd625af4	-0.05526252
246	0x3d7138a9	0.058891926
247	0xbd0c8f4f	-0.034316357
248	0x3dc21aa0	0.094777346
249	0x3c81dc7b	0.015852204
250	0xbce2e552	-0.02769724
251	0x3d15189c	0.036400422
252	0x3d77e4c2	0.060520895
253	0x3cc0d6c6	0.023539912
254	0x3ded9077	0.1159982
255	0x3d06a279	0.03286979

cnn.0.mods.5.weight f4 [32]
0	0x3e920d73	0.28525886
1	0x3eae9706	0.34099597
2	0x3e8c90cb	0.27454218
3	0x3e3d78bd	0.18503089
4	0x3f30abab	0.69011945
5	0x3f639e82	0.8891374
6	0x3ee70a52	0.4512506
7	0x3e70a807	0.23501597
8	0x3f28347c	0.65705085
9	0x3d0b4108	0.033997566
10	0x3e815486	0.252598
11	0x3baf8aa1	0.005357102
12	0x3e7a738f	0.24458145
13	0x3f463163	0.7741911
14	0x3e793f44	0.2434054
15	0x3f27f9e3	0.6561567
16	0x3f18bed4	0.5966618
17	0x3f2145e3	0.62997264
18	0x3f0d38f6	0.5516504
19	0x3f55d776	0.8353189
20	0x3f729526	0.9475883
21	0x3e204ced	0.15654345
22	0x3f642adb	0.8912789
23	0x3ef90c37	0.48642132
24	0x3d04d379	0.03242824
25	0x3eaac651	0.33354428
26	0x3e940102	0.2890702
27	0x3f78f83d	0.9725378
28	0x3efc1d78	0.49241233
29	0x3f63b563	0.8894865
30	0x3f4fc0d2	0.81153595
31	0x3ecc1792	0.39861733

cnn.0.mods.5.bias f4 [32]
0	0x3a3ff56e	0.00073226437
1	0xbb16b5c7	-0.0022996531
2	0xbb525b7f	-0.0032097993
3	0xbb0c5ff2	-0.0021419493
4	0x3b9a4e65	0.0047090524
5	0x3a10a7ae	0.000551815
6	0x3ae0bd5b	0.0017146276
7	0xba586661	-0.0008255002
8	0xbaf5cdc7	-0.0018753343
9	0xba1e9b6e	-0.00060503825
10	0x3b2052d9	0.0024463444
11	0xbaea246f	-0.0017863641
12	0x3a3b2bf3	0.0007140033
13	0x378fa928	1.7125698e-05
14	0xba83b95e	-0.001004975
15	0x3aa54290	0.0012608338
16	0x3a930189	0.0011215667
17	0xbb8ea143	-0.00435272
18	0x3a1a98cb	0.0005897402
19	0x3ae2f315	0.0017314876
20	0x3aedf197	0.0018153664
21	0x3b4401fe	0.0029908414
22	0xbb4cbbb7	-0.0031239816
23	0xbaab1df0	-0.0013055187
24	0x388cee1c	6.7200715e-05
25	0x3ae84836	0.0017721716
26	0x3b597cfc	0.0033186069
27	0xba0e2888	-0.000542291
28	0x3b81e647	0.003964219
29	0xb9fb7f17	-0.0004796914
30	0x38753d30	5.8469537e-05
31	0x3b59445d	0.003315232

cnn.0.mods.7.weight f4 [64, 32, 3, 3]
0	0xbd90d73d	-0.070723034
1	0xbba7bb8a	-0.005118792
2	0x3c8ba9b9	0.017048704
3	0x3c8d4081	0.017242672
4	0x3c31a720	0.010843068
5	0xbcc2890d	-0.023746992
6	0x3df0f762	0.117659345
7	0x3cad8b16	0.021184485
8	0x3cb613ba	0.022226203
9	0x3d990d0a	0.0747319
10	0xbbf47404	-0.007460119
11	0xbcce48db	-0.025181225
12	0xbc8fbaff	-0.017545221
13	0x3c71fecf	0.014770224
14	0xbcfa19fa	-0.030529965
15	0xbaa1b8de	-0.001233842
16	0xbc019813	-0.0079097925
17	0x3cf419da	0.029797483
18	0x3d5dcd84	0.054151073
19	0x3d3ce6d1	0.04611856
20	0x3c209ccf	0.009803011
21	0x3cb05599	0.021525191
22	0x3d8038e4	0.06260851
23	0x3cca3e85	0.024688015
24	0x3d88a07e	0.066712365
25	0xbdb4fb44	-0.088369876
26	0xbca5556a	-0.02018233
27	0xbdc4509d	-0.09585688
28	0x3d1d4b2e	0.038401775
29	0x3cc35a63	0.02384681
30	0xbd095b96	-0.03353461
31	0x3da100a0	0.07861447
32	0xbcbdde5e	-0.023177322
33	0x3dde9bb9	0.108695455
34	0xbcc666d9	-0.024218963
35	0xbc1e4ef6	-0.00966238
36	0xbc8e5574	-0.017374732
37	0xbcd06c7d	-0.025442356
38	0xbd27fb25	-0.041010994
39	0xbba29995	-0.004962156
40	0xbd15c071	-0.03656048
41	0x3c365ccd	0.011130524
42	0x3d6dd146	0.058060907
43	0xbb01ba87	-0.0019795017
44	0x3d0f7e94	0.035032824
45	0x3c095471	0.008381949
46	0x3d7cddf0	0.061735094
47	0xbc6beb44	-0.014399353
48	0xbd450812	-0.0481034
49	0x3d316aef	0.04331487
50	0x3c98a95b	0.018635442
51	0xbc47dd08	-0.012198694
52	0xbddbe69c	-0.107373446
53	0xbdafc113	-0.08581748
54	0x3c398c91	0.011325018
55	0xbbd6b6d5	-0.006552557
56	0x3de5f59e	0.112284884
57	0xbb51e380	-0.003202647
58	0x3c2ca8af	0.010538264
59	0x3d39e201	0.04538155
60	0xbc912c66	-0.017721366
61	0xbd61c520	-0.055119634
62	0x3d9fc32b	0.07800897
63	0x3db2d76d	0.087324955
64	0x3d43f036	0.047836505
65	0x3d103d11	0.035214487
66	0xbc7df5cc	-0.015500497
67	0xbd5bf4c1	-0.053700212
68	0xbd8e5bb8	-0.06951088
69	0xbbb1e5e7	-0.005429018
70	0x3bb14d06	0.0054107932
71	0xbd36c738	-0.044623584
72	0xbdac10f1	-0.08401669
73	0xbbc966cc	-0.0061462875
74	0x3d64e341	0.05588079
75	0xbc141c33	-0.009039926
76	0xbda59180	-0.080843925
77	0xbcc341a0	-0.023835003
78	0x3b4b37c5	0.0031008583
79	0xbce6b220	-0.028161108
80	0x3c6b3951	0.014356927
81	0xbc0e24b3	-0.008675742
82	0xbd3def18	-0.046370596
83	0x3bff9d50	0.0078007355
84	0xbd0aa03f	-0.03384423
85	0x3c15c276	0.009140601
86	0xbcdde9d0	-0.02708903
87	0x3cd014e9	0.025400596
88	0x3d29b35c	0.041430816
89	0xbcf9d6a3	-0.030497855
90	0x3cddcab6	0.0270742
91	0x3cf39853	0.02973572
92	0x3d4f66f8	0.050635308
93	0xbc0164fa	-0.00789761
94	0x3c82195b	0.015881231
95	0x3d06f130	0.032944858
96	0x3d56e28f	0.052462157
97	0xbcc6fa37	-0.024289234
98	0x3d31a98f	0.043374594
99	0x3c7f6a19	0.0155892605
100	0xbd425f65	-0.047454257
101	0x3cdb8069	0.02679463
102	0x39a62d6d	0.00031695832
103	0xbc87eac0	-0.01659143
104	0x3b37797d	0.0027995997
105	0xba1b383a	-0.0005921159
106	0x3c16daec	0.0092074685
107	0x3b84e4b6	0.004055585
108	0x3c4b11ae	0.012394352
109	0x3b2a47d4	0.0025982754
110	0x3cf79a4c	0.030224942
111	0x3cb1f43b	0.021722903
112	0x3b8db3eb	0.0043244264
113	0x3bb1cb66	0.0054258583
114	0xbd825190	-0.06363213
115	0xbb8c5718	-0.0042828433
116	0xbba32be1	-0.004979596
117	0x3b27ca21	0.0025602656
118	0xbd534ab7	-0.051584926
119	0xbcd6651e	-0.026171263
120	0xbde71bec	-0.112846226
121	0xbd6b78f8	-0.05748841
122	0x3dfceab7	0.12349456
123	0x3d5b94c7	0.053608682
124	0x3cf2c8c2	0.029636744
125	0x3b4ae38e	0.0030958387
126	0xbdd29a33	-0.102833174
127	0x3d2ce80a	0.042213477
128	0xbd6451cd	-0.055742074
129	0x3c7ac8e9	0.01530669
130	0xbd304515	-0.04303463
131	0xbc66290a	-0.01404787
132	0x3b3231fb	0.0027190435
133	0xbd363186	-0.044480823
134	0x3d5e1877	0.05422255
135	0x3d929d1b	0.07158872
136	0xbd4da552	-0.05020649
137	0x3c4d9436	0.012547543
138	0xbd189422	-0.037250645
139	0x3c057bdf	0.008147209
140	0xbbe5e596	-0.007015894
141	0xbd5b20f3	-0.05349822
142	0xbce13173	-0.0274894
143	0x3d922ed1	0.07137836
144	0x3b5d2690	0.003374491
145	0xbd5d75cc	-0.054067418
146	0xbd10fe64	-0.035398856
147	0xbc4033ec	-0.011731129
148	0x3c1b1d7b	0.009467478
149	0x3cc8b638	0.024500951
150	0xbd8323b8	-0.06403297
151	0xbc98be80	-0.018645525
152	0x3d885460	0.06656718
153	0xbcb2d120	-0.021828234
154	0x3bc3d200	0.0059759617
155	0x3cb0bd28	0.021574572
156	0xbda16475	-0.07880489
157	0xbd94e92d	-0.07271037
158	0x3d084ee0	0.033278346
159	0x3d911c61	0.07085491
160	0x3c478c92	0.012179511
161	0xbd416c39	-0.04722235
162	0xbcd61ae0	-0.026135862
163	0x3b4cdfd9	0.0031261353
164	0x3cef33ed	0.029199565
165	0x39b4fcf9	0.00034520755
166	0x3c384dda	0.01124903
167	0x3ceada40	0.028668523
168	0x3c565408	0.013081558
169	0xbd3365c7	-0.043798234
170	0x3c1279f0	0.008940205
171	0x3cf84099	0.03030424
172	0x3badb536	0.005301143
173	0x3cf360e4	0.029709287
174	0xbd491420	-0.04909146
175	0xbb642e89	-0.0034817776
176	0xbb20bcf8	-0.0024526697
177	0xbb8274b0	-0.0039811954
178	0x3d78587a	0.060631253
179	0xbca1e2f0	-0.019761533
180	0x3d3c22e2	0.045931704
181	0xbce7ad3c	-0.028280847
182	0xbd469cc4	-0.048489347
183	0x3d11d1b5	0.035600383
184	0x3d387198	0.045030206
185	0x3cb43b9f	0.022001086
186	0x3cd6bd39	0.026213275
187	0xbcd2c6a8	-0.025729492
188	0xbd108c2d	-0.035289932
189	0x3c646538	0.013940148
190	0x3dd11916	0.10209863
191	0xbd971ed6	-0.07378928
192	0xbcb1a5a5	-0.02168543
193	0x3b58a30e	0.0033056173
194	0x3ce01624	0.027354307
195	0xbd62a10d	-0.05532937
196	0xbd859dc5	-0.06524233
197	0xbc90a330	-0.017655939
198	0x3d16c81e	0.03681194
199	0xbd18e086	-0.037323497
200	0x3c048dff	0.008090495
201	0x3d22ce6b	0.039747637
202	0xbd478bce	-0.048717313
203	0xbd064b1d	-0.032786477
204	0xbd1d31df	-0.03837764
205	0x3b20bc09	0.002452614
206	0xbc1ab22e	-0.009441895
207	0xbd46b9ad	-0.048516918
208	0x3cd08eb5	0.025458673
209	0x3d1f5872	0.038902707
210	0x3ce5a9a9	0.028035002
211	0x3c25c692	0.010118144
212	0x3d56d229	0.052446518
213	0x3d356b78	0.044291943
214	0xbd2be032	-0.041961856
215	0x3d680715	0.05664738
216	0x3c9f62ee	0.019456353
217	0x3cdb20a8	0.02674897
218	0xbc59b5ae	-0.013287945
219	0x3d8e50ad	0.069489814
220	0xbcefe9bd	-0.02928626
221	0x3bd8040f	0.0065922807
222	0xbd0ff5c3	-0.035146486
223	0x3db2dc8d	0.08733473
224	0x3ba5bb03	0.005057694
225	0x3b082874	0.0020776065
226	0x3dcf8552	0.10132851
227	0xbd196953	-0.03745396
228	0x3c51f686	0.012815123
229	0xbc4848ba	-0.012224371
230	0x3dc4066e	0.09571539
231	0xbdb836a5	-0.089947976
232	0x3dd17d48	0.102289736
233	0x3ad6df7f	0.0016393511
234	0xbd4f4b52	-0.05060894
235	0xbd297e49	-0.0413802
236	0xba59c532	-0.00083072775
237	0x3d889d91	0.066706784
238	0xbd3bc89a	-0.045845605
239	0x3d97f7b0	0.074202895
240	0x3c2a63fd	0.010399816
241	0x3bd9f78e	0.0066518253
242	0x3bbfeafb	0.0058568693
243	0x3d8264aa	0.063668564
244	0x3d80c7e0	0.06288123
245	0xbca1e286	-0.019761335
246	0xb99e6172	-0.0003020871
247	0xbd68065b	-0.056646686
248	0xbd9fabf6	-0.07796471
249	0x3d0ba837	0.03409597
250	0xbb3b10c7	-0.0028543936
251	0xbd8af7af	-0.06785523
252	0x3dc099af	0.09404313
253	0x3d180bcf	0.037120637
254	0x3d209242	0.039201982
255	0x3bb8bed8	0.0056379847

cnn.0.mods.8.weight f4 [64]
0	0x3e19a8c9	0.15005793
1	0x3e2971a8	0.16547263
2	0x3f7de8ca	0.9918333
3	0x3f1a2b11	0.60221964
4	0x3e827bd2	0.25485092
5	0x3e013629	0.12618317
6	0x3f3be713	0.73399466
7	0x3f61ff30	0.8828001
8	0x3eced60a	0.40397674
9	0x3e3fa482	0.18715099
10	0x3eb6a207	0.35670492
11	0x3f24beae	0.64353454
12	0x3f1e65e3	0.61874217
13	0x3f4a8e76	0.7912363
14	0x3f6e749d	0.9314669
15	0x3ee4ac60	0.44662762
16	0x3f51b278	0.81912947
17	0x3f5a7f87	0.8535084
18	0x3f77b698	0.9676299
19	0x3da804a0	0.08204007
20	0x3e8b927b	0.27260193
21	0x3f27f34f	0.65605634
22	0x3f59322d	0.8484219
23	0x3f007d3e	0.50191104
24	0x3ecf45d2	0.40482956
25	0x3f3da939	0.7408634
26	0x3f28e470	0.6597357
27	0x3e217b27	0.15769635
28	0x3ea191e4	0.31556618
29	0x3de7d459	0.11319799
30	0x3f47f4bd	0.78107816
31	0x3f31f5e1	0.69515806
32	0x3b3b81fe	0.0028611417
33	0x3f1e7e52	0.619115
34	0x3f6aaec8	0.91672945
35	0x3da36a76	0.0797929
36	0x3f51d370	0.81963253
37	0x3e935c19	0.28781202
38	0x3f017f22	0.50584614
39	0x3f184965	0.5948699
40	0x3ee56fb1	0.44811776
41	0x3ef62df4	0.48081934
42	0x3f014b29	0.5050531
43	0x3f58bff5	0.84667903
44	0x3f7a6386	0.9780811
45	0x3eafbfd5	0.34326044
46	0x3e258d78	0.16167247
47	0x3e8ce944	0.27521718
48	0x3f4bdc82	0.79633343
49	0x3d858a55	0.06520525
50	0x3f306b49	0.68913704
51	0x3f0fd926	0.5619072
52	0x3ee3535b	0.44399533
53	0x3ea64959	0.32477835
54	0x3eb964a7	0.36209604
55	0x3c1fe5af	0.009759351
56	0x3f521289	0.8205953
57	0x3edce71f	0.4314508
58	0x3e951049	0.29113987
59	0x3f54bdec	0.831023
60	0x3edf9602	0.43669134
61	0x3e735c12	0.23765591
62	0x3f2ca183	0.6743395
63	0x3d8d7b8c	0.0690833

cnn.0.mods.8.bias f4 [64]
0	0xba7386e0	-0.00092898123
1	0x3a0ef0cb	0.0005452751
2	0xb9cfa4a8	-0.00039604795
3	0x3afb66a3	0.0019180368
4	0x3b5fef8e	0.0034169885
5	0x38ee19b8	0.00011353515
6	0xb982ca03	-0.00024946043
7	0xba25e122	-0.0006327798
8	0x3bafa402	0.0053601274
9	0xbb3918db	-0.0028243575
10	0xbb07d3e4	-0.0020725662
11	0x3b758262	0.0037461747
12	0xba526d0d	-0.0008027114
13	0xb97613d0	-0.00023467769
14	0x3a7b950d	0.00095971004
15	0xb9b32628	-0.0003416997
16	0xba2cc7a3	-0.00065910275
17	0xbba80949	-0.00512806
18	0xbaf09fec	-0.0018358207
19	0x3b77ac28	0.0037791822
20	0xbb225c28	-0.0024774168
21	0xba576fa4	-0.0008218235
22	0x3b311e2e	0.0027026045
23	0xbb740603	-0.0037235029
24	0x3aaa6e6d	0.001300288
25	0xbb1cec32	-0.0023944494
26	0x3a1df384	0.00060253614
27	0x3afd63f8	0.0019332161
28	0xba6f7166	-0.0009134024
29	0xb99c2b2a	-0.00029786798
30	0xbbcd42a5	-0.006264048
31	0xbb73ce15	-0.0037201692
32	0xb8af7486	-8.3663545e-05
33	0x3b0a516f	0.0021105667
34	0xba7e3475	-0.0009697148
35	0xbb124150	-0.0022316761
36	0xba9dc76f	-0.0012037585
37	0x3b0c140a	0.002137425
38	0x3b12bf3a	0.0022391812
39	0x3923b8c4	0.00015613722
40	0xba5cccf4	-0.00084228744
41	0x3a38f22b	0.0007055129
42	0x39a2a153	0.00031019244
43	0x38e6f56c	0.00011012968
44	0x3b9ce704	0.0047882814
45	0xbb1add03	-0.0023630268
46	0x3bb6d6e1	0.005579815
47	0x3b3ed5f8	0.0029119235
48	0x3b2aadb6	0.0026043481
49	0x3aca79b4	0.0015447647
50	0xb9cf7545	-0.0003956949
51	0xb9e91f67	-0.0004446462
52	0x3b0991a1	0.0020991343
53	0x3b41a4b6	0.0029547638
54	0xba5eb4f7	-0.0008495594
55	0xb9c7f25f	-0.00038136818
56	0x3b0741e2	0.0020638634
57	0xbb2d435c	-0.0026437854
58	0x381c9a1b	3.733682e-05
59	0x3b092a09	0.0020929596
60	0x3b5c7364	0.0033638114
61	0x3a717fa1	0.00092124386
62	0xbabf2161	-0.0014582091
63	0xbb0804b7	-0.0020754763

cnn.1.blocs.0.weight f4 [64, 64, 3, 3]
0	0x3b7dcfe5	0.003872865
1	0xbcf2d0ea	-0.029640634
2	0x3cfb512c	0.030678354
3	0xbbbad1e3	-0.00570129
4	0x3c2c5580	0.010518432
5	0x3bbfd404	0.0058541317
6	0xbcf64f56	-0.030067127
7	0xbcadb96c	-0.02120658
8	0xbc59c012	-0.013290422
9	0x3c9c2f67	0.019065572
10	0xbb9b18d4	-0.0047331844
11	0xbcb739bf	-0.022366403
12	0xbc363c3f	-0.011122762
13	0xbd2eafea	-0.042648233
14	0x3d454b31	0.04816741
15	0x3c85ce39	0.016333686
16	0xbc75afa7	-0.014995492
17	0x3ca3972d	0.019969547
18	0x3c64ceb6	0.013965299
19	0x3b2450b1	0.002507251
20	0xbd213844	-0.0393603
21	0xbd28162c	-0.04103677
22	0xbd08c193	-0.03338773
23	0xbd0acf9e	-0.033889405
24	0xbc74f779	-0.01495158
25	0xbd892904	-0.06697276
26	0x3d176776	0.036963902
27	0x3b93f924	0.004515784
28	0xbbbe56c5	-0.0058086836
29	0x3c1ca559	0.009560906
30	0xb9f677bc	-0.00047009985
31	0xbd26c8f8	-0.040719002
32	0xbc68aebd	-0.014201817
33	0xbd8f1ad3	-0.06987538
34	0x3b11467d	0.0022167258
35	0x3c3a7f7d	0.011382935
36	0x3d851a1a	0.06499119
37	0xbce60009	-0.028076189
38	0xbd29231d	-0.041293252
39	0x3d7a59d6	0.06112083
40	0xbd01813a	-0.03161738
41	0xbd172664	-0.036901847
42	0x3ca06b8e	0.019582536
43	0xbd81c1ef	-0.06335818
44	0x3d27b759	0.04094634
45	0xbd8d4603	-0.06898119
46	0xbbaf527c	-0.005350409
47	0x3af17805	0.001842261
48	0x3d835666	0.064129636
49	0xbd13e91c	-0.036110982
50	0x3c9415d0	0.018076807
51	0x3cb300be	0.02185094
52	0x3c99b669	0.018763738
53	0xbc64165f	-0.013921349
54	0x3cb34412	0.021883044
55	0x3c457afb	0.012053247
56	0x3d8187c9	0.06324727
57	0x3d0a91b5	0.033830363
58	0x3d466e43	0.048444998
59	0xbb48f0b0	-0.003066104
60	0x3ca7f8d1	0.020504387
61	0x3c0812e5	0.008305286
62	0xbd1fc5b6	-0.03900691
63	0x3d1ca532	0.03824348
64	0x3d56f196	0.052476488
65	0x3d85dd7a	0.06536384
66	0x3ace4fb2	0.0015740304
67	0x3b3343a8	0.0027353559
68	0xbc1e0d43	-0.0096467165
69	0x3c393cdd	0.011306015
70	0xbbbdfee6	-0.0057982085
71	0x3c312be5	0.010813688
72	0x3cea41c7	0.028595818
73	0x3cd77198	0.026299283
74	0x3d626a34	0.055277064
75	0x3dae197d	0.08500955
76	0xbc808c83	-0.015692001
77	0x3c58b13e	0.013225852
78	0xba2e34bd	-0.0006645432
79	0xbb99a726	-0.004689115
80	0xbb588961	-0.0033040869
81	0x3c913a30	0.017727941
82	0x3ceef527	0.029169632
83	0xbd303aa0	-0.04302466
84	0xbce94c2a	-0.0284787
85	0x3cf363fb	0.02971076
86	0x3d15b139	0.036545966
87	0xbce1f41e	-0.027582224
88	0x3cb7c516	0.022432845
89	0x3bfa92f1	0.0076469113
90	0x3d127d5c	0.035764083
91	0xbbfcac0d	-0.0077109397
92	0xbcea7041	-0.02861798
93	0xbc585751	-0.013204412
94	0xbcb9416a	-0.0226142
95	0x3c24a4e7	0.010049081
96	0xbcd4df54	-0.025985397
97	0xbd282578	-0.041051358
98	0xbc777dec	-0.015105706
99	0x3c6dd5c1	0.014516295
100	0xbbb15144	-0.005411299
101	0x3c2d0c8a	0.010562072
102	0x3b8ba773	0.004261905
103	0xbcba0970	-0.022709578
104	0xbc7c0881	-0.015382887
105	0x3d979e25	0.074032106
106	0xbcbeb17c	-0.02327799
107	0x3cabd186	0.020973932
108	0xbcfb1f3d	-0.030654544
109	0xbc601a33	-0.013678121
110	0x3d191e07	0.037382152
111	0x3cb4d1b4	0.02207265
112	0x3cc71202	0.024300579
113	0x3cc36f80	0.023856878
114	0x3d9e5fe4	0.077331334
115	0x3c250e18	0.010074161
116	0x3cb01dd6	0.021498602
117	0xbcd7ec9f	-0.026357947
118	0xbcd2c688	-0.025729433
119	0x3c0d98c9	0.008642384
120	0xbd153146	-0.036423944
121	0xbb35fed3	-0.0027770295
122	0xbc6807c5	-0.014162009
123	0xbd773d95	-0.060361464
124	0xbb8f0d2b	-0.0043655834
125	0xbc130a9c	-0.008974697
126	0xbd63411d	-0.05548202
127	0x3c256f26	0.010097301
128	0xbc2d0c3f	-0.010562002
129	0xbd178195	-0.036988813
130	0xbc87fb63	-0.016599363
131	0x3ce3909d	0.027778918
132	0x3c2bc1cb	0.010483216
133	0x3d683521	0.056691293
134	0x3b742f88	0.0037259776
135	0x3ce39cef	0.027784793
136	0x3d7d88ec	0.061898157
137	0x3ceae19f	0.028672038
138	0x3be92f5e	0.0071162423
139	0x3d6cac83	0.057781707
140	0xbd8e3208	-0.069431365
141	0x3ce6f1a0	0.028191388
142	0x3d7a2f3e	0.06108021
143	0x3c075057	0.008258901
144	0xbd724d9e	-0.059156053
145	0x3c3d0d37	0.011538795
146	0xba07cca9	-0.0005180338
147	0xbd58d9ac	-0.052941963
148	0xbcdedd5e	-0.027205165
149	0xbc94e33e	-0.018174764
150	0x3d097249	0.033556256
151	0xbd2b9929	-0.04189411
152	0xbca5c1a2	-0.020233933
153	0xbc1ed54b	-0.009694408
154	0x3c16689d	0.009180215
155	0xbd3e50aa	-0.046463646
156	0xbd1370d2	-0.035996266
157	0x3bf58f69	0.0074939025
158	0x3c903ad2	0.017606173
159	0xbcf7591a	-0.030193854
160	0xbd05f2c2	-0.032702215
161	0x3d5b6b39	0.053569052
162	0xbcc42b1a	-0.023946334
163	0x3d435317	0.047686663
164	0xbd69efa7	-0.057113316
165	0x3d678f4a	0.056533135
166	0x3c1e169b	0.009648944
167	0xba893744	-0.0010468741
168	0x3c9cd9e3	0.019146865
169	0xbcac0c9c	-0.021002106
170	0x3bda476a	0.0066613453
171	0x3d4fe181	0.050752167
172	0xbcb505b3	-0.022097444
173	0x3b99ee70	0.0046976134
174	0xbcb46c7f	-0.022024391
175	0xbbb091d1	-0.0053884764
176	0xbc227b17	-0.009917042
177	0x3c04cdb8	0.008105688
178	0xbc4b6c1b	-0.012415911
179	0xbbbd2ed9	-0.005773407
180	0x3d7bc33f	0.061465498
181	0xbda2973f	-0.07939004
182	0x3c9dc4fe	0.019258972
183	0xbc72d655	-0.014821609
184	0xbc70406d	-0.014663798
185	0xbc163c15	-0.009169598
186	0x3d17896c	0.03699629
187	0x3ce4b531	0.02791843
188	0x3d04211b	0.032258134
189	0xbb9c9316	-0.004778276
190	0xbcbe3456	-0.023218315
191	0xbd11c440	-0.03558755
192	0x3cbea3df	0.0232715
193	0xbb4a46a6	-0.0030864864
194	0xbd44dbd4	-0.048061207
195	0xbc9f9733	-0.019481277
196	0x3b83e389	0.004024927
197	0x3d3cf336	0.04613038
198	0x3c2cf57d	0.010556576
199	0xbcd1d32c	-0.02561339
200	0x3d319a05	0.043359775
201	0x3bb19295	0.0054190853
202	0x3c09cfcf	0.008411362
203	0xbd0ec9a7	-0.03486028
204	0xbc4e5199	-0.012592697
205	0xbce83ff5	-0.02835081
206	0x3bf82a91	0.0075734337
207	0xbd04213d	-0.03225826
208	0x3ccc8831	0.024967285
209	0x3b3941e3	0.0028268031
210	0x3d3ebfda	0.046569683
211	0x3ae60206	0.001754821
212	0x3d11830f	0.035525378
213	0xbd4366eb	-0.047705572
214	0x3ca84b52	0.020543728
215	0x3d087b5f	0.03332078
216	0xbd204708	-0.03913024
217	0x3bca527e	0.0061743846
218	0x3cdcad44	0.026938088
219	0x3dad7cd6	0.08471076
220	0xbcff4864	-0.031162448
221	0xbd5297e9	-0.051414404
222	0xbcf46d48	-0.029837266
223	0x3d104374	0.03522058
224	0x3cc54a57	0.0240833
225	0xbd038bfe	-0.03211593
226	0x3b16bea9	0.0023001826
227	0xba4f070e	-0.00078974746
228	0x3d061d4c	0.032742783
229	0x3d5dbe35	0.054136474
230	0xbda2c32e	-0.07947384
231	0xbc433248	-0.011913843
232	0x3d1af5d3	0.037832092
233	0xbc81fd18	-0.015867755
234	0xbd494331	-0.049136344
235	0x3d1633ad	0.036670376
236	0x3cae13fe	0.021249767
237	0x3d7e0db1	0.062024776
238	0xbca49eda	-0.020095278
239	0x3d1fd47f	0.03902101
240	0xbcc43035	-0.023948768
241	0xbd04c982	-0.032418735
242	0x3c777cb0	0.015105411
243	0x3dc0dff3	0.09417715
244	0x3ca6a861	0.020343961
245	0xbcab2082	-0.020889524
246	0xbd1170ba	-0.035507895
247	0xbc7da973	-0.015482294
248	0x3d4f8817	0.050666895
249	0x3d8c00b3	0.06836071
250	0x3cd8cacf	0.026463894
251	0xbc09eb1f	-0.008417874
252	0xbcf958f5	-0.030437926
253	0xbb11ab08	-0.0022227187
254	0xbd30c934	-0.043160632
255	0x3b2c5495	0.0026295532

cnn.1.blocs.1.weight f4 [64]
0	0x3e973239	0.29530504
1	0x3f06542a	0.52472174
2	0x3ec7b9b4	0.39008868
3	0x3e7ef672	0.24898699
4	0x3da19445	0.07889608
5	0x3f44c474	0.76862264
6	0x3f13f72e	0.5779904
7	0x3f5fbcb3	0.8739731
8	0x3f56c24c	0.83890224
9	0x3f171850	0.5902147
10	0x3e67f8a4	0.22653443
11	0x3f3ee4a1	0.7456761
12	0x3e242f8d	0.16033764
13	0x3f06bfd1	0.5263644
14	0x3e81dc06	0.25363177
15	0x3f13d160	0.57741356
16	0x3ef56305	0.47927108
17	0x3f312470	0.69196224
18	0x3eadfff9	0.33984354
19	0x3e3c99fa	0.18418112
20	0x3f06269d	0.5240267
21	0x3ef93e5c	0.4868039
22	0x3eb9531c	0.3619622
23	0x3ebd05f2	0.36918598
24	0x3e234b90	0.15946794
25	0x3eaa6b9a	0.33285218
26	0x3f538bac	0.82635
27	0x3dfd6f8a	0.1237479
28	0x3f53dee1	0.8276196
29	0x3ca1690f	0.019703416
30	0x3ed15d2d	0.408914
31	0x3f00105e	0.50024974
32	0x3b5a6ced	0.0033329085
33	0x3f4bf192	0.7966548
34	0x3f069cf8	0.52583265
35	0x3f4c1edf	0.79734606
36	0x3f0e51d2	0.555936
37	0x3f1380b4	0.5761826
38	0x3f775bed	0.9662464
39	0x3ecaec6f	0.3963351
40	0x3f4afb02	0.7928926
41	0x3e65ebda	0.22453251
42	0x3e91f0e4	0.28504097
43	0x3f24d454	0.64386487
44	0x3ea33997	0.31879875
45	0x3ddb4918	0.10707301
46	0x3dfdd8fb	0.12394901
47	0x3f40f840	0.753788
48	0x3e4517d9	0.19247378
49	0x3f102b93	0.5631649
50	0x3ebad10f	0.36487624
51	0x3f51ced9	0.8195625
52	0x3efaf075	0.4901158
53	0x3f6ba036	0.9204134
54	0x3f56fe6c	0.83981967
55	0x3f206d6e	0.62666976
56	0x3f029e7a	0.51023066
57	0x3e8c036c	0.2734636
58	0x3f07dc7e	0.5307082
59	0x3f5292fb	0.82255524
60	0x3e1ab64f	0.15108608
61	0x3f3d00f1	0.7382956
62	0x3e9374a3	0.28799924
63	0x3e859a74	0.260944

cnn.1.blocs.1.bias f4 [64]
0	0x3b0e62aa	0.0021726289
1	0xbb3ea2a3	-0.0029088638
2	0x3ac974bc	0.0015369873
3	0x3b0364c7	0.0020049082
4	0x3b98e391	0.0046658
5	0x3ad0fd39	0.0015944607
6	0x3b339ca1	0.002740659
7	0x3a8c8b54	0.0010722675
8	0x3b215f0e	0.0024623307
9	0x3afd3bdc	0.0019320208
10	0x3b80fcd6	0.0039363904
11	0xba4ef7fb	-0.00078952283
12	0xbb2cf043	-0.0026388324
13	0x3ad1ceb4	0.0016007037
14	0x3b6449c2	0.0034834002
15	0x3afb007a	0.0019149922
16	0x3ac94db5	0.0015358242
17	0xbadca461	-0.0016833657
18	0x3a880661	0.0010377878
19	0xbadc93ec	-0.0016828752
20	0x3b894995	0.00418968
21	0x3a72c8f3	0.0009261511
22	0x3add51c7	0.0016885333
23	0x3af79826	0.0018889948
24	0xb8b74fa4	-8.740954e-05
25	0x3bf5c134	0.0074998382
26	0xbb9ef51b	-0.004850996
27	0xbb6d1e51	-0.00361814
28	0x39c6b384	0.00037899252
29	0x3bafdf57	0.0053672004
30	0xb88aa964	-6.611904e-05
31	0xba8f753d	-0.0010944974
32	0x3b2b8e84	0.0026177475
33	0x3bb94a48	0.005654607
34	0xbb742f48	-0.0037259627
35	0x3b8364a6	0.004009801
36	0x3b25a565	0.0025275585
37	0x3b37368f	0.0027956103
38	0xba676e32	-0.0008828371
39	0x3ac600be	0.0015106422
40	0x3b9244b1	0.004463755
41	0x3ba85834	0.0051374678
42	0xb9e20825	-0.00043112147
43	0x3b45a625	0.0030158844
44	0x3a02d2bd	0.0004990509
45	0x3a6ef5c5	0.0009115602
46	0x3b802a00	0.003911257
47	0xbab4c133	-0.0013790488
48	0x399376dc	0.00028126582
49	0xbb5eac95	-0.0033977379
50	0x3af2e687	0.0018531837
51	0xbb0d4293	-0.0021554574
52	0x3ae02fda	0.0017104105
53	0x377996b9	1.4876649e-05
54	0x3977b6df	0.0002362388
55	0x3921a05b	0.00015413894
56	0x3b1e12c0	0.0024120063
57	0x3ae2d80b	0.0017306817
58	0x3b4274d7	0.0029671693
59	0x3b44ee77	0.0030049363
60	0x3b273aea	0.0025517293
61	0xbb1af0ac	-0.0023641987
62	0xbb8fbd4f	-0.004386581
63	0x39790a93	0.0002375043

cnn.1.blocs.3.weight f4 [64, 64, 3, 3]
0	0xbc88133c	-0.016610734
1	0xbb4103b7	-0.0029451677
2	0x3c08ccfc	0.008349653
3	0xbc18b8cc	-0.009321403
4	0x3c8b8867	0.017032815
5	0x3bdeef88	0.0068034567
6	0xbc011d2d	-0.007880491
7	0xbd042099	-0.03225765
8	0xbcc56d8e	-0.024100091
9	0x3cff05a2	0.031130616
10	0x3ce0da36	0.027447801
11	0x3c005665	0.007833098
12	0x3d455a44	0.048181787
13	0xbcbc3694	-0.022975244
14	0x3d0fab6e	0.035075597
15	0xb9292910	-0.00016132393
16	0x3cd707bf	0.02624881
17	0x3ca793bf	0.020456193
18	0x3be2fa8b	0.0069268397
19	0xbcbd8a76	-0.023137312
20	0x3d21f3a1	0.039538983
21	0x3cda959b	0.026682666
22	0xbcbafa41	-0.022824408
23	0xbcf58202	-0.02996922
24	0xbd38b26c	-0.04509203
25	0xbce81b15	-0.028333226
26	0x3c9171c9	0.017754452
27	0xbca92400	-0.020647049
28	0xbbba0910	-0.00567735
29	0xbbf1055d	-0.0073553757
30	0xbca69e88	-0.020339265
31	0xbb960938	-0.0045787357
32	0xbba14f19	-0.0049227593
33	0xbd09796c	-0.033563063
34	0xbcca1a8d	-0.024670864
35	0xbc549bde	-0.012976615
36	0xbcafcdb1	-0.021460386
37	0xbc0458f9	-0.008077853
38	0x3d3f252f	0.04666632
39	0xbb70b6d9	-0.003673008
40	0xbcc65769	-0.024211602
41	0xbce6f1da	-0.028191496
42	0x3c514d0c	0.012774717
43	0x3b2de1be	0.0026532258
44	0xbc4d3988	-0.012525924
45	0x3acffb46	0.0015867732
46	0xbcae3761	-0.021266641
47	0xbc2d6627	-0.010583437
48	0x3b4f9f09	0.0031680486
49	0xbcc7b50d	-0.024378324
50	0xbcc3be8f	-0.023894576
51	0x3c9b1674	0.018931605
52	0xbd05cb51	-0.0326646
53	0x3c87283b	0.016498676
54	0x3cda4c97	0.026647849
55	0x3c81f31b	0.015862992
56	0x3d938257	0.07202595
57	0x3d44904c	0.047989175
58	0x3c864ec4	0.01639498
59	0xbc2befcb	-0.010494183
60	0xbd41cd46	-0.047314905
61	0xbd23a811	-0.039955202
62	0x3a6f2ae4	0.00091235177
63	0xbd43581e	-0.047691457
64	0xbbb70a33	-0.0055859326
65	0xbd571633	-0.052511405
66	0x3d803d03	0.06261637
67	0xbce072d6	-0.027398508
68	0x3cacc0f7	0.021088107
69	0xbc43d353	-0.011952239
70	0x3d21e052	0.03952057
71	0xbd43c34d	-0.047793675
72	0x3c766813	0.015039462
73	0xbc302083	-0.010749939
74	0xbbf37d02	-0.0074306736
75	0x3d409109	0.047013316
76	0xbba998e9	-0.005175699
77	0xbc9df623	-0.019282406
78	0xbd05c954	-0.032662705
79	0xbb83ec69	-0.004025985
80	0xbcba6898	-0.022754952
81	0x3cc976bc	0.02459275
82	0x3c84ac23	0.016195362
83	0x3d0be811	0.034156863
84	0x3cbbbdc6	0.02291764
85	0x3d894494	0.06702533
86	0xbc8f0a46	-0.017460953
87	0xbc97a7f7	-0.018512709
88	0x3c4ebdaa	0.012618462
89	0x3cb91c1e	0.022596415
90	0x3d2d087b	0.042244416
91	0xb8f38baa	-0.000116131574
92	0xbce7c058	-0.028289959
93	0x3b5e176f	0.003388848
94	0x3c7b8d34	0.01535349
95	0x3d60aa72	0.05485005
96	0xbcf93aa3	-0.030423468
97	0x3cb4b64a	0.022059578
98	0x3c70598c	0.014669787
99	0x3d673870	0.056450307
100	0x3b734cf4	0.0037124725
101	0x3cde4c61	0.02713603
102	0x3d1d95f0	0.03847307
103	0xbc0c10a4	-0.008548889
104	0x3d987b1c	0.07445356
105	0xbc4b84c0	-0.012421787
106	0xbcd3bd08	-0.025846973
107	0xbd0ec4dc	-0.03485571
108	0x3c6607f3	0.014039981
109	0x3c87fd37	0.016600234
110	0xbcb8ebae	-0.022573318
111	0xbcbab865	-0.022793004
112	0xbca0639d	-0.01957875
113	0x3d144a10	0.036203444
114	0xbc83ceb9	-0.016089784
115	0xbc5237be	-0.012830673
116	0x3c9d2491	0.019182475
117	0xbcf735f2	-0.03017709
118	0x3d1fa6a3	0.038977277
119	0xbc024b93	-0.007952589
120	0xbd0cb9ec	-0.034356996
121	0xbd2507b6	-0.040290557
122	0x3d19aeec	0.037520334
123	0x3cac1fa2	0.021011177
124	0x3b05adb7	0.0020397732
125	0x3d01f98d	0.03173213
126	0x3c1d24b1	0.009591267
127	0xbc0a0f76	-0.008426538
128	0xbcecf99d	-0.028927619
129	0x3c704e21	0.014667065
130	0xbd0867f6	-0.03330227
131	0xbce9c4d8	-0.028536245
132	0x3ce340c1	0.027740838
133	0xbaa5f351	-0.0012661015
134	0x3b8eb8b9	0.0043555168
135	0x3cff0df3	0.031134581
136	0x3b0bc222	0.002132543
137	0x3c5962e1	0.0132682035
138	0xbda45d03	-0.08025553
139	0x3c767cc9	0.0150444
140	0xbd5df765	-0.054191012
141	0xbbca64da	-0.006176573
142	0xbd0ba0a8	-0.03408876
143	0xbc267c02	-0.010161402
144	0xbc670e24	-0.0141024925
145	0x3acc53cd	0.001558894
146	0x3d19bb3f	0.037532087
147	0x3ce5c120	0.02804619
148	0xbca6979d	-0.020335967
149	0x3cbf503f	0.023353694
150	0xbcaad657	-0.020854158
151	0x3aeb3aba	0.0017946579
152	0xbc9557b9	-0.018230306
153	0xbb593757	-0.0033144557
154	0xbd8ccd5d	-0.068751074
155	0x3cec052d	0.028811062
156	0x3d61cb83	0.055125725
157	0x3be75789	0.0070599956
158	0x3a5cc0e5	0.00084210775
159	0x3cb4a57a	0.022051562
160	0x3d347c33	0.044063758
161	0xb916e519	-0.0001439046
162	0xbc672383	-0.014107588
163	0x3d91f834	0.07127419
164	0x3d100a35	0.035165984
165	0xbc62a32c	-0.0138328485
166	0x3d136382	0.03598357
167	0x3c71aa94	0.014750142
168	0xbbb1ab8a	-0.0054220604
169	0xbc9bf367	-0.019036962
170	0x3cf57db0	0.029967159
171	0x3b8f6d15	0.0043770173
172	0xbd1124bb	-0.03543542
173	0xbc92bd8e	-0.017912652
174	0x3c0e2604	0.008676056
175	0x3d1dc943	0.038522016
176	0x3ceeb544	0.029139169
177	0x3ccf8484	0.025331743
178	0xbc9ee40c	-0.01939585
179	0xbd24e678	-0.040258855
180	0x3cce4598	0.02517967
181	0xbb7278f7	-0.003699837
182	0x3d609fe8	0.05484
183	0x3d940e12	0.07229246
184	0xbd184d47	-0.037183072
185	0xbd0b12f1	-0.03395361
186	0xbc42e03f	-0.011894285
187	0x3b13bd37	0.00225432
188	0x3ca1d8e0	0.019756734
189	0xbbba8577	-0.00569218
190	0x3d0785ff	0.033086773
191	0xbc976868	-0.018482402
192	0x3c4a37ef	0.012342437
193	0xbcd10197	-0.025513453
194	0x3d0b9145	0.034074087
195	0xbcb557ef	-0.022136657
196	0xbc123c22	-0.00892547
197	0x3cce3b53	0.025174772
198	0xbc228126	-0.009918487
199	0xbc987def	-0.018614737
200	0xbc5d98fa	-0.013525242
201	0x3cb25ec0	0.021773696
202	0xbc62d3bb	-0.013844426
203	0xbcd5fcbd	-0.026121492
204	0x3bcd5c05	0.006267073
205	0x3c471ca9	0.012152829
206	0xbd1060d1	-0.03524858
207	0xbc5d993e	-0.013525305
208	0x3b092818	0.0020928439
209	0x3d6562df	0.056002494
210	0x3ce98e83	0.028510338
211	0x3cc8ee5c	0.024527721
212	0x3cb77fa7	0.022399737
213	0x3d4e3e9f	0.05035269
214	0x3c79a6c2	0.015237512
215	0x3d033fb5	0.032043178
216	0xbc5714db	-0.013127531
217	0xbd2e80a5	-0.042603154
218	0x3cb759dd	0.022381717
219	0xbd287d02	-0.04113484
220	0xbbc16d75	-0.005902941
221	0x3d835464	0.064125806
222	0xbc8ce40e	-0.017198589
223	0xbd339705	-0.043845195
224	0x3c59db46	0.013296908
225	0x3d689bf2	0.056789346
226	0xbcda846f	-0.026674477
227	0xbca82b0c	-0.020528339
228	0x3d1d5480	0.038410664
229	0x3c0c28ee	0.00855468
230	0x3c2ae47e	0.010430453
231	0xbc801a17	-0.01563744
232	0x3d40cc56	0.04706987
233	0xbc638b51	-0.013888196
234	0xbd832451	-0.06403411
235	0x3c9efae6	0.019406747
236	0x3d194643	0.037420522
237	0xbd753560	-0.059865355
238	0x3c286a87	0.010279304
239	0xbca552f2	-0.020181153
240	0xbd127f44	-0.0357659
241	0x3c9dc6bc	0.019259803
242	0xbc702dd1	-0.014659361
243	0x3d098b2b	0.033579987
244	0xbcc05713	-0.02347902
245	0x3b9d843c	0.0048070233
246	0x3cf5ea4b	0.030018946
247	0x3c79e265	0.015251731
248	0x3d5d8993	0.05408628
249	0xbcb8afa9	-0.022544699
250	0x3c2727d7	0.01020237
251	0xbc0b442b	-0.008500139
252	0x3d3b2763	0.04569186
253	0x3cea53b7	0.028604371
254	0xbc962244	-0.018326886
255	0x3bb271ea	0.0054457085

cnn.1.blocs.3.bias f4 [64]
0	0xb246b673	-1.1566601e-08
1	0x33b113bb	8.245794e-08
2	0xb489deb4	-2.5680276e-07
3	0xb5ec5d76	-1.7610571e-06
4	0xb5ee64a9	-1.7761678e-06
5	0xb646de01	-2.9633522e-06
6	0xb5a2fad2	-1.2142939e-06
7	0x3535a001	6.766059e-07
8	0xb641a010	-2.885241e-06
9	0x36552746	3.1762333e-06
10	0x3683b750	3.9254446e-06
11	0xb619d9d0	-2.292556e-06
12	0x368257e2	3.884533e-06
13	0x3299ebc7	1.7918763e-08
14	0xb36e04dc	-5.5418113e-08
15	0x342941ed	1.5763335e-07
16	0xb36255c3	-5.2697725e-08
17	0x3424d9ce	1.5352927e-07
18	0xb4b177c5	-3.3055963e-07
19	0xb60f98c3	-2.139758e-06
20	0x35cd6a8f	1.5304703e-06
21	0xb51b1193	-5.7767573e-07
22	0x369a8ab4	4.605705e-06
23	0xb69ca22f	-4.668043e-06
24	0x3680024c	3.8149647e-06
25	0x35c240db	1.4473002e-06
26	0xb6c72899	-5.9353883e-06
27	0x36862809	3.998172e-06
28	0xb726d89c	-9.944804e-06
29	0x349177da	2.7095558e-07
30	0xb5cc295f	-1.5211225e-06
31	0xb59d1dbe	-1.1706068e-06
32	0x36279039	2.4968888e-06
33	0xb6d187ed	-6.244509e-06
34	0x3654b59b	3.169617e-06
35	0x36abcf4a	5.1203288e-06
36	0xb5e722f4	-1.7221014e-06
37	0xb4e6275b	-4.2869473e-07
38	0xb582dafa	-9.749485e-07
39	0x3691fa18	4.3504515e-06
40	0x367c8f24	3.7634245e-06
41	0x330d4649	3.2893045e-08
42	0x3700131e	7.633846e-06
43	0xb4f08ba8	-4.4805097e-07
44	0xb5782680	-9.2443224e-07
45	0xb61c39cb	-2.3279451e-06
46	0x36340732	2.6826278e-06
47	0x35a5b312	1.2345574e-06
48	0x3547d198	7.4438276e-07
49	0xb49b0f4e	-2.8882135e-07
50	0xb54a7b87	-7.543062e-07
51	0x367ac3d9	3.7366901e-06
52	0x362ff5fb	2.6220212e-06
53	0x3652b976	3.140039e-06
54	0x3767a993	1.3808155e-05
55	0x3627dac3	2.5012275e-06
56	0xb53d44db	-7.0508185e-07
57	0xb6fe78f0	-7.583869e-06
58	0x36c6696d	5.913133e-06
59	0xb583bc4d	-9.815063e-07
60	0xb53fcc58	-7.1450404e-07
61	0x3423008c	1.5180757e-07
62	0xb61378ad	-2.197495e-06
63	0x34ca7412	3.7709884e-07

cnn.1.activationF.0.weight f4 [64]
0	0x3ce658e3	0.028118556
1	0x3cab80fe	0.020935532
2	0x3f06b9f0	0.5262747
3	0x3f226fe3	0.63451976
4	0x3f21b33f	0.6316413
5	0x3e86a47d	0.2629737
6	0x3f272f44	0.65306497
7	0x3f7403a1	0.9531804
8	0x3f40a8e3	0.752577
9	0x3f537480	0.8259964
10	0x3f21768e	0.63071525
11	0x3f21df06	0.6323093
12	0x3e7f8290	0.2495215
13	0xbbbad373	-0.0057014762
14	0x3cca96a8	0.024730042
15	0x3d15a074	0.036529973
16	0x3c84e540	0.016222596
17	0x3ca3c311	0.019990476
18	0x3e9136fd	0.28362265
19	0x3f6ebcae	0.9325665
20	0x3e52353d	0.20528121
21	0x3e924310	0.2856679
22	0x3f686ce2	0.9079114
23	0x3f0f8f2c	0.5607784
24	0x3f618d76	0.8810648
25	0x3e939dba	0.28831273
26	0x3f3791d3	0.71706885
27	0x3ecff15e	0.40613836
28	0x3f52331b	0.8210923
29	0x3f1d3f74	0.61424947
30	0x3f215114	0.6301434
31	0x3ddbd511	0.107339986
32	0x3e68c75d	0.22732301
33	0x3f20935f	0.6272487
34	0x3f10f4e7	0.5662369
35	0x3f3ff493	0.74982566
36	0x3ec4729a	0.38368684
37	0x3d1e44ae	0.038639717
38	0x3eacaac3	0.3372403
39	0x3f52db4f	0.8236589
40	0x3f77345d	0.96564275
41	0x3df953e7	0.12174206
42	0x3f06ec44	0.5270426
43	0x3f60d509	0.87825066
44	0x3f101a07	0.56289715
45	0x3efea932	0.4973846
46	0x3f4f4b3e	0.80974185
47	0x3ea42038	0.3205583
48	0x3e64bdda	0.22338048
49	0x3e8ad082	0.27112204
50	0x3f77b771	0.96764284
51	0x3ee370d5	0.44422022
52	0x3f6751e6	0.9035934
53	0x3f1415c4	0.5784571
54	0x3f725c1c	0.946718
55	0x3f33c628	0.7022424
56	0x3ec5336a	0.38515788
57	0x3f64f6f6	0.8943933
58	0x3ef8acb7	0.4856927
59	0x3f2250f2	0.6340476
60	0x3f770a37	0.9649996
61	0x3edb5dfa	0.42845136
62	0x3f03c3ce	0.5147065
63	0x3dc25978	0.09489721

cnn.1.activationF.0.bias f4 [64]
0	0x3822dd26	3.882977e-05
1	0x3b996a73	0.004681879
2	0x3b15705d	0.002280257
3	0xbb2830b4	-0.0025663795
4	0x3a2ed897	0.00066698476
5	0x3ba5c2f6	0.0050586415
6	0x3a6986ed	0.000890835
7	0x3b788113	0.003791873
8	0xbb9a935e	-0.0047172746
9	0xbb022f78	-0.001986472
10	0x3bfab9cc	0.0076515432
11	0xbad7dabb	-0.0016468385
12	0x3ba8b02e	0.0051479554
13	0x3b9a61d1	0.0047113677
14	0xba9507a6	-0.0011370077
15	0xbb13b0d9	-0.002253583
16	0xb8a237c6	-7.7351506e-05
17	0x3bc44b19	0.0059903977
18	0xba368d94	-0.0006963846
19	0xbacdef72	-0.0015711619
20	0x3babfd42	0.0052486965
21	0x3bb1dd05	0.005427959
22	0xbbaf521a	-0.0053503634
23	0xbb82ddba	-0.003993717
24	0xb9e0130b	-0.00042738797
25	0xba0aaf58	-0.00052904105
26	0xba47ddf0	-0.0007624319
27	0xbb1e2e73	-0.0024136573
28	0x3ab6b6f3	0.0013940021
29	0xbb9d263e	-0.0047958186
30	0x3ba31132	0.004976415
31	0x3b6764ec	0.0035307957
32	0x3b073da0	0.0020636097
33	0xba13aa9e	-0.0005633029
34	0xbba162ed	-0.004925123
35	0x3b78b979	0.0037952347
36	0x3b469840	0.003030315
37	0x3b6873bd	0.0035469376
38	0xba525d6a	-0.0008024784
39	0xbaba60f4	-0.0014219568
40	0x3b5840b4	0.003299755
41	0xbaae3f2b	-0.0013293972
42	0x3b3c8fe7	0.0028772296
43	0xbb5f1b41	-0.0034043344
44	0xbba5b05a	-0.005056423
45	0x3b9d80db	0.0048066205
46	0xbab3e890	-0.0013725925
47	0xb982ae75	-0.00024925513
48	0xbb5d07f8	-0.0033726674
49	0xba9ae04a	-0.0011816111
50	0x39367b06	0.00017402702
51	0x3b28143c	0.0025646826
52	0xbb4c8e0b	-0.0031212594
53	0xbb8c4d63	-0.004281686
54	0xbba83bb0	-0.0051340684
55	0xbbd4245e	-0.006474062
56	0xb934512a	-0.00017196374
57	0x3b2b656d	0.0026152984
58	0xbbb2097b	-0.005433259
59	0x3b2aa614	0.0026038932
60	0xbbf72f1b	-0.007543457
61	0x3b43903a	0.0029840604
62	0x3a814793	0.000986325
63	0x3b76a1fa	0.0037633167
