seg_models/Pong.pth (torch_old, 513861 bytes, 27 tensors)

cnn.0.mods.1.weight f4 [16, 3, 7, 7]
-0.08108694 -0.08858514 -0.015728444 -0.0012029676 0.07097719 0.08074421 0.0068855295 -0.06421285
0.0499635 0.05993734 0.016041927 0.0772029 0.082102485 -0.031759247 0.0129590705 0.015172181
0.16462395 0.021908052 -0.13005088 0.06435632 0.022215392 0.03415123 0.02647399 -0.061378013
0.027697492 -0.010744559 0.025992265 0.18145174 0.0019770167 -0.034010988 0.026769625 -0.00013745474
-0.10444569 0.04521244 0.008902501 0.039744623 -0.06963936 -0.10114574 0.015734332 0.010760318
-0.029508796 -0.012167304 0.10883822 0.03815306 0.0040939976 -0.042875618 -0.003575803 -0.09514706
-0.026991248 -0.032308854 0.07691442 -0.0044257883 -0.0600752 0.008521832 0.064564705 -0.08535226
0.0282213 -0.09480367 0.11591498 0.047336534 -0.07515221 0.022447558 0.1389307 0.041558784
-0.0064216712 -0.09139405 0.042199746 0.023383906 0.14781168 -0.017187748 0.061389178 0.061850883
-0.09733838 -0.037908796 0.09869983 0.047092885 0.0076772817 0.0711341 -0.11659712 -0.038698528
0.016980235 0.036211766 -0.08984949 0.0044842483 -0.00050571875 -0.025447723 -0.016768306 -0.019539542
0.029019354 -0.019790094 0.018047193 0.0073058223 0.0887354 0.10332542 0.05085656 0.0662802
0.027961303 0.024961367 -0.14146945 -0.06802724 -0.036276318 -0.08210925 -0.014584314 0.124195024
-0.05808757 0.016503073 0.022864047 -0.05012154 0.028634118 0.07547969 0.11145176 0.10041041
-0.083672814 -0.045629513 -0.033209287 -0.016821865 0.034743764 0.10090693 0.14498079 -0.06113263
-0.046994276 -0.032903325 -0.13627541 0.014820321 -0.07953039 -0.019481622 -0.036230825 0.00614204
0.045178726 0.047164407 0.056615524 0.047400635 -0.14601798 0.0522101 0.12303089 -0.01981148
0.0025741472 0.04875413 0.13335826 0.099024005 0.005673409 -0.036749586 -0.021281801 0.02104548
0.008233726 -0.042378854 0.03027839 -0.054739807 -0.013907768 0.0083371205 0.06420199 0.18897514
0.036583714 0.10100466 -0.07722187 0.024548044 -0.055335823 0.06968852 -0.041245062 0.04296165
-0.028491093 0.0130825965 0.052501492 0.06513735 -0.115125425 0.07610435 -0.020623472 0.06608886
0.00930519 -0.03475439 -0.062626265 0.036007147 0.045220044 -0.047435008 0.028202947 -0.03603789
-0.08503941 -0.051921777 -0.0522733 -0.08312887 0.048715055 -0.023708658 -0.029861134 0.031699535
0.015658503 0.050903447 -0.04877248 -0.073605634 0.017355463 0.016327495 -0.0851413 -0.05537904
0.09374644 -0.0025914279 -0.027344367 0.04980545 0.11380218 0.03709648 -0.07976561 -0.051181752
0.07350223 0.05525456 -0.060891353 -0.05418861 -0.04540568 -0.039947867 0.014995639 -0.0012922584
-0.06659364 -0.035701063 0.08239252 -0.026931144 -0.04785214 -0.015132456 -0.12060502 0.02202182
-0.057954542 -0.089890316 0.02876541 0.10377052 0.052691918 0.0077293715 -0.056385104 -0.041988872
-0.067755654 -0.01683073 0.02701643 -0.07593923 0.00753231 0.035551053 -0.11086542 -0.025806211
0.008962022 0.015535381 -0.07628035 -0.030567115 -0.020272242 0.069233105 -0.068857335 -0.056868806
0.031115746 -0.025512936 0.027757915 -0.056609206 -0.044025846 0.013099581 0.0991068 -0.08634179
0.12912773 0.05406982 -0.05474363 0.0220917 0.01653454 0.0049723573 -0.004496074 -0.027047012
00000000: e910 a6bd 206c b5bd f0d8 80bc e5ac 9dba
00000010: 7d5c 913d 385d a53d 02a0 e13b 0782 83bd
00000020: 87a6 4c3d db80 753d 5c6a 833c 8e1c 9e3d
00000030: 5925 a83d fc15 02bd 4852 543c bd94 783c
00000040: 2e93 283e 8478 b33c 0f2c 05be 3fcd 833d
00000050: 0efd b53c 29e2 0b3d fbdf d83c 8367 7bbd
00000060: dae5 e23c f209 30bc bbed d43c 7cce 393e
00000070: d690 013b 1b4f 0bbd f94b db3c ba21 10b9
00000080: 9fe7 d5bd ae30 393d ccdb 113c 42cb 223d
00000090: 159f 8ebd 7f25 cfbd 49e5 803c 0b4c 303c
000000a0: 6ebc f1bc 5f59 47bc 93e6 de3d 6246 1c3d
000000b0: f126 863b 589e 2fbd 0558 6abb 76dc c2bd
000000c0: c01c ddbc 4a56 04bd 4f85 9d3d 3406 91bb
000000d0: 6a11 76bd 279f 0b3c 803a 843d 2acd aebd
000000e0: 5b30 e73c 6d28 c2bd d564 ed3d f4e3 413d
000000f0: 67e9 99bd f1e3 b73c d943 0e3e 8b39 2a3d
00000100: e26c d2bb ce2c bbbd a4d9 2c3d 9b8f bf3c
00000110: f25b 173e 52cd 8cbc 3873 7b3d 5a57 7d3d
00000120: 5859 c7bd 4146 1bbd 2323 ca3d 78e4 403d
00000130: b591 fb3b c1ae 913d 79ca eebd 5982 1ebd
00000140: 221a 8b3c ca52 143d 0203 b8bd 9af0 923b
00000150: 3692 04ba be77 d0bc b05d 89bc 6411 a0bc
00000160: ffb9 ed3c d61e a2bc b5d7 933c ae65 ef3b
00000170: e8ba b53d 479c d33d f84e 503d eabd 873d
00000180: 1a0f e53c c87b cc3c 5edd 10be de51 8bbd
00000190: 7a96 14bd e528 a8bd 0cf3 6ebc f659 fe3d
000001a0: 3bed 6dbd 7431 873c 624d bb3c 3e4c 4dbd
000001b0: 1992 ea3c 1995 9a3d d240 e43d f9a3 cd3d
000001c0: a75c abbd 03e6 3abd 7606 08bd 02ce 89bc
000001d0: 7a4f 0e3d 4ba8 ce3d d875 143e 3566 7abd
000001e0: 127d 40bd a3c5 06bd c88b 0bbe efd0 723c
000001f0: d4e0 a2bd ec97 9fbc c666 14bd 2a43 c93b
00000200: 540d 393d 772f 413d aee5 673d 2b27 423d
00000210: bd85 15be 42da 553d 9ff7 fb3d af4b a2bc
00000220: 06b3 283b 69b2 473d 118f 083e 19cd ca3d
00000230: 01e8 b93b bc86 16bd 2c57 aebc 9267 ac3c
00000240: c0e6 063c 7395 2dbd 630a f83c d936 60bd
00000250: 68dd 63bc 6b98 083c 557c 833d b382 413e
00000260: ced8 153d 88db ce3d 8026 9ebd fb18 c93c
00000270: d1a7 62bd dbb8 8e3d 95f0 28bd 8ef8 2f3d
00000280: 2766 e9bc 6358 563c ce0b 573d bb66 853d
00000290: e1c6 ebbd 99dc 9b3d 8ef2 a8bc 9959 873d
000002a0: cc74 183c 9f5a 0ebd 3342 80bd 3b7c 133d
000002b0: a738 393d 364b 42bd de09 e73c 779c 13bd
000002c0: 2429 aebd eeab 54bd 871c 56bd 783f aabd
000002d0: 7089 473d a938 c2bc 569f f4bc 5fd7 013d
000002e0: 4346 803c 2280 503d a7c5 47bd 8dbe 96bd
000002f0: 0b2d 8e3c 3dc1 853c 905e aebd 22d5 62bd
00000300: 22fe bf3d f2d4 29bb 4b01 e0bc cd00 4c3d
00000310: 1e11 e93d 7bf2 173d 275c a3bd f5a3 51bd
00000320: 5688 963d 9b52 623d 3669 79bd e0f4 5dbd
00000330: 4efb 39bd 60a0 23bd 45b0 753c ff60 a9ba
00000340: 3f62 88bd 473b 12bd 69bd a83d b49e dcbc
00000350: 9b00 44bd 1fee 77bc c4ff f6bd 1b67 b43c
00000360: be61 6dbd 6a18 b8bd 70a5 eb3c a385 d43d
00000370: 7bd3 573d ab46 fd3b 11f4 66bd 86fc 2bbd
00000380: 7ac3 8abd 99e0 89bc 8f51 dd3c 0786 9bbd
00000390: 99d1 f63b fb9d 113d 690d e3bd 8c67 d3bc
000003a0: 72d5 123c 1c88 7e3c df38 9cbd e367 fabc
000003b0: f911 a6bc 16ca 8d3d 1305 8dbd 44ef 68bd
000003c0: 73e6 fe3c 8100 d1bc 9164 e33c 0edf 67bd
000003d0: 7254 34bd a09f 563c 82f8 ca3d f7d3 b0bd
000003e0: 0f3a 043e 5178 5d3d db3a 60bd a7f9 b43c
000003f0: 7273 873c 28ef a23b cd53 93bb b291 ddbc

cnn.0.mods.2.weight f4 [16]
0.54933965 0.46620476 0.93833196 0.40154627 0.796404 0.47365522 0.07660681 0.3375838
0.49540114 0.46815816 0.05069396 0.8952712 0.19353752 0.9173823 0.79321015 0.76219606
00000000: 86a1 0c3f 64b2 ee3e 8636 703f 7997 cd3e
00000010: 22e1 4b3f f082 f23e 08e4 9c3d c9d7 ac3e
00000020: 38a5 fd3e 6db2 ef3e 78a4 4f3d 7e30 653f
00000030: b32e 463e 91d9 6a3f d20f 4b3f 481f 433f

cnn.0.mods.2.bias f4 [16]
0.0017644558 0.0008575826 0.0018716964 0.0023269504 0.0019182512 0.000667311 -0.00026359793 -0.00087411783
-0.0022409952 0.0003226819 0.0024712745 -0.00048255132 0.00094848516 0.00025266758 -0.0025489803 0.0013488551
00000000: 5045 e73a 65cf 603a b653 f53a c07f 183b
00000010: d46d fb3a 7cee 2e3a 8433 8ab9 0e25 65ba
00000020: a9dd 12bb a22d a939 1bf5 213b f1fe fcb9
00000030: c3a3 783a 7878 8439 cb0c 27bb 11cc b03a

cnn.0.mods.4.weight f4 [32, 16, 3, 3]
-0.043938857 -0.009586089 0.014164427 -0.033970356 -0.0993332 0.14090016 0.016855024 0.030076453
0.06216301 -0.025180804 0.10124187 0.038154554 -0.022951428 0.0061815064 -0.047297433 -0.1261352
0.075599745 -0.051823977 -0.018954195 -0.13012142 0.038328458 -0.012330026 0.02806931 0.039020382
0.16056965 -0.014481594 0.0888631 -0.08306216 0.0627959 -0.0020226538 0.07584186 0.10970014
0.10036129 0.08230669 0.08540708 -0.10004384 -0.10569337 0.0062057246 -0.06528615 0.09516422
-0.030356012 0.04549858 -0.13711713 0.061448917 0.025560163 -0.08385067 0.07819667 -0.02032875
0.09351419 -0.06732442 0.074262574 0.01900141 -0.07131883 0.00672377 0.061781485 -0.030482844
-0.0716428 0.12717593 -0.0453906 0.044886723 -0.06597776 0.009938578 -0.019732146 0.078197055
0.032762263 -0.021799361 0.10915026 0.008866316 0.027913313 0.092319444 -0.03212284 -0.0022462949
0.092445 -0.00880272 -0.10421442 0.04205966 0.091182664 -0.065811984 -0.06480181 0.0072862213
0.017566497 -0.037727457 -0.029361816 -0.12959349 -0.09160458 0.10947677 0.01362207 0.0685759
0.032262824 -0.012922263 -0.05607495 0.009273936 0.005569188 0.053572707 0.033767458 -0.14507243
0.026944354 0.06626613 -0.025807101 0.0018115523 -0.026359003 -0.024888849 -0.032856397 0.02311816
0.08445107 0.11609613 0.022732327 -0.01011946 0.0482531 0.036570765 -0.03884225 0.09032189
0.11097345 -0.08060165 -0.088046834 0.023497436 -0.006179515 -0.021516008 0.12235337 0.02122714
0.13934498 0.0010231993 0.053201675 0.081314415 -0.045103755 -0.09114307 0.05982519 -0.013575876
-0.023182614 -0.012984409 0.017483927 0.033383828 0.028998373 -0.10560882 -0.008957144 0.0032273568
0.014159475 0.028653983 0.022995392 -0.028089095 -0.048745334 -0.0070975064 -0.009252003 -0.015973855
-0.071772516 -0.015958237 -0.061019674 0.07881599 0.021794042 0.029727515 0.0018001788 -0.08472069
-0.057251535 0.10190941 0.07827016 0.025582252 0.03373317 -0.044828985 0.002417536 -0.052620646
-0.11937671 -0.13017052 0.016170386 0.042837944 0.028134687 6.912245e-05 0.004334938 -0.003089907
0.02384537 -0.043227043 0.014629276 -0.021048114 0.03409919 0.016323987 0.012185083 -0.016017128
-0.015659284 -0.077791065 0.043803748 -0.042641994 -0.0688148 -0.061682574 0.05237319 -0.0386828
0.024297453 0.03906639 -0.10308401 -0.04746783 -0.108095914 -0.0009823884 0.04208823 -0.0621179
-0.06454919 0.049828995 -0.015563048 -0.11391317 0.05289744 0.09572926 0.020504363 -0.0004731314
-0.041517716 -0.106437065 0.1435676 -0.0052760863 -0.11793517 -0.024229469 -0.021299377 -0.005976323
-0.016369808 -0.06279853 -0.0061161267 -0.027624708 0.024148421 -0.08247192 -0.035843004 0.07100687
0.049961224 0.017255321 -0.035740163 -0.087085076 0.055095654 -0.09697121 -0.08294208 -0.08422929
0.07518686 -0.0034519692 0.04682128 -0.056975264 0.086764626 -0.12461381 -0.051075835 0.07367792
-0.064489625 -0.032381665 -0.088536724 0.017771574 0.03722193 0.06718949 0.032186802 0.042705562
-0.13467424 0.036053732 0.05167431 0.044767514 -0.08715408 0.1525447 -0.07741939 0.06058916
0.05631294 -0.124579206 -0.09059471 -0.03524205 0.10996833 -0.112734795 0.07995787 0.046793032
00000000: 3bf9 33bd f90e 1dbc ea11 683c 8024 0bbd
00000010: 346f cbbd 2248 103e 8c13 8a3c e562 f63c
00000020: a49e 7e3d f947 cebc e657 cf3d f347 1c3d
00000030: a204 bcbc 3c8e ca3b f4ba 41bd 9629 01be
00000040: 0ad4 9a3d 6145 54bd d445 9bbc 8d3e 05be
00000050: 4dfe 1c3d e103 4abc 9cf1 e53c d6d3 1f3d
00000060: 5f6c 243e 3544 6dbc dbfd b53d 7e1c aabd
00000070: 239b 803d 808e 04bb fa52 9b3d 78aa e03d
00000080: 388a cd3d 6990 a83d e8e9 ae3d c9e3 ccbd
00000090: c475 d8bd 6459 cb3b bfb4 85bd 75e5 c23d
000000a0: 2cad f8bc b85c 3a3d 6f68 0cbe dcb1 7b3d
000000b0: 8c63 d13c e6b9 abbd 9325 a03d 7b88 a6bc
000000c0: 5e84 bf3d 63e1 89bd fa16 983d d8a8 9b3c
000000d0: 9b0f 92bd 1253 dc3b 950e 7d3d 28b7 f9bc
000000e0: 76b9 92bd 683a 023e 7eeb 39bd 24db 373d
000000f0: 591f 87bd 6bd5 223c 4fa5 a1bc c725 a03d
00000100: b931 063d 9394 b2bc 2c8a df3d 0644 113c
00000110: 76aa e43c fa11 bd3d 3d93 03bd 9336 13bb
00000120: ce53 bd3d 4939 10bc 5f6e d5bd c046 2c3d
00000130: fabd ba3d 6fc8 86bd d0b6 84bd 41c1 ee3b
00000140: 9de7 8f3c 1b88 1abd 3188 f0bc 28b4 04be
00000150: 2f9b bbbd 5b35 e03d 1a2f 5f3c 8571 8c3d
00000160: 0626 043d e6b7 53bc d9ae 65bd b5f1 173c
00000170: bc7d b63b 0e6f 5b3d bf4f 0a3d de8d 14be
00000180: 68ba dc3c 89b6 873d 6a69 d3bc 9c71 ed3a
00000190: d6ee d7bc b3e3 cbbc 6e94 06bd 4c62 bd3c
000001a0: aff4 ac3d cfc3 ed3d 2539 ba3c 17cc 25bc
000001b0: 0ba5 453d 3acb 153d 0d19 1fbd affa b83d
000001c0: 0c46 e33d 7a12 a5bd e651 b4bd b27d c03c
000001d0: 877d cabb 5742 b0bc 6794 fa3d 8ae4 ad3c
000001e0: 73b0 0e3e df1c 863a 00ea 593d 2c88 a63d
000001f0: b7be 38bd 38a9 babd 420b 753d 5a6d 5ebc
00000200: 77e9 bdbc 8fbc 54bc 743a 8f3c 7bbd 083d
00000210: ff8d ed3c 7049 d8bd fcc0 12bc 1082 533b
00000220: 25fd 673c c2bb ea3c d560 bc3c 1a1b e6bc
00000230: 30a9 47bd 3392 e8bb b795 17bc 9adb 82bc
00000240: 78fd 92bd d9ba 82bc c4ef 79bd 476a a13d
00000250: 6b89 b23c 1e87 f33c faf3 eb3a 0b82 adbd
00000260: 9680 6abd e1b5 d03d 1b4c a03d df91 d13c
00000270: cb2b 0a3d 999e 37bd 866f 1e3b bf88 57bd
00000280: c77b f4bd 6c4b 05be c277 843c d776 2f3d
00000290: b77a e63c d5f5 9038 180c 8e3b 0a80 4abb
000002a0: 5e57 c33c d70e 31bd a1af 6f3c 186d acbc
000002b0: 98ab 0b3d e2b9 853c f1a3 473c 5a36 83bc
000002c0: e647 80bc ec50 9fbd 8f6b 333d 5fa9 2ebd
000002d0: c6ee 8cbd dea6 7cbd 4585 563d db71 1ebd
000002e0: 740b c73c 1404 203d b61d d3bd a16d 42bd
000002f0: 6461 ddbd 7cc3 80ba b564 2c3d 576f 7ebd
00000300: 5e32 84bd 7d19 4c3d 28fc 7ebc 4f4b e9bd
00000310: fcaa 583d b40d c43d c4f8 a73c 9f0e f8b9
00000320: 7b0e 2abd adfb d9bd 6303 133e 05e3 acbb
00000330: ff87 f1bd e17c c6bc 087c aebc 08d5 c3bb
00000340: fa19 86bc 849c 80bd ca69 c8bb 364d e2bc
00000350: e9d2 c53c 0ae7 a8bd 1dd0 12bd 0d6c 913d
00000360: 24a4 4c3d 085b 8d3c 4764 12bd a959 b2bd
00000370: fbab 613d d798 c6bd 8add a9bd 6880 acbd
00000380: 92fb 993d 6f3a 62bb acc7 3f3d e55e 69bd
00000390: a7b1 b13d 8635 ffbd e534 51bd 73e4 963d
000003a0: 2313 84bd a3a2 04bd be52 b5bd b195 913c
000003b0: 0676 183d a59a 893d 4fd6 033d 07ec 2e3d
000003c0: 0be8 09be 14ad 133d 71a8 533d 245e 373d
000003d0: d77d b2bd ae34 1c3e 0f8e 9ebd 572c 783d
000003e0: 66a8 663d 6223 ffbd b889 b9bd f859 10bd
000003f0: 1337 e13d 80e1 e6bd f4c0 a33d 0daa 3f3d

cnn.0.mods.5.weight f4 [32]
0.46107176 0.3393363 0.5390887 0.2176229 0.017176159 0.9018983 0.20051984 0.8604715
0.8834046 0.39597428 0.6682444 0.09196285 0.8513444 0.5536724 0.29359585 0.6642147
0.7473454 0.19275393 0.18822232 0.4671295 0.56850225 0.95241785 0.84797096 0.12148847
0.19030823 0.72342193 0.75604665 0.0034142397 0.23373975 0.99054897 0.5935781 0.013941811
00000000: 9911 ec3e 7dbd ad3e b801 0a3f 8ad8 5e3e
00000010: 04b5 8c3c cfe2 663f 1355 4d3e dc47 5c3f
00000020: ce26 623f 24bd ca3e 1112 2b3f 0557 bc3d
00000030: b5f1 593f 79bd 0d3f 3252 963e f909 2a3f
00000040: 0752 3f3f 4961 453e 5abd 403e 992b ef3e
00000050: 5d89 113f a8d1 733f a014 593f f2ce f83d
00000060: 29e0 423e 2e32 393f 468c 413f 70c1 5f3b
00000070: 7959 6f3e 9e94 7d3f bcf4 173f 326c 643c

cnn.0.mods.5.bias f4 [32]
-0.0004902046 4.376643e-05 -0.0017452724 -6.860079e-05 0.0017304363 -0.002273056 -0.0011649817 -0.0008012195
0.0015137823 -0.000111592555 -0.0005210914 0.0030448996 -9.528555e-05 -0.00039582083 0.0022414222 -0.0023926604
-0.00015755433 -0.00033834678 -0.0007896401 0.0014155762 -0.0011202308 0.0025519324 -0.0032793859 -0.002352072
0.0046623116 0.00058311253 0.00024569978 -0.0006005908 -0.0012185891 -0.0044107763 0.0026352582 0.0006223196
00000000: 1381 00ba d991 3738 a0c1 e4ba c5dd 8fb8
00000010: cfcf e23a 8df7 14bb 4db2 98ba ee08 52ba
00000020: 1b6a c63a cc06 eab8 da99 08ba f08c 473b
00000030: 0ad4 c7b8 2c86 cfb9 d3e4 123b 2ece 1cbb
00000040: 2b35 25b9 2364 b1b9 daff 4eba db8a b93a
00000050: b5d4 92ba 523e 273b f7ea 56bb 3825 1abb
00000060: 4ec6 983b 05dc 183a 44d1 8039 f770 1dba
00000070: 11b9 9fba 4688 90bb 4cb4 2c3b 2923 233a

cnn.0.mods.7.weight f4 [64, 32, 3, 3]
0.12906498 -0.00050943386 -0.0022075926 -0.05766149 -0.07899291 -0.025527814 -0.025034798 -0.023001185
0.021985056 0.024254758 0.054365817 -0.020255744 0.053367797 0.020294609 0.017533595 -0.003926769
-0.0073083225 -0.047440037 -0.08267219 0.0021869726 0.025495956 -0.0007885778 -0.00837188 -0.004464549
0.030346068 -0.0063878023 -0.021926634 0.07775152 0.07264774 0.105399966 -0.019189412 0.02254976
0.0622746 0.00064487936 -0.026952792 -0.066999 -0.0031847993 0.015705576 -0.0074213995 0.021385219
-0.0031156512 -0.007288952 -0.011448063 0.007920196 -0.008494829 -0.061469644 -0.062196642 -0.02358559
-0.00079986075 -0.04295854 -0.077567786 0.00070370093 0.017011512 -0.029552331 -0.03839382 -0.02671728
-0.025742278 -0.0115815215 0.07597346 0.043106403 0.041720603 -0.10392056 0.026609544 -0.09579312
-0.038704958 0.043647375 -0.030656904 0.04504641 0.03452774 -0.008618383 -0.023118699 -0.04260864
-0.01734989 -0.08100469 -0.021029718 0.037878532 0.016386783 -0.071134396 0.055088185 -0.06738404
0.0275283 0.028009819 -0.016840816 0.074621126 0.10427852 0.0038596315 -0.0028005084 0.034184188
0.073599584 0.0026449289 -0.030310942 -0.009701124 0.06121786 -0.003663699 -0.015247168 -0.07673889
-0.019815344 0.06519156 0.058823008 -0.047506846 -0.010643253 -0.009162468 0.026071824 -0.015284248
-0.0039699147 0.012703771 0.05219496 0.04543969 0.0554333 -7.505638e-05 -0.05620394 0.020093765
0.046479933 -0.009166172 -0.004161602 0.03263556 -0.10662932 -0.039602194 0.028425422 0.05738225
-0.04367149 -0.030529238 0.084421314 -0.0142725725 0.038537674 -0.01538339 -0.022540646 -0.042719558
-0.018730396 -0.082117386 0.080034666 0.05829516 -0.0008399244 -0.06310125 -0.014888372 -0.06335425
0.0627156 0.04132324 0.06910948 0.0283828 -0.034671307 0.010057597 0.031655304 -0.09648577
0.039801378 0.04702091 -0.040413033 0.03351985 0.09349276 -0.010969492 0.011648711 0.04338002
0.018453186 0.018627249 0.043887395 0.03335539 -0.02748122 0.050815195 -0.0020203162 -0.018708013
0.08596224 -0.007448872 0.057452414 -0.016125659 -0.012730311 0.076879814 -0.052137997 -8.382644e-05
-0.02026606 0.027365217 -0.07609329 0.0078854365 0.01698377 -0.07791465 0.06007401 -0.008070043
0.021804873 -0.07316067 -0.052212466 -0.029563513 -0.05118384 -0.023258097 0.007876099 -0.046464592
0.062148985 -0.041742306 -0.0062381793 -0.06299589 0.046688095 0.06265118 0.08146102 0.024353746
0.0090563055 -0.021148425 -0.04073464 0.03988422 -0.010088142 0.02804205 -0.06553241 0.017910978
0.036724135 -0.0012190505 -0.042330697 -0.04043524 0.018180348 0.032348752 0.0032352246 -0.040443663
0.027132053 -0.039564315 -0.050368797 0.043766964 0.092863604 0.02665707 0.002691397 -0.003253318
-0.02810629 0.02083055 0.03344772 0.10902 -0.061891817 -0.02232257 -0.05681488 0.09119356
0.0043332963 -0.03615929 0.027864631 0.030385548 0.018316975 0.058645543 0.00031516282 -0.025056584
0.025240015 0.023014173 -0.007365424 -0.065859914 0.089599885 0.0054772864 -0.036926266 0.06755612
0.0743566 -0.023339849 -0.034674034 -0.007808234 -0.016326562 -0.022485388 0.0086526135 -0.008379763
-0.008027862 0.017767059 0.00906632 -0.038141336 -0.0027639843 0.07627744 0.009568321 0.075587645
00000000: 9c29 043e 878b 05ba 42ad 10bb 742e 6cbd
00000010: 09c7 a1bd b51f d1bc c715 cdbc fb6c bcbc
00000020: 011a b43c eab1 c63c b1ae 5e3d 60ef a5bc
00000030: 3198 5a3d e140 a63c 9da2 8f3c 20ac 80bb
00000040: a77a efbb 7c50 42bd 0a50 a9bd 5053 0f3b
00000050: e5dc d03c 8fb8 4eba 362a 09bc 5a4b 92bb
00000060: 5198 f83c c550 d1bb 7c9f b3bc 303c 9f3d
00000070: 57c8 943d f0db d73d 1d33 9dbc 46ba b83c
00000080: a713 7f3d 1f0d 293a 1acc dcbc c636 89bd
00000090: 11b8 50bb fba8 803c 362f f3bb 0e30 af3c
000000a0: f42f 4cbb 29d8 eebb a890 3bbc b6c3 013c
000000b0: e52d 0bbc 98c7 7bbd e8c1 7ebd 9136 c1bc
000000c0: bfad 51ba 4bf5 2fbd dcdb 9ebd 9278 383a
000000d0: ba5b 8b3c bb17 f2bc d742 1dbd 32de dabc
000000e0: 78e1 d2bc 6cc0 3dbc f997 9b3d 5790 303d
000000f0: 39e3 2a3d 4dd4 d4bd 42fc d93c 2f2f c4bd
00000100: 1789 1ebd 97c7 323d 3024 fbbc 9682 383d
00000110: f66c 0d3d 1e34 0dbc 6d63 bdbc 6686 2ebd
00000120: 5b21 8ebc c9e5 a5bd 8446 acbc 8526 1b3d
00000130: 933d 863c e9ae 91bd 26a4 613d a500 8abd
00000140: 0883 e13c d974 e53c c0f5 89bc f6d2 983d
00000150: fa8f d53d dff1 7c3b bc88 37bb b804 0c3d
00000160: 61bb 963d 8b56 2d3b a74e f8bc 77f1 1ebc
00000170: 94bf 7a3d ab1a 70bb 42cf 79bc 4729 9dbd
00000180: ca53 a2bc 2783 853d 65f0 703d 8a96 42bd
00000190: 0a61 2ebc 2d1e 16bc 9494 d53c c86a 7abc
000001a0: 0f16 82bb 7a23 503c 62ca 553d f81e 3a3d
000001b0: 070e 633d 9667 9db8 1a36 66bd ae9b a43c
000001c0: be61 3e3d b62d 16bc 0c5e 88bb ddac 053d
000001d0: 7960 dabd e935 22bd 6edc e83c a609 6b3d
000001e0: e0e0 32bd 7418 fabc 15e5 ac3d 82d7 69bc
000001f0: aed9 1d3d 9d0a 7cbc 29a7 b8bc b4fa 2ebd
00000200: 7d70 99bc 292d a8bd 37e9 a33d e8c6 6e3d
00000210: 5f2e 5cba 3a3b 81bd 5cee 73bc dfbf 81bd
00000220: 0971 803d 8f42 293d 4589 8d3d 0c83 e83c
00000230: 8003 0ebd 9fc8 243c fea8 013d 559a c5bd
00000240: c506 233d ff98 403d 2388 25bd 1c4c 093d
00000250: 2279 bf3d 62b9 33bc 3cda 3e3c 3faf 313d
00000260: 232b 973c 2c98 983c 45c3 333d a99f 083d
00000270: 4c20 e1bc 9823 503d 4867 04bb 8c41 99bc
00000280: f90c b03d ab15 f4bb 3953 6b3d f519 84bc
00000290: cb92 50bc 2a73 9d3d a78e 55bd facb afb8
000002a0: 0205 a6bc 052d e03c ccd6 9bbd eb31 013c
000002b0: 8c21 8b3c b791 9fbd 2a10 763d 3738 04bc
000002c0: 22a0 b23c 43d5 95bd bddc 55bd 2e2f f2bc
000002d0: 25a6 51bd c487 bebc c10a 013c a851 3ebd
000002e0: ef8f 7e3d fbf9 2abd a469 ccbb fd03 81bd
000002f0: 043c 3f3d 434f 803d 09d5 a63d 8281 c73c
00000300: e660 143c 763f adbc 5ed9 26bd a35d 233d
00000310: bc48 25bc 71b8 e53c db35 86bd 0bba 923c
00000320: 0c6c 163d 8cc8 9fba f462 2dbd 6c9f 25bd
00000330: f4ee 943c 2080 043d 1006 543b 41a8 25bd
00000340: 0a44 de3c 310e 22bd 834f 4ebd fd44 333d
00000350: 462f be3d ed5f da3c 2662 303b 9e35 55bb
00000360: 2a3f e6bc d4a4 aa3c 7a00 093d e145 df3d
00000370: 4682 7dbd d3dd b6bc b8b6 68bd b0c3 ba3d
00000380: 53fe 8d3b c31b 14bd 5e44 e43c 1deb f83c
00000390: 7b0d 963c 4f36 703d 703c a539 7743 cdbc
000003a0: 26c4 ce3c 3888 bc3c a859 f1bb 90e1 86bd
000003b0: 2580 b73d cf7a b33b ff3f 17bd dd5a 8a3d
000003c0: 4648 983d 3633 bfbc 5c06 0ebd 37dc ffbb
000003d0: 48bf 85bc 4733 b8bc b1c3 0d3c 464b 09bc
000003e0: 4b87 03bc 398c 913c e78a 143c 173a 1cbd
000003f0: f623 35bb 5937 9c3d 72c4 1c3c b2cd 9a3d

cnn.0.mods.8.weight f4 [64]
0.25645348 0.8305259 0.04783639 0.7780692 0.903987 0.47885752 0.90829057 0.7071908
0.05003857 0.30480036 0.36295685 0.3921155 0.024835277 0.47366425 0.36756077 0.05297674
0.7013453 0.51188713 0.49541304 0.10793519 0.60955584 0.06686227 0.25672665 0.34412453
0.9451576 0.5804405 0.45565334 0.86090225 0.08718216 0.903387 0.36740342 0.5168693
0.9590055 0.42853606 0.2928489 0.91582185 0.96336937 0.5014953 0.37552705 0.6957248
0.04833405 0.19182493 0.45188922 0.5213561 0.3489864 0.21931084 0.81851876 0.73691946
0.8918425 0.6563747 0.8125936 0.39733377 0.11880865 0.35409325 0.6113371 0.6826737
0.8032994 0.7079992 0.30584753 0.73450845 0.059240658 0.8807511 0.3913614 0.18736023
00000000: df4d 833e 589d 543f 17f0 433d 8b2f 473f
00000010: b16b 673f d02c f53e bb85 683f 750a 353f
00000020: 3ef5 4c3d cb0e 9c3e 7bd5 b93e 5dc3 c83e
00000030: 5a73 cb3c 1f84 f23e ed30 bc3e 23fe 583d
00000040: 5e8b 333f 090b 033f c7a6 fd3e 200d dd3d
00000050: da0b 1c3f 16ef 883d ad71 833e 1731 b03e
00000060: d9f5 713f c097 143f 654b e93e 1764 5c3f
00000070: 8f8c b23d 5f44 673f 4d1c bc3e 8c51 043f
00000080: 6281 753f 1469 db3e 4bf0 953e 4d73 6a3f
00000090: 609f 763f ff61 003f 1545 c03e 051b 323f
000000a0: edf9 453d c16d 443e 065e e73e 9877 053f
000000b0: 58ae b23e 0593 603e 728a 513f c1a6 3c3f
000000c0: ca4f 643f 2c08 283f 2206 503f 556f cb3e
000000d0: f351 f33d b64b b53e 9780 1c3f b4c3 2e3f
000000e0: 08a5 4d3f 703f 353f 0c98 9c3e bf08 3c3f
000000f0: 55a6 723d e778 613f 8560 c83e 5cdb 3f3e

cnn.0.mods.8.bias f4 [64]
-0.0006038353 0.0013214607 -0.0026828677 0.0020544722 0.002568907 -0.0008595476 -0.0007471598 0.0036571452
-0.0011524026 -0.0023532114 -0.0009711136 -0.0011410308 0.0031578282 -0.003016293 -0.0011267798 0.0016567246
-0.0012291141 0.001420713 0.0021436762 -0.0015493323 -0.0036270695 -0.0011888965 0.0011465694 -0.0019866396
0.001486611 -0.0032723441 0.0014348271 0.00090813194 0.00044249004 0.0014695051 -3.9467202e-05 0.0011113079
0.00068320014 -0.0008402405 0.0023397922 -0.00066286785 -0.0018482067 -0.0012699845 0.0010079304 -0.000529114
-0.00017599565 -0.0010070811 0.0022851757 0.001973242 -0.00015526707 -0.0020167644 0.0027469771 0.0021509146
-0.0016710052 0.0005957227 -0.0022040466 0.0017964173 0.00041794378 -0.0017051056 0.0008724081 0.00339276
0.00071132346 -0.0010220663 -0.004421089 0.004128804 0.001022707 -0.0036616817 0.0012403686 -0.0010632685
00000000: b34a 1eba dd34 ad3a 0dd3 2fbb 53a4 063b
00000010: 1c5b 283b 4353 61ba 0cdd 43ba b7ac 6f3b
00000020: 370c 97ba 5638 1abb 5592 7eba a48e 95ba
00000030: 91f3 4e3b 00ad 45bb 75b0 93ba 7426 d93a
00000040: 3a1a a1ba 3837 ba3a eb7c 0c3b f712 cbba
00000050: 21b4 6dbb bfd4 9bba 7c48 963a 4832 02bb
00000060: 63da c23a d374 56bb cf10 bc3a b40f 6e3a
00000070: 02fe e739 699c c03a 9689 25b8 4ea9 913a
00000080: c918 333a 9643 5cba 3357 193b 4fc4 2dba
00000090: 873f f2ba 9c75 a6ba 881c 843a 3db4 0aba
000000a0: 798b 38b9 0900 84ba e3c2 153b 8251 013b
000000b0: 30cf 22b9 b12b 04bb a106 343b 5cf6 0c3b
000000c0: a105 dbba 462a 1c3a c471 10bb c375 eb3a
000000d0: 771f db39 da7d dfba 51b2 643a 1159 5e3b
000000e0: 1c78 3a3a dbf6 85ba c8de 90bb eb4a 873b
000000f0: 5a0c 863a d3f8 6fbb dd93 a23a 5f5d 8bba

cnn.1.blocs.0.weight f4 [64, 64, 3, 3]
0.021767894 -0.029597886 -0.030720152 0.03915981 0.018387675 -0.046986703 -0.0038460947 0.004006001
-0.03969037 -0.033267833 -0.06368689 0.014315357 0.009474522 0.00077334925 -0.0036706636 0.04377697
0.05459358 -0.011201753 -0.0043148864 0.042506956 -0.012520039 0.0021655636 -0.010244042 -0.014651445
-0.010691871 -0.011463654 0.009298301 0.015129365 -0.016071178 -0.002687903 -0.013949008 -0.08395954
0.0278934 -0.00554446 0.0024220431 0.025916543 0.023450702 -0.006638237 0.019638697 -0.024645334
-0.0103511205 -0.05601049 0.015335249 0.033981018 0.014207553 0.04985293 0.0044182804 -0.023869034
0.009241114 0.04190158 -0.009577159 0.03815328 -0.036601063 0.058324814 -0.01452117 -0.0026874705
0.006987248 0.007718199 0.046347357 0.02410959 0.0037432122 0.0013943709 0.022150477 0.002789365
-0.014965044 -0.01966741 -0.0051172576 -0.027597269 -0.0058525843 -0.04422592 -0.033816975 -0.013637426
-0.016666306 0.023323098 -0.012703631 -0.004494879 -0.032479513 -0.07988866 -0.0016528788 -0.03348903
-0.026818432 0.012819707 -0.0066591664 -0.032038357 0.02598371 -0.013533068 0.010773061 -0.01386521
-0.025717387 -0.020118773 -0.023066893 -0.029801715 0.014337086 -0.03809732 -0.005028049 0.01744621
0.04797283 0.052720323 -0.033920176 0.068944685 0.0005025529 0.05193226 -0.031094536 -0.0240355
-0.026112553 -0.06681128 -0.06583816 -0.022921164 0.018856267 0.013039579 -0.008241544 0.01243587
-0.017381357 -0.0039833514 -0.019506628 -0.0014442836 -0.015667094 0.0040244823 0.035247378 0.08143381
0.0044377563 -0.041005455 -0.029597092 -0.01542938 -0.022027759 0.010586114 0.0733289 0.03697924
-0.02660253 -0.03362868 0.0050238944 -0.010774008 -0.016879048 -0.006613575 -0.019794356 0.025985338
-0.006622445 -0.02310557 0.0068875523 -0.03130704 0.041177843 0.0021342218 0.040072203 0.008031991
-0.043135542 0.013976554 -0.008878614 -0.013117821 0.08554137 -0.043445125 -0.070996165 -0.05663601
-0.030566294 0.031461056 0.01347035 0.036902793 0.0055363355 -0.013256767 0.049090542 -0.03836063
0.043662697 0.026769338 -0.035302535 0.01919654 -0.010649092 0.036591124 -0.028204601 -0.014522975
0.014435024 -0.019261772 -0.010269049 -0.020971369 0.014374519 0.055105906 -0.0427548 0.03988901
-0.020038664 0.0174872 -0.010860669 -0.0356053 -0.0025241638 0.0062613804 0.0153513085 -0.0067813387
-0.008435444 0.0052080476 -0.0017503552 -0.029625786 0.0095821 0.025650658 -0.043912917 0.017763749
0.022103166 0.053952385 -0.012882009 0.012048531 -0.0009209778 0.028619193 0.0065372544 0.00170163
-0.00931474 0.018957838 -0.01898107 -0.011986719 -0.031190375 -0.043432377 0.030474337 0.009136563
0.00785736 -0.010487267 -0.010452114 -0.039602116 -0.028747555 -0.01945598 -0.0005496449 -0.02217668
-0.034123726 0.045050237 -0.06790277 0.015071181 0.011988496 -0.0049010776 -0.041341513 -0.00916892
0.06170817 0.0067675575 0.02528436 -0.038600225 -0.006158261 0.02469255 -0.031619314 0.021669606
-0.02089928 -0.059544083 -0.004915389 -0.017800868 -0.0015594122 0.0048960317 -0.028363766 -0.03563657
0.004488468 0.070199646 -0.01829889 -0.0054117856 0.032092284 0.0018608983 -0.063907005 -0.0011910752
0.021594157 0.0037486937 -0.03196672 0.028393364 0.016619721 -0.033839807 -0.0024272478 0.020885795
00000000: 9552 b23c 4477 f2bc d4a8 fbbc 0966 203d
00000010: c0a1 963c 2175 40bd c30e 7cbb c644 833b
00000020: 5f92 22bd da43 08bd 466e 82bd f68a 6a3c
00000030: 073b 1b3c 97ba 4a3a 848f 70bb 7b4f 333d
00000040: 859d 5f3d 8f87 37bc e463 8dbb c61b 2e3d
00000050: da20 4dbc 21ec 0d3b a0d6 27bc 9d0c 70bc
00000060: f52c 2fbc 0dd2 3bbc e757 183c 28e1 773c
00000070: b4a7 83bc 8727 30bb 618a 64bc fbf2 abbd
00000080: b380 e43c 4dae b5bb 24bb 1e3b ee4e d43c
00000090: b01b c03c 9185 d9bb 55e1 a03c 03e5 c9bc
000000a0: bf97 29bc 416b 65bd b240 7b3c ae2f 0b3d
000000b0: ccc6 683c 9632 4c3d 39c7 903b fe88 c3bc
000000c0: 0b68 173c fea0 2b3d 84e9 1cbc 9d46 1c3d
000000d0: ffea 15bd 00e6 6e3d 34ea 6dbc 4620 30bb
000000e0: 49f5 e43b f2e8 fc3b bad6 3d3d 7a81 c53c
000000f0: ae50 753b 53c3 b63a eb74 b53c c7cd 363b
00000100: f22f 75bc 8c1d a1bc abae a7bb ab13 e2bc
00000110: 09c7 bfbb 3d26 35bd ab83 0abd 836f 5fbc
00000120: c787 88bc 1510 bf3c e422 50bc c749 93bb
00000130: 3d09 05bd aa9c a3bd 69a5 d8ba cb2b 09bd
00000140: 54b2 dbbc c009 523c 2335 dabb a73a 03bd
00000150: cadb d43c cdb9 5dbc 7e81 303c e82a 63bc
00000160: 45ad d2bc 20d0 a4bc c8f6 bcbc ba22 f4bc
00000170: 19e6 6a3c ef0b 1cbd 55c2 a4bb 5beb 8e3c
00000180: 287f 443d 44f1 573d e2ef 0abd df32 8d3d
00000190: c1bd 033a ecb6 543d f8b9 febc 19e6 c4bc
000001a0: fee9 d5bc 5ad4 88bd 28d6 86bd 2ac5 bbbc
000001b0: 7578 9a3c f5a3 553c 8a07 07bc d2bf 4b3c
000001c0: 5963 8ebc c686 82bb 5dcc 9fbc 1e4e bdba
000001d0: 4758 80bc cedf 833b 8e5f 103d c5c6 a63d
000001e0: 996a 913b 56f5 27bd 9a75 f2bc 83cb 7cbc
000001f0: 8f73 b4bc 6171 2d3c 762d 963d 8b77 173d
00000200: 8ded d9bc 3abe 09bd 7b9f a43b 7785 30bc
00000210: ee45 8abc b0b6 d8bb c627 a2bc 34df d43c
00000220: 1801 d9bb e447 bdbc fab0 e13b d03b 00bd
00000230: 19aa 283d 4dde 0b3b c022 243d 9d98 033c
00000240: e5ae 30bd ebfd 643c 9b77 11bc 21ec 56bc
00000250: 5030 af3d 84f3 31bd 7066 91bd 29fb 67bd
00000260: 2a66 fabc 4fdd 003d beb2 5c3c 6227 173d
00000270: 266a b53b e932 59bc 2a13 493d 0920 1dbd
00000280: a8d7 323d 5f4b db3c 6499 10bd 1042 9d3c
00000290: 8779 2ebc 93e0 153d 560d e7bc c6f1 6dbc
000002a0: e180 6c3c ddca 9dbc 833f 28bc 26cc abbc
000002b0: 1a83 6b3c bbb6 613d a81f 2fbd a962 233d
000002c0: 2028 a4bc 5141 8f3c f3f0 31bc ddd6 11bd
000002d0: 716c 25bb 442c cd3b 0e84 7b3c fe35 debb
000002e0: d134 0abc 45a8 aa3b 2d6c e5ba c7b1 f2bc
000002f0: 3efe 1c3c 5421 d23c 08de 33bd 4885 913c
00000300: b311 b53c 2dfd 5c3d 100f 53bc 3467 453c
00000310: c66d 71ba cc72 ea3c 7736 d63b 3a09 df3a
00000320: da9c 18bc 784d 9b3c 307e 9bbc f263 44bc
00000330: f582 ffbc 26e6 31bd 51a5 f93c 86b1 153c
00000340: 28bc 003c c9d2 2bbc 583f 2bbc d435 22bd
00000350: fe7f ebbc 2662 9fbc 0b16 10ba deab b5bc
00000360: 52c5 0bbd 9986 383d 9c10 8bbd 1ded 763c
00000370: 666b 443c 3899 a0bb b855 29bd 3d39 16bc
00000380: b5c1 7c3d 63c2 dd3b 2521 cf3c 451b 1ebd
00000390: 3dcb c9bb 0848 ca3c 4183 01bd 7584 b13c
000003a0: f834 abbc 7fe4 73bd 4611 a1bb 20d3 91bc
000003b0: 3165 ccba e46e a03b 215b e8bc a7f7 11bd
000003c0: 0014 933b d5c4 8f3d 8ee7 95bc 5955 b1bb
000003d0: 3373 033d 63e9 f33a ade1 82bd da1d 9cba
000003e0: 3be6 b03c a5ac 753b 89ef 02bd 3399 e83c
000003f0: 1526 883c 9c9b 0abd 7612 1fbb b018 ab3c

cnn.1.blocs.1.weight f4 [64]
0.8048257 0.97050554 0.58790284 0.7355571 0.33750293 0.7349426 0.69409627 0.7084404
0.44447088 0.3618147 0.5760337 0.07996061 0.3791842 0.6839394 0.96465653 0.106915556
0.370358 0.45876154 0.5846054 0.8756856 0.2569542 0.76303214 0.55317134 0.817968
0.7697497 0.24115461 0.4576064 0.36571535 0.97335094 0.8509575 0.43521056 0.6724343
0.29558626 0.47145066 0.49881682 0.8998121 0.14859752 0.5791508 0.37491924 0.9681985
0.34934363 0.58435863 0.052070364 0.35475123 0.35818067 0.78012836 0.17487013 0.35244384
0.79452634 0.22708723 0.57695454 0.58487004 0.5948467 0.5101598 0.63587636 0.96159565
0.41191497 0.32425883 0.33013153 0.57217556 0.7983633 0.15116629 0.97598517 0.7311704
00000000: 0f09 4e3f 0d73 783f cd80 163f 784d 3c3f
00000010: 2fcd ac3e 3325 3c3f 4bb0 313f 5a5c 353f
00000020: b091 e33e c73f b93e f276 133f 63c2 a33d
00000030: 6e24 c23e a716 2f3f bbf3 763f 8bf6 da3d
00000040: 909f bd3e cbe2 ea3e b3a8 153f ee2c 603f
00000050: 808f 833e 1356 433f a39c 0d3f 5a66 513f
00000060: 510e 453f 3cf1 763e 634b ea3e 0b3f bb3e
00000070: 872d 793f 5ad8 593f ebd3 de3e a724 2c3f
00000080: 1557 973e fb61 f13e eb64 ff3e 165a 663f
00000090: f329 183e 3a43 143f 6af5 bf3e dbdb 773f
000000a0: 2bdd b23e 8798 153f bc47 553d f4a1 b53e
000000b0: 7563 b73e 7eb6 473f 2811 333e 8573 b43e
000000c0: 1466 4b3f 8e89 683e 4bb3 133f 0bba 153f
000000d0: e047 183f d599 023f cbc8 223f 222b 763f
000000e0: 85e6 d23e 4105 a63e 0007 a93e 197a 123f
000000f0: 8a61 4c3f 56cb 1a3e 2ada 793f fc2d 3b3f

cnn.1.blocs.1.bias f4 [64]
0.0041576563 -0.00053691963 -0.0011062181 -0.0014786563 0.0015936048 0.0014390779 -0.0020723399 0.00025510316
-0.001125063 -9.222769e-05 -0.0010004701 0.0032206215 0.0026413111 0.0050288187 0.00722642 -0.00052852085
0.0033497557 0.0054303706 0.0011637607 -0.00025009864 0.0038996863 0.0020987915 -0.0011781402 -0.0012515889
0.0013682926 -4.6315832e-05 0.001846924 -0.00085932744 0.003915081 -0.002115677 0.00038665836 -0.0015408618
0.0064319875 0.0033445458 0.0042941878 -0.0015020509 4.210685e-05 -0.0056175077 -0.003720184 0.0006031984
9.458241e-05 -0.0028227537 0.00079619716 0.0024682616 0.0051444904 0.002530789 -0.0041278806 0.0002021951
0.0038341156 0.0042997072 0.00035102564 0.0011484277 -0.00312272 -0.0044649397 0.0032610707 -0.0023412476
0.0046071685 -0.00025061195 0.0018299439 -0.0005528422 0.0007003442 0.00035680446 0.0015105009 -0.0007932723
00000000: f33c 883b 11c0 0cba 85fe 90ba 79cf c1ba
00000010: 81e0 d03a 719f bc3a 18d0 07bb 5ebf 8539
00000020: da76 93ba 5d6a c1b8 3522 83ba 1011 533b
00000030: d919 2d3b cac8 a43b 9bcb ec3b 6f8c 0aba
00000040: 9387 5b3b 40f1 b13b 5489 983a ac1f 83b9
00000050: e191 7f3b e18b 093b d36b 9aba 5b0c a4ba
00000060: 4858 b33a 3f43 42b8 7c14 f23a 7d44 61ba
00000070: 144a 803b 2ca7 0abb 68b8 ca39 bef6 c9ba
00000080: 6cc3 d23b 2b30 5b3b 42b6 8c3b 77e0 c4ba
00000090: e39b 3038 1213 b8bb 55ce 73bb f61f 1e3a
000000a0: 8b5a c638 f3fd 38bb e3b7 503a 8fc2 213b
000000b0: 1d93 a83b 98db 253b 2c43 87bb 5504 5439
000000c0: c945 7b3b 8fe4 8c3b dd09 b839 d786 963a
000000d0: 8ca6 4cbb a14e 92bb b0b7 553b 9e6f 19bb
000000e0: bbf7 963b 9164 83b9 bada ef3a 9dec 10ba
000000f0: 4e97 373a 7c11 bb39 00fc c53a 9af3 4fba

cnn.1.blocs.3.weight f4 [64, 64, 3, 3]
-0.005587889 -0.017100094 0.06866106 0.02468263 -0.0012427698 -0.010773365 -0.060096893 -0.0014240812
-0.048233982 0.006405636 -0.0075132647 -0.03773383 -0.009239072 0.030167235 0.009171567 0.029857015
-0.008300584 0.038742892 0.00870895 -0.009902617 0.012413917 -0.0012704864 -0.0016578096 -0.064549066
0.026986117 0.018742222 -0.030518757 -0.0013095312 0.0779331 -0.03349116 0.04286834 0.014397506
0.027261022 0.034489453 0.03400665 -0.053599477 0.008205244 -0.057634447 -0.0178163 0.00083962554
-0.061611027 0.022648256 -0.02338982 0.04901632 -0.01859898 -0.018566292 -0.026783114 0.06859293
-0.013330467 0.05312238 -0.032611623 0.015485381 -0.014788446 -0.025228003 -0.022229612 0.023353755
-0.023263494 0.08895375 -0.0052484665 0.022025935 -0.012390191 -0.019369503 -0.005683967 -0.018474085
-0.005780317 0.03324057 -0.003818746 -0.03424151 0.029084023 0.019575426 -0.004464521 0.011239755
0.006676531 -0.0037569015 0.053257655 0.0014948602 0.045322377 -0.035081156 0.021833548 0.013075921
0.036036257 -0.054273713 0.012770841 -0.019811457 -0.029554592 0.005675227 0.028138023 -0.023208117
0.041113082 0.040120758 -0.0062696016 0.026258718 0.02455573 -0.04628387 -0.028973974 -0.04710286
-0.0059530414 -0.05984713 0.032001194 0.041404758 0.029628063 -0.0008892112 0.0058528786 0.03867278
0.011952173 0.0020989948 0.028002908 0.01185976 -0.005086091 -0.0044063306 0.066363536 0.0073214746
-0.05996746 0.037249696 0.023389174 0.018809514 -0.0016943861 -0.0005441775 -0.06356634 0.06942643
-0.007401346 0.040413767 -0.003026585 -0.0036455397 0.012504968 -0.04517064 -0.03493548 -0.050647363
-0.029198525 -0.012119326 -0.040746935 -0.008988825 0.0090366965 0.026705075 0.024274083 -0.027373236
0.023871675 0.016736073 0.018650316 0.06692161 0.00807094 0.0028595575 -0.010780785 -0.049030405
0.007577579 -0.05426459 -0.0019012073 0.0031475462 0.011607713 0.045862805 0.0026040373 -0.037385445
-0.008909027 0.040548313 0.081641614 0.034436155 -0.0007440702 0.0002792677 -0.027033448 -0.015410394
0.054576095 -0.013274626 -0.005585768 -0.020424748 0.059172586 0.032031763 -0.014572735 0.050795615
0.03135233 0.025106253 -0.04445769 -0.014202864 -0.046403725 0.037378453 -0.012228769 -0.028783286
0.064553015 0.01673881 -0.081848316 0.036039285 -0.005525224 0.041703526 0.012886572 -0.009820326
0.039036013 -0.01637138 0.047471862 -0.051365137 -0.04574119 -0.02156176 0.025351675 -0.03278918
-0.016569993 0.009003412 -0.007914601 0.044137474 -0.00532285 -0.037495933 -0.00068037456 0.040573403
0.068719365 -0.015403198 -0.023386402 0.02407369 0.06323878 0.035955407 -0.016068278 0.022783497
-0.034552056 0.04046601 -0.063639015 0.015397005 -0.030004336 -0.02704831 0.019249134 0.013539528
-0.03437195 0.014345955 -0.023786562 0.06284862 0.0045109405 -0.03176999 -0.011320986 -0.014749263
-0.022631261 0.034774445 0.06333058 -0.028619062 0.027160952 0.038220152 0.045410164 -0.048678778
0.07127586 0.011185016 0.0005996325 -0.007821897 0.0019503608 -0.0032036484 -0.048568252 0.00038969383
-0.04176003 -0.046431553 -0.03307837 -0.00012995349 -0.0024461336 -0.030898508 -0.016813492 0.018671896
0.04560333 -0.005211383 0.0144309485 0.0036662149 0.06667256 0.023225835 0.022715298 -0.013449546
00000000: 9c1a b7bb 7f15 8cbc 2b9e 8c3d 3a33 ca3c
00000010: 6fe4 a2ba c582 30bc 2928 76bd 3ca8 baba
00000020: ff90 45bd 5fe6 d13b d531 f6bb ca8e 1abd
00000030: 7a5f 17bc 4721 f73c 5744 163c b396 f43c
00000040: 2cff 07bc deb0 1e3d fcaf 0e3c 963e 22bc
00000050: be63 4b3c 7386 a6ba dc4a d9ba 4d32 84bd
00000060: fd11 dd3c 4a89 993c 7902 fabc 93a4 abba
00000070: 649b 9f3d 072e 09bd b696 2f3d 84e3 6b3c
00000080: 8252 df3c d044 0d3d 8f4a 0b3d 208b 5bbd
00000090: 4a6f 063c 1912 6cbd 7df3 91bc 511a 5c3a
000000a0: d85b 7cbd d688 b93c 029c bfbc 56c5 483d
000000b0: e35c 98bc 5618 98bc 4368 dbbc 737a 8c3d
000000c0: 0868 5abc da96 593d c493 05bd 65b6 7d3c
000000d0: 3d4b 72bc f5aa cebc e01a b6bc 6050 bf3c
000000e0: 1593 bebc 622d b63d 54fb abbb bc6f b43c
000000f0: 3a00 4bbc cbac 9ebc 9240 babb f756 97bc
00000100: d068 bdbb 4427 083d ed43 7abb d340 0cbd
00000110: 9e41 ee3c a55c a03c 1e4b 92bb f326 383c
00000120: cdc6 da3b 5936 76bb b324 5a3d 2fef c33a
00000130: f5a3 393d 42b1 0fbd 45dc b23c 633c 563c
00000140: c19a 133d 1d4e 5ebd ca3c 513c a34b a2bc
00000150: 791c f2bc 41f7 b93b b681 e63c f31e bebc
00000160: 3166 283d aa55 243d 3b71 cdbb 861c d73c
00000170: 1929 c93c 2894 3dbd d45a edbc eeee 40bd
00000180: bb11 c3bb 4422 75bd af13 033d 0998 293d
00000190: 8db6 f23c f419 69ba 81c9 bf3b 5967 1e3d
000001a0: 0cd3 433c 4a8f 093b 5b66 e53c 704f 423c
000001b0: 39a9 a6bb fb62 90bb 9be9 873d fbe8 ef3b
000001c0: 70a0 75bd 2393 183d a79a bf3c 6916 9a3c
000001d0: 2a16 deba 22a7 0eba 122f 82bd 722f 8e3d
000001e0: fe86 f2bb e888 253d ac59 46bb 02ea 6ebb
000001f0: a3e1 4c3c d904 39bd 8218 0fbd 9c73 4fbd
00000200: bf31 efbc 2390 46bc 42e6 26bd dd45 13bc
00000210: a70e 143c 9ac4 da3c 71da c63c d63d e0bc
00000220: 888e c33c 171a 893c 8cc8 983c 320e 893d
00000230: fa3b 043c 6a67 3b3b e4a1 30bc 1bd4 48bd
00000240: 574d f83b 8c44 5ebd ee31 f9ba 1047 4e3b
00000250: 472e 3e3c a3da 3b3d 7fa8 2a3b 7b21 19bd
00000260: 2bf7 11bc fd15 263d b833 a73d ed0c 0d3d
00000270: b50d 43ba ad6a 9239 4075 ddbc e17b 7cbc
00000280: 2f8b 5f3d d17d 59bc d108 b7bb cd51 a7bc
00000290: f45e 723d bd33 033d 7bc2 6ebc 100f 503d
000002a0: 4d6b 003d a1ab cd3c 4419 36bd 21b3 68bc
000002b0: d511 3ebd 261a 193d 2d5b 48bc edca ebbc
000002c0: 5f34 843d d41f 893c 17a0 a7bd ee9d 133d
000002d0: f00c b5bb 51d1 2a3d 3322 533c 6fe5 20bc
000002e0: 3ae4 1f3d 461d 86bc db71 423d 4064 52bd
000002f0: 1d5b 3bbd 4aa2 b0bc 51ae cf3c f24d 06bd
00000300: cbbd 87bc 0c83 133c 3eac 01bc 7fc9 343d
00000310: 4d6b aebb 5695 19bd 2a5b 32ba 4c30 263d
00000320: bdbc 8c3d b25d 7cbc d794 bfbc 3036 c53c
00000330: 5583 813d fa45 133d 9fa1 83bc 75a4 ba3c
00000340: 7586 0dbd b0bf 253d 2c55 82bd b843 7c3c
00000350: a7cb f5bc 6b94 ddbc 5cb0 9d3c e5d4 5d3c
00000360: 9ac9 0cbd 4c0b 6b3c 09dc c2bc c7b6 803d
00000370: 83d0 933b 4021 02bd a87b 39bc e5a6 71bc
00000380: 3265 b9bc a66f 0e3d 77b3 813d 8672 eabc
00000390: a580 de3c bc8c 1c3d 0200 3a3d 6663 47bd
000003a0: 14f9 913d 5b41 373c a830 1d3a 6a27 00bc
000003b0: 40a3 ff3a 4df4 51bb 81ef 46bd d24f cc39
000003c0: 910c 2bbd 032f 3ebd 2f7d 07bd 2044 08b9
000003d0: 504f 20bb de1e fdbc 73bc 89bc cef5 983c
000003e0: 8fca 3a3d 40c4 aabb c96f 6c3c e144 703b
000003f0: a08b 883d 1b44 be3c 6f15 ba3c 7c5b 5cbc

cnn.1.blocs.3.bias f4 [64]
-7.950971e-06 4.269801e-06 -2.870569e-06 1.9301051e-07 -7.58634e-07 2.6858877e-06 -6.519391e-07 -2.8260476e-06
1.113976e-05 3.5275652e-06 1.9334497e-07 -5.5031727e-05 1.8779547e-06 3.2576245e-06 -3.3750903e-06 9.694259e-07
-6.9570756e-06 1.3354598e-05 -1.5413982e-05 -3.4842873e-05 7.2201055e-06 -2.3372299e-05 1.0229418e-05 -2.3024272e-06
-3.4285522e-06 -9.950186e-06 -4.0134773e-06 -9.72226e-07 -1.1049193e-05 -1.174441e-05 -1.3139504e-06 -1.0555124e-06
1.2942743e-06 -3.7689708e-06 3.7514574e-06 1.7136952e-06 6.8399086e-06 1.077908e-05 3.1359546e-06 5.883423e-06
-3.5062718e-07 -3.3472543e-06 1.8329532e-06 1.6568144e-07 -4.2562388e-06 -1.8483279e-06 1.6118493e-06 2.7133677e-07
-2.1787422e-07 -9.97656e-07 -8.663781e-06 -7.668257e-07 -3.2674163e-06 -8.785732e-06 -1.4889712e-06 3.2868615e-05
-1.6098118e-06 8.970928e-09 -6.3046707e-07 -5.567695e-06 5.825039e-07 2.5224676e-06 -8.7089165e-07 -4.8609704e-06
00000000: 2965 05b7 5045 8f36 00a4 40b6 533e 4f34
00000010: eea4 4bb5 333f 3436 ea00 2fb5 21a7 3db6
00000020: e8e4 3a37 1cbb 6c36 439a 4f34 ded1 66b8
00000030: 080e fc35 909d 5a36 9c7f 62b6 381d 8235
00000040: d370 e9b6 900d 6037 464d 81b7 4024 12b8
00000050: 3c44 f236 a10f c4b7 049f 2b37 6683 1ab6
00000060: 1416 66b6 b9ef 26b7 82ab 86b6 6e7d 82b5
00000070: ec5f 39b7 db09 45b7 fe5a b0b5 21ab 8db5
00000080: edb6 ad35 6dee 7cb6 8cc1 7b36 1e02 e635
00000090: 5e82 e536 ccd7 3437 4a73 5236 386a c536
000000a0: d53d bcb4 64a1 60b6 cb03 f635 2be6 3134
000000b0: d0d0 8eb6 1014 f8b5 b856 d835 3eac 9134
000000c0: cff0 69b4 33e7 85b5 a85a 11b7 dcd7 4db5
000000d0: c945 5bb6 6e66 13b7 a9d8 c7b5 68dc 0938
000000e0: b610 d8b5 8f1e 1a32 5e3d 29b5 23d2 bab6
000000f0: 5d5d 1c35 aa47 2936 38c7 69b5 6b1b a3b6

cnn.1.activationF.0.weight f4 [64]
0.3872313 0.54589546 0.47663584 0.13659109 0.8792572 0.7386451 0.6817087 0.8584924
0.7904092 0.33742365 0.93797976 0.6374247 0.09349657 0.21986058 0.37136987 0.14225352
0.72177815 0.10719467 0.20190276 0.70030487 0.29824445 0.7751052 0.30934393 0.2248905
0.16719885 0.28408626 0.8279488 0.075990506 0.45791864 0.69863147 0.31635845 0.5686091
0.6882173 0.11761999 0.40597004 0.18886648 0.6983702 0.9871068 0.20596609 0.6414696
0.022619521 0.86235076 0.62775624 0.112512395 0.27029487 0.2535096 0.384469 0.006628299
0.45324656 0.78559244 0.59925616 0.09100838 0.18917845 0.7274959 0.15493935 0.83496183
0.8080585 0.9347034 0.049426712 0.7142104 0.23122494 0.79791284 0.52726674 0.35167408
00000000: 2e43 c63e cebf 0b3f 9d09 f43e 89de 0b3e
00000010: 0017 613f d817 3d3f 7684 2e3f 28c6 5b3f
00000020: 4258 4a3f cbc2 ac3e 711f 703f 442e 233f
00000030: 217b bf3d 2223 613e 3124 be3e e8aa 113e
00000040: 74c6 383f e188 db3d 99bf 4e3e 2e47 333f
00000050: 7fb3 983e 4b6d 463f 5462 9e3e b249 663e
00000060: 2d36 2b3e c173 913e 74f4 533f e9a0 9b3d
00000070: 5074 ea3e 83d9 323f bcf9 a13e 5e90 113f
00000080: 022f 303f c0e2 f03d 4edb cf3e 3766 413e
00000090: 64c8 323f 08b3 7c3f c6e8 523e 5a37 243f
000000a0: 934c b93c 05c3 5c3f a2b4 203f e66c e63d
000000b0: 1764 8a3e 03cc 813e 1fd9 c43e 3432 d93b
000000c0: ef0f e83e 961c 493f da68 193f 9a62 ba3d
000000d0: ffb7 413e 2c3d 3a3f 6ca8 1e3e 0fc0 553f
000000e0: ecdc 4e3f b948 6f3f aa73 4a3d 7ed6 363f
000000f0: 3bc6 6c3e 0444 4c3f f4fa 063f a00e b43e

cnn.1.activationF.0.bias f4 [64]
0.0018254025 -0.0012149329 0.009152976 0.002998558 0.002895807 -0.0007595319 -0.0029917476 0.004736057
-0.00015423153 -0.005387448 -0.0011298358 -0.0013372517 0.00034158144 0.002191063 -0.0029128368 -0.0014430383
0.0011205188 -0.0001317076 0.0023211383 0.0025614267 0.0026595797 -0.0013056691 -0.0016360487 -0.0015697798
0.0059047234 -0.0006057587 -0.000827498 0.004046852 0.005340229 -0.0018315542 0.004462819 0.0025094927
-0.0023524554 0.0049532913 -0.0017998344 -0.00046839658 0.00021830262 0.0031536683 0.001830992 -0.0008237177
-0.0060375277 -0.0019795261 -0.004358597 0.0006665022 0.0023978178 -0.0011703457 -0.0022883145 0.0019848023
0.0014484798 -0.00071652286 0.0011665808 0.00058870716 0.0015042861 0.003956718 -0.0016804475 0.0017764847
0.0012699803 0.000581234 0.003493805 -0.0015680693 0.0006229207 -0.00051221804 -0.0011438521 -0.0028197605
00000000: 5842 ef3a 623e 9fba 5df6 153c 7583 443b
00000010: 94c7 3d3b 531b 47ba 3211 44bb ed30 9b3b
00000020: 36b9 21b9 3089 b0bb 0017 94ba b946 afba
00000030: 4916 b339 f097 0f3b 4be5 3ebb 5524 bdba
00000040: 5fde 923a fd1a 0ab9 3d1e 183b 9cdd 273b
00000050: 584c 2e3b fc22 abba af70 d6ba 12c1 cdba
00000060: 697c c13b c7cb 1eba 73ec 58ba 749b 843b
00000070: 16fd ae3b c310 f0ba d73c 923b 4d76 243b
00000080: a72b 1abb 384f a23b 6ce8 ebba 2093 f5b9
00000090: 2ae8 6439 c6ad 4e3b e6fd ef3a c2ee 57ba
000000a0: 74d6 c5bb f0ba 01bb 90d2 8ebb 35b8 2e3a
000000b0: b524 1d3b 4966 99ba 8cf7 15bb 7513 023b
000000c0: ebda bd3a 09d5 3bba f5e7 983a 7853 1a3a
000000d0: 772b c53a 5ba7 813b 7642 dcba efd8 e83a
000000e0: 7875 a63a f45d 183a 52f8 643b ad87 cdba
000000f0: 804b 233a 5f46 06ba 4fed 95ba bbcb 38bb

psp.0.1.weight f4 [1, 64, 1, 1]
0.015780183 0.0074689128 0.08245816 -0.011015766 0.033863418 0.0038075566 -0.015221038 -0.087667964
0.08153949 0.07273572 0.06366002 0.031758063 -0.0024848143 -0.020226665 -0.024943415 0.01781201
0.005242628 -0.008551115 0.027677674 -0.0716277 0.018639749 -0.098186314 0.0028522122 -0.007942158
0.010688029 0.035581693 -0.07711844 -0.003339882 -0.11927613 -0.12038154 -0.015574808 0.15965071
-0.07266747 -0.014668706 0.06701789 -0.040993404 0.14641987 0.025899664 -0.066491835 -0.04025737
-0.00070285634 -0.13199507 0.11581483 -0.00010638018 0.03129475 0.020390103 -0.007948337 -1.0945322e-05
-0.11801712 -0.051076517 -0.056520622 -0.029694723 -0.013219847 0.06855968 -0.035934977 -0.092232704
-0.061596185 0.04913944 -0.00069057854 -0.0076441597 0.019338276 -0.022834633 0.06262648 0.052170537
00000000: 7145 813c c8bd f43b d3df a83d 797b 34bc
00000010: 5eb4 0a3d 3388 793b a961 79bc 438b b3bd
00000020: 2dfe a63d 77f6 943d 2f60 823d be14 023d
00000030: 44d8 22bb 64b2 a5bc 2256 ccbc 7eea 913c
00000040: 5aca ab3b fa19 0cbc 4abc e23c 8bb1 92bd
00000050: 63b2 983c e815 c9bd 2eec 3a3b d31f 02bc
00000060: d81c 2f3c 1cbe 113d 46f0 9dbd ece1 5abb
00000070: 0b47 f4bd 998a f6bd 7b2d 7fbc 7a7b 233e
00000080: afd2 94bd 0355 70bc ad40 893d b3e8 27bd
00000090: 17ef 153e 882b d43c df2c 88bd e9e4 24bd
000000a0: e43f 38ba b729 07be 5330 ed3d 6d18 dfb8
000000b0: ec2e 003d 2509 a73c be39 02bc cda1 37b7
000000c0: f6b2 f1bd 9c35 51bd 2b82 67bd 5942 f3bc
000000d0: 0f98 58bc 0469 8c3d 8e30 13bd 80e4 bcbd
000000e0: 484c 7cbd 7046 493d f107 35ba dc7b fabb
000000f0: 4e6b 9e3c b20f bbbc 5042 803d c6b0 553d

psp.1.1.weight f4 [1, 64, 1, 1]
-0.11015412 -0.012336338 -0.12686568 -0.041998766 -0.19700712 -0.039590824 -0.23051341 0.044049073
0.119362555 0.033850774 0.034461718 -0.17504713 0.05998151 -0.013328385 0.11139695 -0.0113858795
-0.007075889 0.19103163 -0.06970723 0.14494109 -0.09360849 -0.023972496 -0.14541952 -0.10597754
0.051299836 -0.04441863 -0.106919795 -0.035931155 0.11493593 -0.0199423 -0.07564194 0.08724192
-0.04399727 -0.09018477 -0.05524303 -0.059893016 -0.04065744 0.0798268 0.0006177318 -0.033433042
-0.034828216 0.20287234 0.007982122 0.046596065 -0.12525298 0.04843802 0.080788426 0.0034813564
0.15188804 0.14568172 0.061064668 -0.030100126 0.1465257 0.16619077 0.0890284 -0.034427427
-0.15631191 -0.004908884 -0.008139801 0.13669904 0.028894393 -0.05827376 -0.06213588 -0.0028799172
00000000: 7c98 e1bd 5a1e 4abc 14e9 01be e606 2cbd
00000010: 3cbc 49be fd29 22bd b50b 6cbe cd6c 343d
00000020: 5b74 f43d 1ca7 0a3d bb27 0d3d 8e3f 33be
00000030: 2caf 753d 4c5f 5abc 1624 e43d d78b 3abc
00000040: dcdc e7bb cc9d 433e aac2 8ebd 706b 143e
00000050: cfb5 bfbd f861 c4bc dbe8 14be c10a d9bd
00000060: c71f 523d 4ff0 35bd c4f8 dabd 8c2c 13bd
00000070: 8763 eb3d 095e a3bc 29ea 9abd e4ab b23d
00000080: 7b36 34bd cbb2 b8bd 8446 62bd 6152 75bd
00000090: 6a88 26bd 3c7c a33d 48ef 213a 16f1 08bd
000000a0: 08a8 0ebd c4bd 4f3e 72c7 023c 84db 3e3d
000000b0: 5142 00be f266 463d 6774 a53d 7827 643b
000000c0: 8a88 1b3e 972d 153e f21e 7a3d 8a94 f6bc
000000d0: d50a 163e ea2d 2a3e 8654 b63d c603 0dbd
000000e0: 3b10 20be b4da a0bb cd5c 05bc d5fa 0b3e
000000f0: efb3 ec3c 77b0 6ebd 3182 7ebd febc 3cbb

psp.2.1.weight f4 [1, 64, 1, 1]
0.15883005 -0.07936326 -0.10527941 -0.03649299 -0.04604031 -0.018152 -0.017794155 0.11551674
-0.02720341 0.1655171 -0.055655163 -0.000692863 0.090757765 -0.020400265 0.04413152 0.040755294
0.080894366 0.013867963 -0.021784667 0.10285929 -0.14494145 -0.01368825 -0.009445537 0.024096765
0.08989314 0.18142636 0.07316506 0.04428664 -0.10644821 0.07155207 0.025225826 0.092076756
-0.1126302 0.035479885 -0.115698315 -0.15280622 0.06487576 -0.013373514 -0.01848224 0.005660601
0.08300104 0.03629347 -0.12891321 -0.03220585 -0.09942903 0.0025572877 0.07662327 -0.026993982
-0.07031831 -0.21055982 0.29686892 -0.10875333 0.017929107 0.17227864 0.0097424975 -0.19980893
-0.094506286 0.03951779 -0.053961135 0.14244047 -0.03380079 -0.09657803 -0.12903793 -0.012555064
00000000: 58a4 223e 3489 a2bd bb9c d7bd ac79 15bd
00000010: c494 3cbd 81b3 94bc 0cc5 91bc 0a94 ec3d
00000020: b0d9 debc 517d 293e abf6 63bd 40a1 35ba
00000030: 35df b93d 751e a7bc 41c3 343d 06ef 263d
00000040: f2ab a53d 7436 633c c275 b2bc e4a7 d23d
00000050: 886b 14be af44 60bc 74c1 1abc 9466 c53c
00000060: e519 b83d d5c7 393e 90d7 953d e865 353d
00000070: 8501 dabd e489 923d 64a6 ce3c bd92 bc3d
00000080: aaaa e6bd 5b53 113d 3df3 ecbd 3c79 1cbe
00000090: 95dd 843d 951c 5bbc 1168 97bc 907c b93b
000000a0: 73fc a93d 76a8 143d d301 04be 48ea 03bd
000000b0: 73a1 cbbd 2b98 273b a9ec 9c3d 7c22 ddbc
000000c0: 0c03 90bd fe9c 57be 34ff 973e 11ba debd
000000d0: 10e0 923c d069 303e ff9e 1f3c b69a 4cbe
000000e0: 838c c1bd 68dd 213d 5a06 5dbd eadb 113e
000000f0: b272 0abd b4ca c5bd 8522 04be c1b3 4dbc
