seg_models/Skiing.pth (torch_old, 513861 bytes, 27 tensors)

cnn.0.mods.1.weight f4 [16, 3, 7, 7]
-0.047352992 0.014356065 -0.14220336 -0.041560955 0.072643496 0.03140302 -0.08441989 -0.1152527
0.034520924 0.019925414 -0.0082124965 -0.026467327 -0.06808005 0.007990944 0.1289753 0.024508469
-0.019988036 0.011858868 0.056423172 -0.15889867 0.008829359 -0.017077157 -0.09217351 0.004221838
0.14319228 0.0032092056 0.007567004 -0.2456841 -0.021998359 0.00041239432 0.06762916 -0.06142184
-0.12562455 0.054795407 0.014575784 -0.05199656 0.013531668 -0.03209018 -0.016171845 0.042580247
-0.0935661 0.042466834 0.13467713 0.037615903 0.0014045561 0.07710018 -0.057805195 -0.0020533109
-0.017177928 -0.02945873 0.020636328 -0.0363504 0.013513979 0.110524386 0.07121271 0.019048065
-0.0041358015 0.026796605 0.08349911 -0.019662654 0.008892059 0.006961859 0.055181 0.10091997
0.066017725 -0.049429353 -0.03906722 -0.08786398 0.12635621 -0.0024291144 -0.03254931 0.009816095
0.011651523 -0.08613824 0.05653483 0.073030494 -0.069090106 -0.0105591 -0.03251179 0.058749296
0.110740624 -0.0358108 -0.04057217 -0.06231732 -0.03029911 -0.01666184 0.07014723 0.061834875
0.017984781 0.09626993 0.03292577 -0.052838717 -0.03522348 0.005188857 0.013590557 0.07660263
0.1194517 0.057291444 -0.05005765 -0.02992808 -0.0077381097 -0.00017327437 -0.18806267 0.047527786
-0.005300702 -0.06364192 -0.105482765 0.010269085 0.035485756 -0.07268682 -0.008790841 -0.12041811
0.09999165 0.06622676 0.09526958 -0.09232491 -0.03438626 0.012980175 0.018664936 0.03349806
-0.017749682 0.047766443 -0.010653365 -0.05968434 0.10040529 0.028976746 -0.022315068 -0.025514774
-0.042683695 0.040781382 0.077470735 0.006039785 0.011449979 0.017301777 0.14875475 0.056461718
0.040951427 -0.027052663 -0.07121089 0.07412724 0.08877704 0.0032687685 0.020852119 0.10490705
-0.030794347 -0.08773605 0.020324161 -0.028083986 0.055125374 -0.010803744 0.09975958 -0.07280779
-0.015642202 0.015504929 0.07305106 0.046095245 0.00473168 0.06634585 0.07697625 0.060383476
0.0011959029 0.054057922 -0.043103185 -0.05429801 -0.039045464 0.005923701 -0.030300433 -0.16825002
-0.023837209 0.03240269 -0.0393073 0.00482592 0.037201714 -0.14197053 0.09481563 -0.018597387
-0.05696696 0.012852284 0.0036537899 -0.0075507103 0.008124625 -0.03338595 -0.024811914 0.1081012
0.068818994 -0.0340005 0.061721083 -0.16618298 -0.0035134987 0.050745413 0.030449525 -0.13565445
0.04496727 0.07175247 0.008058791 -0.121165104 0.06332671 5.3904565e-05 0.061218906 0.104418956
-0.0018159556 -0.019234112 -0.03385314 0.017354788 0.070535704 -0.029507045 0.01832627 0.008200019
0.13376082 -0.00854572 -0.052235242 -0.1132075 -0.02833653 -0.01272072 -0.05672769 0.05886521
0.07324297 -0.02702824 0.035353616 0.033028908 -0.13731745 0.0073983413 -0.019974552 0.036316585
0.10236254 0.02820169 0.09601958 -0.08609341 -0.028055264 0.08460503 0.029028112 0.016006676
0.052777648 0.043578856 0.061005533 0.026926313 0.029078165 0.16552746 0.023227481 -0.1040112
0.049443733 0.036138654 -0.033309177 -0.109814465 -0.0014781922 -0.08384231 0.06271346 0.042848974
0.09136304 -0.07455746 -0.086071685 0.04502727 0.20618476 -0.11041272 -0.023329645 0.0254241
00000000: 36f5 41bd b335 6b3c c29d 11be d23b 2abd
00000010: 1dc6 943d 74a0 003d 56e4 acbd 9c09 ecbd
00000020: d065 0d3d 9f3a a33c b58d 06bc 02d2 d8bc
00000030: 8e6d 8bbd 73ec 023c 1a12 043e fcc5 c83c
00000040: f3bd a3bc b34b 423c fc1b 673d 55b6 22be
00000050: 04a9 103c 65e5 8bbc 77c5 bcbd 5857 8a3b
00000060: ffa0 123e 8951 523b a1f4 f73b 9d94 7bbe
00000070: e735 b4bc a136 d839 2881 8a3d 7895 7bbd
00000080: b9a3 00be 2671 603d 45cf 6e3c 58fa 54bd
00000090: eeb3 5d3c fe70 03bd d17a 84bc a068 2e3d
000000a0: 959f bfbd b4f1 2d3d cde8 093e 2213 1a3d
000000b0: 1519 b83a b3e6 9d3d 24c5 6cbd d790 06bb
000000c0: bab8 8cbc 6f53 f1bc 840d a93c 28e4 14bd
000000d0: bc69 5d3c 9c5a e23d f8d7 913d b00a 9c3c
000000e0: 9e85 87bb 8e84 db3c 9501 ab3d 9313 a1bc
000000f0: 00b0 113c 4e20 e43b 7905 623d 21af ce3d
00000100: 4d34 873d 6f76 4abd f304 20bd 08f2 b3bd
00000110: 8663 013e c731 1fbb 6d52 05bd b0d3 203c
00000120: 08e6 3e3c 3f69 b0bd 1191 673d 0391 953d
00000130: 1d7f 8dbd 1300 2dbc 152b 05bd 1aa3 703d
00000140: fbcb e23d 58ae 12bd 012f 26bd 7240 7fbd
00000150: d735 f8bc 697e 88bc 5aa9 8f3d 9146 7d3d
00000160: d254 933c 2b29 c53d 2cdd 063d 696d 58bd
00000170: 7f46 10bd 4a07 aa3b edaa 5e3c d7e1 9c3d
00000180: 18a3 f43d 6faa 6a3d 4009 4dbd bc2b f5bc
00000190: f88f fdbb fcb0 35b9 8093 40be 7fac 423d
000001a0: 83b1 adbb b256 82bd 5907 d8bd aa3f 283c
000001b0: 8359 113d d4dc 94bd 7607 10bc c59d f6bd
000001c0: 6cc8 cc3d e5a1 873d b31c c33d d814 bdbd
000001d0: 9bd8 0cbd cdaa 543c 35e7 983c 4335 093d
000001e0: c867 91bc bfa6 433d 748b 2ebc 9177 74bd
000001f0: 4aa1 cd3d a460 ed3c 17ce b6bc 5c04 d1bc
00000200: 19d5 2ebd 610a 273d faa8 9e3d 64e9 c53b
00000210: b198 3b3c 75bc 8d3c 2a53 183e 6744 673d
00000220: afbc 273d 8c9d ddbc 04d7 91bd 06d0 973d
00000230: bdd0 b53d d638 563b 10d2 aa3c 82d9 d63d
00000240: 6d44 fcbc f5ae b3bd db7e a63c 6310 e6bc
00000250: 25cb 613d 3002 31bc c04e cc3d 401c 95bd
00000260: 1324 80bc 6308 7e3c cb9b 953d 5ece 3c3d
00000270: 350c 9b3b 55e0 873d b9a5 9d3d aa54 773d
00000280: d8bf 9c3a d76b 5d3d f78c 30bd 9767 5ebd
00000290: 23ee 1fbd 9b1b c23b 9d38 f8bc bc49 2cbe
000002a0: 4046 c3bc afb8 043d b100 21bd c022 9e3b
000002b0: d360 183d b960 11be b22e c23d 8c59 98bc
000002c0: 3056 69bd 6392 523c 6c74 6f3b f36b f7bb
000002d0: 261d 053c b5bf 08bd 5b42 cbbc 2964 dd3d
000002e0: f9f0 8c3d 1c44 0bbd 3fcf 7c3d df2b 2abe
000002f0: ba42 66bb 6cda 4f3d 4871 f93c 00e9 0abe
00000300: 9a2f 383d f6f2 923d 0509 043c 6925 f8bd
00000310: 6fb1 813d 9617 6238 adc0 7a3d 9bd9 d53d
00000320: 5c05 eeba db90 9dbc 97a9 0abd a12b 8e3c
00000330: 0675 903d c2b8 f1bc f920 963c 5f59 063c
00000340: 99f8 083e 5903 0cbc 9ff4 55bd 55d9 e7bd
00000350: 0322 e8bc 916a 50bc 4b5b 68bd a51c 713d
00000360: 6900 963d 546a ddbc f4ce 103d 5249 073d
00000370: f29c 0cbe c96d f23b aca1 a3bc b3c0 143d
00000380: 74a3 d13d 3b07 e73c eaa5 c43d be51 b0bd
00000390: 27d4 e5bc 6745 ad3d 5dcc ed3c 6f20 833c
000003a0: 602d 583d be7f 323d f0e0 793d 9294 dc3c
000003b0: 5535 ee3c 0880 293e 8f47 be3c d303 d5bd
000003c0: 8385 4a3d 2006 143d 346f 08bd 68e6 e0bd
000003d0: e6bf c1ba 84b5 abbd ea6f 803d 6882 2f3d
000003e0: 8c1c bb3d 95b1 98bd 5a46 b0bd 846e 383d
000003f0: 1922 533e 1020 e2bd d01d bfbc 3446 d03c

cnn.0.mods.2.weight f4 [16]
0.4026673 0.099919304 0.8619959 0.09441849 0.01292173 0.86450714 0.55794597 0.01705895
0.09472443 0.34897542 0.49507445 0.3540819 0.97912914 0.4893662 0.37689877 0.47945383
00000000: 692a ce3e 7ea2 cc3d c3ab 5c3f 7b5e c13d
00000010: aab5 533c 5750 5d3f 8cd5 0e3f 36bf 8b3c
00000020: e2fe c13d e8ac b23e 667a fd3e 394a b53e
00000030: 35a8 7a3f 358e fa3e e0f8 c03e f97a f53e

cnn.0.mods.2.bias f4 [16]
0.0014231158 -0.00081492297 0.0016925316 -0.0014651971 -0.0026060427 0.0015177471 -0.00087861763 -0.0031667475
-0.0015364274 -0.00018683691 -0.0011079732 -0.00017337546 -0.0012383137 -0.00054525037 -0.0010517115 0.0015644155
00000000: d887 ba3a 8ea0 55ba f0d7 dd3a db0b c0ba
00000010: 24ca 2abb 24ef c63a 0853 66ba 3589 4fbb
00000020: f361 c9ba a7e9 43b9 6939 91ba 1fcc 35b9
00000030: ea4e a2ba 22ef 0eba 95d9 89ba 130d cd3a

cnn.0.mods.4.weight f4 [32, 16, 3, 3]
-0.03331173 -0.026690703 -0.0020749457 0.028207267 0.013880492 -0.009353218 -0.042851172 0.057248276
0.13492592 0.14741655 0.039557442 -0.072220825 9.432898e-05 -0.06621726 0.12264255 0.051697683
0.085447714 -0.028255757 -0.0866366 0.026325338 0.026381312 -0.10747999 -0.045264345 0.022972343
0.040206663 0.025714952 -0.04162872 0.06881856 -0.026381094 -0.07649396 0.0029006952 -0.012044286
0.1431443 -0.0592079 -0.09638267 -0.0017901569 0.049453974 -0.025867898 -0.0039054414 0.024957236
0.0049976553 0.04293588 -0.09150589 0.028004723 -0.00556356 0.08206107 -0.017664246 -0.082079634
-0.1279832 -0.068775594 -0.096843384 -0.0016195349 -0.05673401 -0.0080403555 -0.0839918 -0.080626145
-0.14422661 -0.0021697886 -0.00950887 0.015999364 -0.024008198 -0.08623458 0.034615844 -0.0044820453
0.09300547 0.072363324 0.045755833 -0.045296017 -0.014791547 -0.020413281 -0.033341922 -0.012390269
-0.14958876 -0.03435426 -0.12065569 0.018651059 -0.08421406 0.03787301 0.060506705 -0.010584874
-0.018234747 -0.02766934 0.0068409387 -0.0047407504 0.01929547 0.055523828 0.1612922 -0.09155743
-0.05256158 -0.042768188 0.0023973852 0.08792873 -0.13080348 0.0014502489 -0.0047603482 -0.079579726
-0.16036414 0.11874483 -0.044441815 0.0067530614 -0.025185924 0.050733455 0.028760318 -0.10743984
0.050993524 0.013815279 -0.042227328 0.034423564 -0.0028137178 0.01594165 -0.033554245 0.0535147
0.039680198 -0.06808453 0.06619374 -0.087512344 0.025915058 -0.0044505787 -0.0671944 0.021134267
-0.019273952 0.00276069 0.04551084 0.06814406 0.021230485 0.016640525 0.06527213 0.025977166
0.13336632 -0.018883806 -0.056905996 0.0033261906 -0.02179525 0.15699126 -0.12559405 0.027257357
0.12722377 -0.015423188 -0.016114945 0.007429564 -0.032303814 -0.018499034 0.047418892 -0.06073592
0.044897027 0.037156362 -0.06886908 -0.12652384 0.04636734 0.027562363 0.045617007 0.031985752
0.11505519 -0.00054948154 -0.025440762 -0.064135976 -0.033302177 0.2050217 -0.06948914 -0.024151808
-0.071266875 0.008994915 -0.006233241 0.019477328 0.03597684 -0.024301441 0.084006175 0.06322023
-0.08903396 0.056560535 0.06256847 -0.01584728 0.112794206 0.010298828 0.07567158 0.13387533
-0.025647592 0.036915053 -0.02150365 0.07494926 0.00974738 -0.03448613 0.016450413 0.06445097
-0.028386049 0.005312559 0.009886887 -0.06876989 -0.03497259 0.11648285 0.035708748 -0.05517382
0.0076664616 0.038759895 0.13301171 -0.008262745 0.024354095 0.090057254 -0.0675593 -0.06491926
0.021327872 -0.056766436 0.06871032 0.08137842 0.039562296 -0.053105917 -0.04455692 0.03635038
-0.012827705 -0.057746727 -0.06324852 -0.05623063 -0.082073875 -0.06783047 0.0051041422 0.039880067
-0.018885074 -0.003077452 -0.10620511 -0.103361405 -0.10854879 0.060924746 -0.056748766 0.0052606575
-0.012217383 -0.023573892 0.03283959 0.0065240744 0.026097827 6.4840075e-05 0.066999234 0.08129215
-0.0044378005 0.12036303 0.024844175 -0.020393733 -0.025155906 -0.062297832 0.059732106 -0.034265433
0.08161401 -0.022240695 0.031467848 -0.009476895 0.058676288 -0.07133298 0.0045826444 -0.027640386
0.103761 -0.0009893466 -0.095512986 -0.044219144 0.04558926 0.038687743 -0.011582196 0.04455816
00000000: e171 08bd 76a6 dabc d0fb 07bb ed12 e73c
00000010: 016b 633c 3d3e 19bc b684 2fbd 2b7d 6a3d
00000020: 052a 0a3e 5df4 163e fc06 223d 83e8 93bd
00000030: 7cd2 c538 ea9c 87bd 042c fb3d f3c0 533d
00000040: 36ff ae3d 9e78 e7bc 886e b1bd 3ca8 d73c
00000050: 9f1d d83c 781e dcbd 1b67 39bd 7f30 bc3c
00000060: beaf 243d 2aa8 d23c e082 2abd bff0 8c3d
00000070: 2a1d d8bc dea8 9cbd 9719 3e3b 6655 45bc
00000080: 6b94 123e fc83 72bd 4764 c5bd b3a3 eaba
00000090: 4090 4a3d eae8 d3bc 6ff2 7fbb 1e73 cc3c
000000a0: 5fc3 a33b 89dd 2f3d 7167 bbbd 296a e53c
000000b0: 864e b6bb a20f a83d 9cb4 90bc 5e19 a8bd
000000c0: 070e 03be 38da 8cbd d355 c6bd 9346 d4ba
000000d0: ec61 68bd b2bb 03bc e503 acbd 521f a5bd
000000e0: 24b0 13be 0333 0ebb 17cb 1bbc 1911 833c
000000f0: d7ac c4bc c19b b0bd 58c9 0d3d 1fde 92bb
00000100: a779 be3d 3933 943d 786a 3b3d 5188 39bd
00000110: 3f58 72bc c139 a7bc 8a91 08bd 8e00 4bbc
00000120: cc2d 19be 0db7 0cbd 551a f7bd 1bca 983c
00000130: 6c78 acbd bb20 1b3d e1d5 773d 2e6c 2dbc
00000140: 0961 95bc d0aa e2bc f429 e03b 4c58 9bbb
00000150: 8911 9e3c f46c 633d c829 253e 7682 bbbd
00000160: d04a 57bd b22d 2fbd 731d 1d3b fa13 b43d
00000170: 59f1 05be 4716 be3a b2fc 9bbb b2fa a2bd
00000180: 7f36 24be 7d30 f33d 9f08 36bd c948 dd3b
00000190: b652 cebc e2cd 4f3d c29a eb3c 6b09 dcbd
000001a0: 96de 503d 7b59 623c 90f6 2cbd b9ff 0c3d
000001b0: 5a66 38bb 1098 823c 2d70 09bd 3b32 5b3d
000001c0: b487 223d e76f 8bbd 9590 873d ac39 b3bd
000001d0: d14b d43c 29d6 91bb 389d 89bd c521 ad3c
000001e0: 68e4 9dbc b1ec 343b 9369 3a3d 1d8f 8b3d
000001f0: 8eeb ad3c b651 883c 65ad 853d 11ce d43c
00000200: 2e91 083e 36b2 9abc 4316 69bd 38fc 593b
00000210: f48b b2bc 51c2 203e ba9b 00be d24a df3c
00000220: f346 023e 8ab1 7cbc 7d03 84bc b373 f33b
00000230: 0151 04bd 498b 97bc 503a 423d 3ac6 78bd
00000240: f2e5 373d 4531 183d 3b0b 8dbd 778f 01be
00000250: aeeb 3d3d 77ca e13c e6d8 3a3d 7e03 033d
00000260: 0ea2 eb3d 150b 10ba 2569 d0bc b959 83bd
00000270: dd67 08bd 35f1 513e 5250 8ebd 03da c5bc
00000280: 5ef4 91bd 685f 133c 3740 ccbb eb8e 9f3c
00000290: 735c 133d d113 c7bc 6e0b ac3d 9c79 813d
000002a0: 7057 b6bd 05ac 673d e623 803d 28d2 81bc
000002b0: a600 e73d 6abc 283c b4f9 9a3d 9d16 093e
000002c0: e61a d2bc 3d34 173d 6c28 b0bc ff7e 993d
000002d0: 7ab3 1f3c 5441 0dbd 04c3 863c dffe 833d
000002e0: dc89 e8bc fa14 ae3b 9cfc 213c 3ad7 8cbd
000002f0: 6b3f 0fbd 8f8e ee3d 5643 123d f2fd 61bd
00000300: f136 fb3b b2c2 1e3d 3934 083e 7760 07bc
00000310: 3d82 c73c f06f b83d 885c 8abd 64f4 84bd
00000320: cab7 ae3c ec83 68bd ffb7 8c3d bba9 a63d
00000330: 130c 223d 9785 59bd 5181 36bd 23e4 143d
00000340: 4b2b 52bc d587 6cbd 7188 81bd 1752 66bd
00000350: 5916 a8bd b4ea 8abd a640 a73b 4859 233d
00000360: dfb4 9abc 14af 49bb 1182 d9bd 25af d3bd
00000370: d44e debd 3a8c 793d 6571 68bd 9861 ac3b
00000380: 6b2b 48bc 091e c1bc ce82 063d e7c7 d53b
00000390: 1ccb d53c c0fa 8738 e536 893d 807c a63d
000003a0: f86a 91bb e480 f63d 0386 cb3c c210 a7bc
000003b0: c213 cebc 032c 7fbd a7a9 743d e959 0cbd
000003c0: 3f25 a73d 1e32 b6bc 6ee4 003d fb44 1bbc
000003d0: 8c56 703d 0717 92bd 022a 963b 176e e2bc
000003e0: a680 d43d f7ac 81ba 509c c3bd 221f 35bd
000003f0: cebb 3a3d 0a77 1e3d 40c3 3dbc 9e82 363d

cnn.0.mods.5.weight f4 [32]
0.80119807 0.47044292 0.8227253 0.10689795 0.5557054 0.4024532 0.5834066 0.48118767
0.14328702 0.63479745 0.79551846 0.30414754 0.33892575 0.93425 0.73166686 0.16162886
0.07965287 0.8340418 0.3311086 0.6844075 0.20846094 0.61569804 0.64443636 0.9184028
0.350134 0.6628538 0.80372345 0.055778537 0.43096706 0.30466753 0.9589665 0.09268557
00000000: 511b 4d3f e5dd f03e 209e 523f 50ed da3d
00000010: b642 0e3f 590e ce3e 235a 153f 3b5e f63e
00000020: d5b9 123e 1682 223f 19a7 4b3f 3ab9 9b3e
00000030: ad87 ad3e 022b 6f3f 854e 3b3f 0982 253e
00000040: 0b21 a33d c383 553f 1187 a93e 5435 2f3f
00000050: c976 553e 639e 1d3f c8f9 243f 721c 6b3f
00000060: c344 b33e c9b0 293f d2c0 4d3f 0978 643d
00000070: b7a7 dc3e 62fd 9b3e d47e 753f efd1 bd3d

cnn.0.mods.5.bias f4 [32]
0.00017657167 0.0011515318 -0.0007216434 -0.00047001027 0.0001477132 -0.0003903067 -0.00045506767 -0.0019259386
0.0033918782 -2.5124815e-05 0.00025979595 0.0025016991 -0.0034927442 0.0013713688 0.0017362727 -0.002709458
0.0008980218 -0.0054087956 0.0019248705 0.00031944152 -0.002128915 -0.00024102465 0.0037331122 -0.00039545534
-4.217102e-06 -0.004267776 0.0012627436 0.001819385 0.0023544843 0.0032594856 0.0018104617 -0.0015137524
00000000: 1926 3939 ffee 963a ab2c 3dba b66b f6b9
00000010: 76e3 1a39 14a2 ccb9 2696 eeb9 c76f fcba
00000020: 464a 5e3b 21c3 d2b7 3935 8839 8cf3 233b
00000030: 86e6 64bb 80bf b33a a593 e33a 2991 31bb
00000040: 3969 6b3a 443c b1bb f04b fc3a b77a a739
00000050: 4485 0bbb 90bb 7cb9 3ba7 743b 1e55 cfb9
00000060: a180 8db6 b3d8 8bbb a582 a53a 6e78 ee3a
00000070: b14d 1a3b 189d 553b 044d ed3a 1a69 c6ba

cnn.0.mods.7.weight f4 [64, 32, 3, 3]
-0.041192602 -0.049223747 0.014834739 -0.0050583743 -0.004149191 0.03888588 -0.007378327 -0.069907494
0.104181 0.02821847 -0.012904236 -0.0035616206 0.04040312 -0.034489557 0.016253592 -0.0667814
0.033351436 0.07293423 -0.0047688354 -0.0072722756 0.064409524 -0.011317506 -0.0007735073 0.005935014
0.014703006 -0.052852347 0.054824393 -0.095204644 -0.014718433 0.03212356 -0.012108846 -0.024978993
0.10508602 -0.01746627 0.004848093 0.020779524 0.036509685 -0.031026883 -0.08524737 0.014504563
0.01913113 -0.0308814 0.020964116 0.01769955 0.07662176 0.0048625628 0.004414389 0.048817594
-0.049855467 0.04736652 -0.050936 0.029293954 -0.03505225 0.066561244 -0.01141054 0.05776512
0.0777753 0.031087419 -0.06405802 0.060949408 0.05552376 0.052352056 -0.07325577 -0.016931858
-0.013797379 0.013247093 -0.016718559 0.05366248 -0.0077154096 0.055063225 -0.015960602 -0.015670938
0.036029436 -0.032495804 0.044469476 -0.00323802 -0.022743687 0.0050073713 -0.01215672 -0.07634481
-0.046199907 -0.016241947 -0.05849888 0.027297294 0.05063456 -0.027301554 0.022470433 0.06817122
0.036619816 -0.0024886823 -0.04364564 0.023578525 0.05432023 0.03780453 0.04586155 -0.028410029
-0.025877073 0.014937524 -0.074536815 0.034364287 0.017069213 0.058352277 -0.0048648915 0.018231561
0.04196117 -0.0080560455 -0.029680269 0.059464347 0.0065460093 0.08918254 0.014129732 -0.038542517
0.03292679 -0.013172467 -0.077953525 -0.0053225793 0.022821022 0.0038025975 -0.03266134 -0.050867617
-0.007825194 -0.004372068 -0.009299377 -0.05126806 0.06804285 0.06310501 0.04848616 0.072869755
0.04759208 -0.001980504 -0.018456828 -0.026338618 0.054098375 0.04174734 0.007415171 -0.06224193
-0.011724138 -0.008848035 -0.006693972 -0.048881076 -0.101237625 0.008487758 0.035227295 0.009068285
-0.0028713082 0.05328303 -0.0067350054 0.011405501 -0.011946693 0.04033284 0.058491293 0.02785057
-0.034487057 0.050166793 -0.052701887 0.02873469 0.031532254 0.083789356 -0.0047932384 0.04848087
0.0110079255 0.07872309 -0.012730035 -0.06289086 -0.021985127 -0.0073572616 -0.040070914 -0.0062080002
0.03882152 0.00038161426 0.035217598 0.054664444 0.028324002 0.048549633 0.059381455 0.011686023
0.034500215 -0.009804872 -0.018589035 0.047472052 0.040752307 0.022017697 -0.0040141144 -0.0055524227
0.018719992 -0.07252727 0.023409499 0.066171244 -0.07273324 0.070458576 0.043952364 0.04436144
0.044930696 0.055416055 -0.05235672 0.06327154 0.041408297 -0.033588845 0.068612196 0.048660725
-0.022147015 -0.023039082 0.055810846 -0.015594327 -0.084457695 -0.12613046 0.029194439 0.0029733342
-0.069017954 0.042572353 0.042827096 0.058177173 0.052510865 -0.11067249 -0.011304448 0.011394437
0.01550953 0.021429354 -0.012340239 0.021300182 -0.04483783 -0.022712942 0.079363964 0.071014225
-0.021882793 -0.015312163 -0.02445961 0.028744275 -0.026540874 -0.0106208725 0.026229454 0.0362236
0.02594212 -0.02035334 -0.048215453 0.13193771 0.02118304 -0.03302969 0.08267796 -0.11768005
-0.05229813 -0.014593059 0.02046443 0.022799587 -0.05944973 0.012335769 -0.05753863 -0.064060174
-0.034613803 0.015102914 -0.005680334 -0.064793505 -0.018010456 0.00930777 0.07641871 0.06223086
00000000: 93b9 28bd d79e 49bd 680d 733c b8c0 a5bb
00000010: f0f5 87bb cd46 1f3d e5c5 f1bb a92b 8fbd
00000020: d95c d53d 6c2a e73c 4a6c 53bc 146a 69bb
00000030: be7d 253d ec44 0dbd 4126 853c b0c4 88bd
00000040: 849b 083d 8b5e 953d e443 9cbb 454c eebb
00000050: 24e9 833d 106d 39bc 32c5 4aba 827a c23b
00000060: e0e4 703c b47b 58bd 8b8f 603d a7fa c2bd
00000070: 9525 71bc fe93 033d 2e64 46bc bfa0 ccbc
00000080: 5737 d73d 6c15 8fbc c0dc 9e3b d239 aa3c
00000090: 2e8b 153d 172c febc 2c96 aebd 8ca4 6d3c
000000a0: e3b8 9c3c fdfa fcbc f0bc ab3c a6fe 903c
000000b0: dfeb 9c3d 2256 9f3b 94a6 903b f5f4 473d
000000c0: 3f35 4cbd 6503 423d 44a2 50bd e0f9 ef3c
000000d0: f392 0fbd 4351 883d 46f3 3abc 1e9b 6c3d
000000e0: a848 9f3d 0bab fe3c da30 83bd 16a6 793d
000000f0: e26c 633d 1c6f 563d 1f07 96bd aeb4 8abc
00000100: 670e 62bc 560a 593c 5cf5 88bc 30cd 5b3d
00000110: 8cd1 fcbb fa89 613d cfbf 82bc 5760 80bc
00000120: 9a93 133d 521a 05bd a025 363d f634 54bb
00000130: f850 babc e014 a43b fb2c 47bc ab5a 9cbd
00000140: 1d3c 3dbd d50d 85bc 869c 6fbd 939e df3c
00000150: 2f66 4f3d 82a7 dfbc ea13 b83c 5a9d 8b3d
00000160: a9fe 153d 2919 23bb c5c5 32bd c027 c13c
00000170: e47e 5e3d ecd8 1a3d 52d9 3b3d 26bc e8bc
00000180: 28fc d3bc 84bc 743c c2a6 98bd 91c1 0c3d
00000190: bcd4 8b3c cc02 6f3d ab69 9fbb 5b5a 953c
000001a0: 7adf 2b3d 81fd 03bc 0924 f3bc e390 733d
000001b0: e87f d63b 56a5 b63d 6480 673c c2de 1dbd
000001c0: 3ede 063d 55d1 57bc 19a6 9fbd 0869 aebb
000001d0: 27f3 ba3c 0035 793b e6c7 05bd 905a 50bd
000001e0: 3e35 00bc 9143 8fbb 6a5c 18bc 75fe 51bd
000001f0: 0d5a 8b3d 333d 813d 6c99 463d bd3c 953d
00000200: eaef 423d 58cb 01bb c632 97bc 16c4 d7bc
00000210: 4296 5d3d 42ff 2a3d f6fa f23b 65f1 7ebd
00000220: 9916 40bc 59f7 10bc 1b59 dbbb 8637 48bd
00000230: ac55 cfbd 3d10 0b3c 7f4a 103d 2593 143c
00000240: 8f2c 3cbb 4e3f 5a3d 52b1 dcbb 23de 3a3c
00000250: 10bc 43bc 0c34 253d 9194 6f3d e126 e43c
00000260: 4d42 0dbd b27b 4d3d efdd 57bd 0365 eb3c
00000270: f727 013d c199 ab3d 9910 9dbb e093 463d
00000280: 965a 343c 9239 a13d a391 50bc eccc 80bd
00000290: 271a b4bc 2f15 f1bb 6621 24bd 7b6c cbbb
000002a0: 5003 1f3d 6613 c839 5440 103d d3e7 5f3d
000002b0: bd07 e83c fbdb 463d f839 733d bc76 3f3c
000002c0: 1950 0d3d 9da4 20bc 0848 98bc 0e72 423d
000002d0: e4eb 263d 755e b43c d588 83bb 19f1 b5bb
000002e0: ab5a 993c 2d89 94bd 47c5 bf3c ca84 873d
000002f0: 2af5 94bd 964c 903d 6507 343d 57b4 353d
00000300: 4009 383d f2fb 623d 0074 56bd 8294 813d
00000310: bf9b 293d 7594 09bd 8d84 8c3d 7850 473d
00000320: a86d b5bc 75bc bcbc ea99 643d 597f 7fbc
00000330: 28f8 acbd 5828 01be 2d29 ef3c 45dc 423b
00000340: 4959 8dbd 5960 2e3d 776b 2f3d 304b 6e3d
00000350: a215 573d 42a8 e2bd 4b36 39bc bcaf 3a3c
00000360: af1b 7e3c 9d8c af3c b72e 4abc b87d ae3c
00000370: dfa7 37bd 7e10 babc 9389 a23d e86f 913d
00000380: 8b43 b3bc dedf 7abc 855f c8bc 1d79 eb3c
00000390: 3f6c d9bc 2b03 2ebc 27df d63c 335f 143d
000003a0: 9284 d43c 0cbc a6bc 917d 45bd ae1a 073e
000003b0: 0e88 ad3c 244a 07bd 1053 a93d 3d02 f1bd
000003c0: 9036 56bd ba17 6fbc 05a5 a73c 33c6 ba3c
000003d0: 8f81 73bd f71b 4a3c a0ad 6bbd fb31 83bd
000003e0: 34c7 0dbd 3672 773c 1822 babb 75b2 84bd
000003f0: aa8a 93bc 9e7f 183c 6a81 9c3d c9e5 7e3d

cnn.0.mods.8.weight f4 [64]
0.54353046 0.8931998 0.10165052 0.4936898 0.2781605 0.96580464 0.7216756 0.8926975
0.1675258 0.6720068 0.86348176 0.32412392 0.3452135 0.61465085 0.8433406 0.46237573
0.4949589 0.305718 0.522031 0.26906964 0.31100976 0.65572196 0.71197325 0.14881666
0.3891283 0.049019195 0.68497646 0.7162476 0.04754522 0.1291688 0.081078544 0.03411272
0.82008713 0.11372101 0.15676552 0.7452981 0.39539412 0.65685123 0.21631244 0.7825009
0.8876125 0.17546725 0.65453494 0.436659 0.2889806 0.51142144 0.9635817 0.32002074
0.717194 0.98087364 0.5792518 0.96496063 0.63111085 0.9031913 0.25306973 0.6302385
0.32724822 0.47479093 0.55437094 0.91836363 0.2646895 0.59022903 0.8325581 0.10921203
00000000: d024 0b3f bea8 643f 262e d03d e9c4 fc3e
00000010: 0e6b 8e3e f93e 773f bbbf 383f d387 643f
00000020: e28b 2b3e a308 2c3f 240d 5d3f 92f3 a53e
00000030: d3bf b03e c259 1d3f 2be5 573f 83bc ec3e
00000040: 416b fd3e 1287 9c3e d3a3 053f 7fc3 893e
00000050: ac3c 9f3e 65dd 273f e143 363f 6563 183e
00000060: d33b c73e 5ac8 483d 9e5a 2f3f 015c 373f
00000070: c7be 423d d344 043e 820c a63d c8b9 0b3d
00000080: 3bf1 513f 90e6 e83d 2487 203e dbcb 3e3f
00000090: 1971 ca3e 6727 283f 0281 5d3e fb51 483f
000000a0: 933a 633f b0ad 333e 9a8f 273f c591 df3e
000000b0: 44f5 933e 84ec 023f 4aad 763f c2d9 a33e
000000c0: 079a 373f 891a 7b3f d949 143f a907 773f
000000d0: 7b90 213f 8c37 673f 5b92 813e 4f57 213f
000000e0: 148d a73e cc17 f33e 41eb 0d3f e119 6b3f
000000f0: 6285 873e 4019 173f 8722 553f 8faa df3d

cnn.0.mods.8.bias f4 [64]
-0.0019815527 -0.002589337 0.0030882542 -0.0014730085 0.0012571521 0.0027983151 -9.0899375e-05 0.004083337
-0.0006279761 0.0024236245 -0.00062499754 0.0023656585 -0.0044466616 -0.0006334682 0.00018603686 -0.001005416
-0.0014047079 -0.0001733475 -0.0019211285 0.000100617646 0.0017514154 -0.0002160681 0.0018009844 0.00037874686
-0.00015698335 -0.0030581055 0.0005469473 -0.0006698928 0.0011001896 -0.00016880987 0.0009559645 -0.00025177578
-0.0014944724 0.0018712007 0.00044371985 -0.0037474125 0.0022090892 -0.0016653958 -0.0032702906 -0.0012064565
-0.002813164 -0.00096618343 -0.00016599317 0.0026668126 -0.0024275118 0.00018071494 -0.0013331912 -0.000565576
0.00014518348 -0.002949099 -0.00012914669 -2.3656157e-05 -0.0031536762 -0.0005550183 0.0015248844 0.0009776253
0.0015012182 -0.0018106737 -0.00090732705 0.0014775 0.0033723426 -0.00038254855 -0.0017247504 -0.0015347522
00000000: f0dc 01bb deb1 29bb 4f64 4a3b f711 c1ba
00000010: 06c7 a43a f063 373b 3ba1 beb8 83cd 853b
00000020: c39e 24ba acd5 1e3b e0d6 23ba 2a09 1b3b
00000030: 4db5 91bb 550f 26ba e412 4339 2ac8 83ba
00000040: 2d1e b8ba 9dc4 35b9 60ce fbba b002 d338
00000050: c08f e53a 5790 62b9 020f ec3a 8b92 c639
00000060: e69b 24b9 7f6a 48bb 0361 0f3a bf9b 2fba
00000070: 3d34 903a 8e02 31b9 b199 7a3a c600 84b9
00000080: 2ce2 c3ba 1443 f53a 12a3 e839 2697 75bb
00000090: 5ec6 103b 6949 daba 5f52 56bb f621 9eba
000000a0: 0f5d 38bb 7947 7dba 740e 2eb9 b1c5 2e3b
000000b0: e416 1fbb 4c7e 3d39 79be aeba 2a43 14ba
000000c0: 653c 1839 ac45 41bb 8d6b 07b9 3671 c6b7
000000d0: e8ad 4ebb a67e 11ba a1de c73a a923 803a
000000e0: 86c4 c43a 2154 edba b0d9 6dba aca8 c13a
000000f0: 8502 5d3b cc90 c8b9 0511 e2ba bd29 c9ba

cnn.1.blocs.0.weight f4 [64, 64, 3, 3]
-0.077192 -0.031097176 -0.029299784 -0.048395015 0.027852148 -0.016268501 0.016680056 0.055056896
0.015219956 -0.007000027 0.013081808 -0.018008322 0.023576168 -0.008827856 -0.04390828 -0.02378282
-0.021142088 0.013735489 0.017184533 -0.0025059555 0.005501427 0.0613746 0.021216406 0.017717917
0.04941026 -0.010231924 -0.011590938 0.010861886 -0.046319623 -0.010225042 0.022731211 -0.04576204
-0.032975204 0.0004279431 0.08094011 0.035197124 -0.027155755 0.01997846 -0.023681361 0.009726445
-0.0033816423 -0.025312336 -0.037843876 -0.0015475246 -0.014288011 -0.07161251 -0.020617656 -0.023375906
-0.017618544 0.021690032 -0.017686108 -0.011472274 -0.020389263 0.0077660275 9.4739284e-05 -0.028280161
0.013824238 0.055658255 0.0154979415 -0.004420271 -0.022849055 -0.020562235 -0.028862778 -0.010509711
-0.04784447 0.03744046 0.03203402 0.00056729914 -0.01668757 0.008876488 -0.102101065 -0.019414619
-0.031252332 0.01011009 0.0065436093 0.040698424 -0.004942755 -0.06517548 -0.00447119 0.011459699
-0.03398382 0.0040548984 0.0060306704 -0.006156546 -0.03048319 0.00053945446 0.022365782 -0.006848513
0.04143411 0.026598414 0.02030565 -0.01744805 -0.010885692 -0.0024963086 0.041198008 -0.029437657
0.039448235 0.057067327 0.0043659774 0.036933724 -0.029682692 0.0115232505 0.01903713 -0.034600154
0.0269119 0.0216797 -0.019510433 -0.03808041 -0.02871478 0.021410584 -0.03771576 -0.009896759
0.008735715 -0.0153269535 0.013662781 0.008602361 -0.026019184 0.0049341326 -0.0045030136 -0.019428547
0.0034759087 -0.011881579 0.010384083 0.022349736 -0.019545544 0.02079227 -0.046205956 0.008277737
-0.024788423 0.00816462 0.060074326 -0.036583215 0.010798862 -0.012267577 -0.016125131 0.048780218
0.001882297 0.0016082616 0.00033836212 -0.022082292 -0.0042406125 -0.012258062 -0.03543297 -0.05891856
0.044448968 -0.04206119 0.050867017 -0.018583037 0.07059686 0.028024372 -0.032952644 0.00800795
-0.08430449 0.0073693604 -0.009097409 -0.0011335918 -0.045141514 -0.0054515842 0.02157856 0.019488893
0.0035318043 -0.005382117 -0.02265869 0.003831458 0.030027743 -0.021914098 -0.014168264 -0.018200245
0.03417255 -0.066248596 -0.04300011 -0.02369536 -0.02490263 -0.017364342 -0.003111337 -0.019283624
0.0046633617 0.025844261 0.051687203 -0.012429385 0.010680781 0.0505179 -0.0087393625 0.049966685
-0.0076802457 0.07027877 0.044684827 0.02674913 -0.028240895 -0.06147911 0.059877574 -0.024283372
-0.09657154 -0.018097997 -0.004020446 -0.02432299 0.00980638 0.00069746835 -0.040372785 0.029255632
-0.008914933 -0.043538082 0.044126477 0.029691454 0.047108334 0.056230597 0.027229315 -0.04288387
0.016963335 0.0064163418 0.021436414 0.0125481095 -0.018589027 -0.005827456 0.026364053 0.0065060277
0.018707337 0.011422713 0.03837644 -0.05098847 -0.019427404 0.008204509 0.025740895 -0.059967753
0.012620489 -0.008669268 -0.032226168 0.009328414 0.019449415 -0.00063401455 -0.008961882 -0.009780384
0.027994413 0.0062639145 -0.01894577 -0.012880162 0.030674908 0.085670896 0.012772375 0.045655277
0.027883062 0.030208498 -0.03743683 -0.010015317 0.010502471 0.0025143498 0.022706814 0.009465428
0.023236454 0.064703144 -0.044888843 0.032835614 0.03182062 0.047875553 0.018024726 -0.02528167
00000000: d716 9ebd 81bf febc 1a06 f0bc da39 46bd
00000010: 302a e43c 8545 85bc 9da4 883c 5783 613d
00000020: 1f5d 793c 7c60 e5bb 1455 563c 3086 93bc
00000030: cf22 c13c b6a2 10bc 2bd9 33bd 30d4 c2bc
00000040: 2c32 adbc d10a 613c 94c6 8c3c f53a 24bb
00000050: 5145 b43b ef63 7b3d 07ce ad3c 2a25 913c
00000060: 6a62 4a3d cda3 27bc ebe7 3dbc 0df6 313c
00000070: a5b9 3dbd ef86 27bc ce36 ba3c fa70 3bbd
00000080: 0211 07bd 8d5d e039 eec3 a53d dc2a 103d
00000090: bf75 debc dea9 a33c 6aff c1bc ab5b 1f3c
000000a0: 8b9e 5dbb d15b cfbc 2e02 1bbd 4fd6 caba
000000b0: 4318 6abc 94a9 92bd 5ce6 a8bc d47e bfbc
000000c0: c454 90bc 4baf b13c 75e2 90bc 34f6 3bbc
000000d0: 6207 a7bc 297a fe3b c4ae c638 ccab e7bc
000000e0: 0f7f 623c e9f9 633d 14eb 7d3c ecd7 90bb
000000f0: f12d bbbc 2272 a8bc a271 ecbc ec30 2cbc
00000100: 90f8 43bd 2b5b 193d 1b36 033d cdb6 143a
00000110: 5fb4 88bc b06e 113c 5d1a d1bd 680b 9fbc
00000120: 7202 00bd caa4 253c c66b d63b 64b3 263d
00000130: d6f6 a1bb b97a 85bd 0f83 92bb 76c1 3b3c
00000140: 9e32 0bbd f4de 843b ee9c c53b dabc c9bb
00000150: e2b7 f9bc 2d6a 0d3a 7238 b73c 7e69 e0bb
00000160: d0b6 293d ebe4 d93c 0958 a63c 37ef 8ebc
00000170: e759 32bc 1c99 23bb 3ebf 283d 3e27 f1bc
00000180: 7994 213d 6ebf 693d 7910 8f3b d147 173d
00000190: 1e29 f3bc 04cc 3c3c c1f3 9b3c e4b8 0dbd
000001a0: 5876 dc3c a099 b13c 58d4 9fbc 34fa 1bbd
000001b0: 423b ebbc 4065 af3c d77b 1abd 0426 22bc
000001c0: 3f20 0f3c e71d 7bbc dbd9 5f3c ebf0 0c3c
000001d0: 2f26 d5bc 81ae a13b 048e 93bb 9e28 9fbc
000001e0: 12cc 633b f4aa 42bc 0022 2a3c cb16 b73c
000001f0: fa1d a0bc 8d54 aa3c 7542 3dbd 589f 073c
00000200: 1711 cbbc e6c4 053c 7f10 763d 48d8 15bd
00000210: b6ed 303c f3fd 48bc da18 84bc c4cd 473d
00000220: 68b7 f63a 4ecc d23a 3266 b139 ece5 b4bc
00000230: d6f4 8abb 0ad6 48bc 2922 11bd 9754 71bd
00000240: 1f10 363d 5b48 2cbd ef59 503d 743b 98bc
00000250: 1695 903d 5e93 e53c 5af9 06bd c733 033c
00000260: d5a7 acbd ad7a f13b 4d0d 15bc 0795 94ba
00000270: 4fe6 38bd 34a3 b2bb 85c5 b03c 2ca7 9f3c
00000280: d875 673b 785c b0bb b89e b9bc 3319 7b3b
00000290: befc f53c 3285 b3bc 0222 68bc ae18 95bc
000002a0: 84f8 0b3d 58ad 87bd e220 30bd c61c c2bc
000002b0: 9a00 ccbc aa3f 8ebc 93e7 4bbb b1f8 9dbc
000002c0: 1dcf 983b 58b7 d33c f6b5 533d 9fa4 4bbc
000002d0: 71fe 2e3c dceb 4e3d 8b2f 0fbc dea9 4c3d
000002e0: 92aa fbbb 51ee 8f3d 7007 373d fe20 db3c
000002f0: 7359 e7bc 85d1 7bbd 3042 753d eced c6bc
00000300: 4dc7 c5bd 4042 94bc f2bd 83bb 0241 c7bc
00000310: f0aa 203c 4fd6 363a ef5d 25bd 82a9 ef3c
00000320: f00f 12bc fd54 32bd f7bd 343d 7e3b f33c
00000330: abf4 403d 0e52 663d 0310 df3c ffa6 2fbd
00000340: b1f6 8a3c 2d40 d23b 6b9b af3c 9696 4d3c
00000350: 0448 98bc 3ef4 bebb 6df9 d73c 8430 d53b
00000360: 2140 993c 5526 3b3c 9d30 1d3d 49d9 50bd
00000370: 3826 9fbc 346c 063c 92de d23c bfa0 75bd
00000380: 2bc6 4e3c 8c09 0ebc 96ff 03bd 34d6 183c
00000390: 6154 9f3c ff33 26ba dcd4 12bc e73d 20bc
000003a0: 8a54 e53c 8641 cd3b 2934 9bbc 5107 53bc
000003b0: f249 fb3c 3974 af3d 3943 513c 0701 3b3d
000003c0: 056b e43c d077 f73c 5d57 19bd 4917 24bc
000003d0: 8e12 2c3c cac7 243b a403 ba3c e214 1b3c
000003e0: 605a be3c 1583 843d 5ddd 37bd a37e 063d
000003f0: 5756 023d 2819 443d 97a8 933c 811b cfbc

cnn.1.blocs.1.weight f4 [64]
0.19075085 0.8748269 0.16890499 0.6230169 0.23507328 0.5563632 0.5423531 0.37487152
0.94316477 0.18263437 0.68077374 0.27886543 0.5174428 0.54768443 0.903299 0.19609374
0.17574595 0.67663515 0.86657554 0.84420216 0.33888856 0.22424467 0.25392324 0.74486065
0.10895486 0.19485536 0.28729343 0.21808931 0.68387365 0.98310274 0.01176867 0.83001995
0.053283464 0.22262229 0.98514014 0.9618457 0.20132424 0.9129968 0.093288034 0.83131135
0.61081016 0.7789312 0.20453694 0.2697696 0.53007156 0.71658814 0.03254904 0.4168385
0.9131483 0.36891353 0.6277716 0.45309675 0.9842787 0.86577517 0.676128 0.19719158
0.8467629 0.17541614 0.8589466 0.40381303 0.09400536 0.8219843 0.5570232 0.72731936
00000000: 3154 433e a8f4 5f3f 6ef5 2c3e 097e 1f3f
00000010: 0db7 703e d26d 0e3f a7d7 0a3f 29ef bf3e
00000020: 3f73 713f 8104 3b3e 3047 2e3f 73c7 8e3e
00000030: 2277 043f 0c35 0c3f 9a3e 673f cccc 483e
00000040: bff6 333e f637 2d3f e5d7 5d3f a21d 583f
00000050: cd82 ad3e 65a0 653e 3a02 823e 30af 3e3f
00000060: ba23 df3d 2a88 473e 2018 933e ce52 5f3e
00000070: 5812 2f3f 9fac 7b3f 61d1 403c 307c 543f
00000080: c33f 5a3d 19f7 633e 2532 7c3f 853b 763f
00000090: f127 4e3e 29ba 693f cc0d bf3d d2d0 543f
000000a0: 0e5e 1c3f 0968 473f 2272 513e 3e1f 8a3e
000000b0: c5b2 073f 5272 373f 2452 053d db6b d53e
000000c0: 16c4 693f 3ce2 bc3e a4b5 203f 4cfc e73e
000000d0: b0f9 7b3f 71a3 5d3f b916 2d3f 97ec 493e
000000e0: 74c5 583f 4aa0 333e ede3 5b3f 95c0 ce3e
000000f0: e285 c03d 906d 523f 1399 0e3f 9a31 3a3f

cnn.1.blocs.1.bias f4 [64]
0.0030293346 -0.0052875453 0.002425949 0.0007308978 -0.0019108345 0.0026686133 0.0011738664 0.0011628909
0.0027767397 0.0011106434 0.0023214794 0.0015169233 0.00455805 0.0008439731 -0.0015800676 0.000995001
0.00078667444 0.0025713744 -0.0038515064 0.000931563 0.0038794898 0.0010410169 -0.0024397746 0.0021067394
-0.00039807937 0.0005834583 0.0012611842 -0.001791531 0.0012628817 0.000931117 -0.00038131932 0.00066028733
0.00094884424 -0.00030930835 -0.001392559 0.0024408344 0.0026956664 0.0008645883 0.0024134577 -0.0020622169
0.0035174147 -0.00025373118 1.2434908e-05 0.00010591577 -0.0009236741 0.0026008508 0.0010789097 0.0019755615
0.0014148146 0.0064312057 0.0036155293 0.00074745703 0.0030593947 -0.0020006676 -0.0012318973 -0.0018847721
0.0010612378 0.00031290372 0.000498872 -0.0010069694 0.0014194489 -0.0028187416 0.0031888527 0.0044198283
00000000: cd87 463b 2543 adbb acfc 1e3b b999 3f3a
00000010: f774 faba e7e3 2e3b 6cdc 993a 256c 983a
00000020: f6f9 353b 0293 913a f623 183b 80d3 c63a
00000030: b25b 953b 133e 5d3a 451a cfba b26a 823a
00000040: d438 4e3a 8184 283b 8e69 7cbb 2234 743a
00000050: 0a3f 7e3b bb72 883a a0e4 1fbb 3911 0a3b
00000060: 4fb5 d0b9 39f3 183a 524e a53a ced1 eaba
00000070: 4787 a53a 3416 743a d0eb c7b9 2217 2d3a
00000080: dcbb 783a aa2a a2b9 8786 b6ba 68f6 1f3b
00000090: c7a9 303b 8aa5 623a 1a2b 1e3b 4226 07bb
000000a0: 6d84 663b 3907 85b9 869f 5037 191f de38
000000b0: b822 72ba 0973 2a3b 346a 8d3a 6c78 013b
000000c0: 4d71 b93a ddbc d23b 84f2 6c3b fef0 433a
000000d0: 2080 483b a21d 03bb 9d77 a1ba 750a f7ba
000000e0: 3b19 8b3a 3a0d a439 bcc6 023a 49fc 83ba
000000f0: cd0c ba3a a3ba 38bb 12fc 503b 35d4 903b

cnn.1.blocs.3.weight f4 [64, 64, 3, 3]
0.007875718 0.028197719 -0.0073875375 -0.017003026 -0.051630627 0.010519305 0.031199776 -0.043634254
0.024615645 -0.02079725 0.062034935 -0.09505398 0.007737962 0.020399805 -0.016442312 -0.0025738783
-0.034706045 0.016167158 0.04814929 0.031210905 0.024875892 0.053308353 0.048301347 0.012223572
0.02105749 -0.009040395 0.031004652 0.023607826 -0.041168865 0.020900093 -0.013347812 -0.0024434223
-0.020476915 -0.054383412 0.06496952 0.015580175 -0.02400541 0.0037818085 -0.014107835 0.010941465
-0.006715251 0.03273574 0.036243193 0.00506884 -0.033776477 0.036953494 -0.030385373 -0.02620853
-0.051101808 0.0067795976 0.047962412 -0.033059977 -0.067041636 -0.014587429 -0.0061805598 -0.009298865
-0.03145671 0.027421772 -0.04564416 0.028495224 0.028982988 0.030088173 -0.061148047 -0.011382631
-0.023008468 -0.013004962 -0.00830684 0.033431467 0.05099658 -0.032790486 -0.008488638 -0.019096855
-0.02246678 0.015054916 -0.0066961697 -0.042460278 0.0139081655 0.0034823085 -0.026284257 0.008448161
0.046987914 -0.016933134 -0.018267892 0.025210453 0.037751652 0.009095066 -0.002041685 -0.022642368
-0.045292757 -0.02342806 0.018067803 -0.019002005 0.016975384 -0.0004746677 0.069949746 0.048380163
0.0015284962 -0.01727962 0.018765176 -0.03493919 -0.019724118 -0.0011038858 0.04512849 0.036382847
0.022340031 -0.01974271 -0.0338124 -0.04531466 0.023169106 0.003931687 -0.0095917005 0.008426678
-0.047970984 -0.046775118 0.025138248 0.03981156 -0.058606 0.0026057002 -0.010002515 -0.019322462
0.03994227 -0.007462637 -0.06888279 0.052807663 0.004008973 -0.0076993704 0.028929267 0.034082502
0.014254494 -0.020506663 -0.04486122 0.03665021 0.0501921 -0.0695425 -0.026514951 -0.021067308
-0.011012711 -0.03249935 -0.004909098 0.07810428 -0.033722542 0.015222127 -0.02274505 -0.014490623
-0.04319507 0.07091385 0.012319699 -0.015562135 -0.0022249303 0.008942408 -0.011371378 -0.03145391
-0.030633975 0.021537902 0.051432498 -0.019923605 -0.023613803 -0.09366608 -0.06660472 0.026052073
-0.050998267 -0.006730413 -0.011022337 0.018084073 -0.017814107 -0.015700325 0.03273628 -0.037365884
-0.027855529 -0.00921311 -0.055972096 0.055316694 -0.010972214 0.008070939 0.025437208 -0.03491074
-0.010358828 -0.032502547 -0.031733967 -0.031024838 0.0019813243 0.012965579 0.007471572 0.002614869
-0.029018575 0.0066357977 -0.027433125 0.010191779 0.06006498 0.03241268 0.00039063566 -0.042356092
0.011868842 0.015270335 -0.05175161 -0.005045712 -0.014531947 -0.023312494 0.0025557168 0.029845312
0.007715799 -0.016747128 -0.0013917957 0.021300394 0.008980288 0.0400947 0.05205796 -0.016015494
-0.013785533 -0.003453392 -0.06917434 0.007277016 -0.042203985 -0.045214478 -0.015164168 -0.00441399
0.052995387 -0.048753105 -2.5882205e-06 -0.0036196806 0.0034524894 -0.012858831 0.061982345 0.039123453
0.014823249 0.025204726 -0.009724574 -0.01569947 -0.0222186 -0.012534186 -0.023903321 -0.07805248
-0.008162439 0.04410334 0.029764818 0.032590363 -0.024930885 0.0144895045 -0.004459178 0.001145652
0.08101694 0.035119377 0.04457905 0.0008239499 -0.0163391 -0.03544329 -0.061329402 0.058333594
0.032827906 -0.04847364 0.009876817 0.04707645 0.0032861533 -0.040658474 -0.010627186 -0.02310002
00000000: 2809 013c e7fe e63c 2813 f2bb ee49 8bbc
00000010: a37a 53bd 2a59 2c3c ac96 ff3c d5b9 32bd
00000020: c0a6 c93c ff5e aabc 5818 7e3d a9ab c2bd
00000030: bb8e fd3b 7e1d a73c 07b2 86bc 83ae 28bb
00000040: ed27 0ebd fd70 843c 3138 453d 03ae ff3c
00000050: 87c8 cb3c dc59 5a3d a2d7 453d 6045 483c
00000060: c280 ac3c 2a1e 14bc 78fd fd3c 3365 c13c
00000070: afa0 28bd ac36 ab3c c8b0 5abc d321 20bb
00000080: 34bf a7bc 24c1 5ebd bd0e 853d fe43 7f3c
00000090: fea6 c4bc 38d8 773b 8c24 67bc d543 333c
000000a0: 9c0b dcbb e915 063d be73 143d 8318 a63b
000000b0: 3459 0abd 8c5c 173d bfea f8bc 45b3 d6bc
000000c0: 2150 51bd 6327 de3b 3c74 443d e669 07bd
000000d0: 204d 89bd 1d00 6fbc 4b86 cabb 445a 18bc
000000e0: c0d8 00bd a0a3 e03c 5ff5 3abd d16e e93c
000000f0: bb6d ed3c 797b f63c 6076 7abd 377e 3abc
00000100: 417c bcbc c412 55bc 6a19 08bc 6fef 083d
00000110: cae1 503d 514f 06bd ee13 0bbc 0271 9cbc
00000120: 410c b8bc e5a8 763c 8b6b dbbb d4ea 2dbd
00000130: 13df 633c 7137 643b 1552 d7bc 286a 0a3c
00000140: 6676 403d 5bb7 8abc 8ca6 95bc 2786 ce3c
00000150: 7aa1 1a3d 7903 153c cacd 05bb 7d7c b9bc
00000160: e684 39bd 34ec bfbc ee02 943c 18aa 9bbc
00000170: f60f 8b3c d2dc f8b9 d041 8f3d 472a 463d
00000180: d257 c83a fd8d 8dbc 6db9 993c 651c 0fbd
00000190: 7994 a1bc 43b0 90ba a7d8 383d 2e06 153d
000001a0: 7102 b73c 77bb a1bc df7e 0abd dd9b 39bd
000001b0: 23cd bd3c 62d5 803b 8226 1dbc 0d10 0a3c
000001c0: 397d 44bd 4497 3fbd baee cd3c 7211 233d
000001d0: d80c 70bd 65c4 2a3b 97e1 23bc 244a 9ebc
000001e0: 819a 233d 2389 f4bb 6c12 8dbd d94c 583d
000001f0: b45d 833b 004b fcbb 12fd ec3c 189a 0b3d
00000200: ae8b 693c 97fd a7bc 66c0 37bd 881e 163d
00000210: 3b96 4d3d 4c6c 8ebd e235 d9bc 5995 acbc
00000220: a86e 34bc 0a1e 05bd 80dc a0bb 23f5 9f3d
00000230: a620 0abd 3a66 793c d453 babc 146a 6dbc
00000240: 50ed 30bd 483b 913d 90d8 493c 53f8 7ebc
00000250: 23d0 11bb 2d83 123c 044f 3abc d1d5 00bd
00000260: 1af4 fabc 4170 b03c e2aa 523d d436 a3bc
00000270: bc71 c1bc 00d4 bfbd 0e68 88bd 286b d53c
00000280: 8fe3 50bd cc8a dcbb 0897 34bc 0d25 943c
00000290: e4ee 91bc f89d 80bc 7a16 063d f80c 19bd
000002a0: 4731 e4bc 96f2 16bc ff42 65bd c293 623d
000002b0: cdc4 33bc f93b 043c b161 d03c 90fe 0ebd
000002c0: 13b8 29bc 6421 05bd 7afb 01bd cd27 febc
000002d0: 1bd9 013b 946d 543c 17d4 f43b 395e 2b3b
000002e0: 5db8 edbc 1b71 d93b 6fbb e0bc 6bfb 263c
000002f0: b206 763d 29c3 043d 3bce cc39 957d 2dbd
00000300: 8875 423c 6d30 7a3c 7ff9 53bd 8056 a5bb
00000310: 6717 6ebc d8f9 bebc d07d 273b 287e f43c
00000320: d0d4 fc3b 4631 89bc ea6c b6ba 2a7e ae3c
00000330: 0f22 133c 573a 243d ba3a 553d ed32 83bc
00000340: b7dc 61bc 4e52 62bb 47ab 8dbd 0974 ee3b
00000350: 16de 2cbd d132 39bd 2173 78bc 3ba3 90bb
00000360: b111 593d 56b1 47bd 4ab1 2db6 2a38 6dbb
00000370: 2943 623b d9ad 52bc 33e1 7d3d ea3f 203d
00000380: 36dd 723c 247a ce3c d253 1fbc 2d9c 80bc
00000390: c803 b6bc 305c 4dbc e6d0 c3bc fbd9 9fbd
000003a0: c0bb 05bc b4a5 343d 59d5 f33c 797d 053d
000003b0: db3b ccbc 6365 6d3c 4c1e 92bb b429 963a
000003c0: 36ec a53d 56d9 0f3d 8698 363d 57fe 573a
000003d0: 94d9 85bc fc2c 11bd 8a34 7bbd 35ef 6e3d
000003e0: 8e76 063d 4c8c 46bd 60d2 213c 3cd3 403d
000003f0: 815c 573b 8089 26bd a61d 2ebc 413c bdbc

cnn.1.blocs.3.bias f4 [64]
-7.2164124e-07 8.0041116e-07 7.2172766e-06 -1.0413565e-05 7.877195e-06 -6.207157e-06 2.1205237e-06 -1.653247e-06
1.6856624e-06 3.7696163e-06 -1.2526879e-08 -5.7416532e-06 -2.9050486e-07 -5.644323e-07 -4.7197972e-07 4.1466888e-06
-6.0488844e-07 2.299927e-06 1.0527808e-05 -8.191967e-06 3.4591233e-06 8.289355e-07 -7.4264065e-08 -3.8296917e-06
-1.2326652e-06 -1.553446e-05 -7.98395e-06 -1.2669108e-07 -8.764243e-06 -2.338469e-05 3.5060953e-06 -1.2546379e-05
5.68285e-06 -5.405182e-06 -1.7577131e-05 8.423662e-06 -2.1259912e-06 -3.6914182e-07 1.7197382e-05 1.1688248e-06
3.8369092e-07 -5.1451298e-06 2.355167e-07 3.109201e-06 6.7417263e-06 3.7744246e-06 5.6408912e-06 -1.0574733e-05
2.5808038e-07 9.3245475e-08 2.5961006e-06 -3.6289828e-06 4.135329e-06 -1.2666922e-06 -5.4050297e-06 3.3949611e-06
4.0743366e-06 -1.3990433e-06 3.5477567e-06 5.5285964e-06 -4.622322e-07 -1.4518875e-07 4.713767e-07 1.39045e-05
00000000: cfb6 41b5 d6db 5635 ef2b f236 ecb5 2eb7
00000010: 4b28 0437 1347 d0b6 524e 0e36 22e5 ddb5
00000020: eb3e e235 84f9 7c36 cc35 57b2 6da8 c0b6
00000030: aff6 9bb4 7e83 17b5 6664 fdb4 c923 8b36
00000040: 9e5f 22b5 7258 1a36 97a0 3037 3b70 09b7
00000050: 4923 6836 0484 5e35 1a7b 9fb3 cd80 80b6
00000060: 0e72 a5b5 0050 82b7 cef2 05b7 9408 08b4
00000070: 230a 13b7 3d2a c4b7 424a 6b36 4a7e 52b7
00000080: 4faf be36 295e b5b6 9a72 93b7 5a53 0d37
00000090: 40ac 0eb6 772e c6b4 1943 9037 84e0 9c35
000000a0: 14fe cd34 54a4 acb6 56e2 7c34 aba7 5036
000000b0: fd36 e236 1f4c 7d36 e346 bd36 226a 31b7
000000c0: 4c8e 8a34 3e3e c833 ab38 2e36 7389 73b6
000000d0: 35c2 8a36 3603 aab5 da5c b5b6 fdd4 6336
000000e0: 49b6 8836 c3c6 bbb5 ff15 6e36 4882 b936
000000f0: b628 f8b4 2ee5 1bb4 8511 fd34 5f47 6937

cnn.1.activationF.0.weight f4 [64]
0.5804194 0.4214855 0.50965106 0.6261192 0.77525365 0.95382977 0.49251655 0.63860744
0.14462195 0.29741788 0.0027804615 0.14294785 0.70873666 0.36682898 0.1489351 0.31197888
0.23385793 0.86451894 0.6200485 0.49102932 0.15495203 0.98538023 0.015234915 0.31259426
0.41539595 0.7908428 0.45696315 0.61025393 0.22108762 0.7979868 0.5438142 0.13715656
0.6368555 0.34334755 0.8240389 0.9721751 0.26256853 0.3863266 0.49200743 0.63563925
0.822874 0.9236102 0.33034012 0.37540707 0.47268587 0.5593365 0.8984881 0.7277535
0.07792923 0.60208017 0.21558459 0.94633216 0.8225562 0.7905438 0.15630135 0.73305154
0.60795915 0.6087655 0.37244484 0.94361925 0.19033651 0.10312969 0.14066623 0.7091151
00000000: 5e96 143f f3cc d73e 7e78 023f 5949 203f
00000010: 0677 463f 302e 743f 212b fc3e c77b 233f
00000020: c717 143e 2847 983e 6738 363b ec60 123e
00000030: c46f 353f 02d1 bb3e 7182 183e b2bb 9f3e
00000040: 7478 6f3e 1d51 5d3f 80bb 1e3f 3268 fb3e
00000050: bfab 1e3e e141 7c3f dd9b 793c 5b0c a03e
00000060: c7ae d43e ac74 4a3f 13f7 e93e 9a39 1c3f
00000070: cb64 623e dd48 4c3f 6837 0b3f c572 0c3e
00000080: f608 233f 40cb af3e 37f4 523f 78e0 783f
00000090: 626f 863e 9acc c53e 66e8 fb3e 41b9 223f
000000a0: dfa7 523f b871 6c3f 5722 a93e 5b35 c03e
000000b0: e203 f23e ad30 0f3f 5103 663f 0e4e 3a3f
000000c0: 5c99 9f3d ed21 1a3f 35c2 5c3e d342 723f
000000d0: 0b93 523f 1461 4a3f 760d 203e 44a9 3b3f
000000e0: 36a3 1b3f 0ed8 1b3f 17b1 be3e 0891 713f
000000f0: 93e7 423e a935 d33d cf0a 103e 9188 353f

cnn.1.activationF.0.bias f4 [64]
-0.0016919036 0.0034190847 0.0015021957 0.0029202618 0.004043158 -0.00268334 0.00061516574 0.0012842156
-0.00023926294 0.002512257 0.0033770993 0.0032796399 -0.000657594 0.0020127571 0.005220659 -0.00058887526
0.0004039401 0.0012422196 -0.00088869274 0.003893104 0.0026198495 0.0024612683 0.00052171067 -0.004638298
0.0050622416 0.0031167094 -0.0033735468 -0.002123616 0.006379735 0.0019841115 0.0033422275 0.004561414
-0.001718517 0.0034506044 0.006443556 -0.00078034005 -0.00026888595 -0.0023205418 -0.0004442633 0.0026852016
0.0011178675 -0.0031002653 0.0005711181 -0.000567436 0.0008699774 0.0013001536 -0.002592909 -0.004107548
0.002779875 -0.0036761549 0.0021449518 -0.0010665643 0.0032581363 -0.001438573 0.003829714 -0.0018207243
-0.0013813634 0.0038866156 0.0026345933 -0.00066530507 -0.00075373735 -0.00018713591 0.00034157973 0.0055227997
00000000: ddc2 ddba b912 603b 53e5 c43a dd61 3f3b
00000010: 787c 843b fada 2fbb 1343 213a 2053 a83a
00000020: a8e2 7ab9 aea4 243b 5352 5d3b 3aef 563b
00000030: 6362 2cba 76e8 033b 1012 ab3b c05e 1aba
00000040: ecc7 d339 f9d1 a23a 29f7 68ba 7223 7f3b
00000050: c8b1 2b3b 3b4d 213b 69c3 083a ddfc 97bb
00000060: 29e1 a53b b541 4c3b b916 5dbb 5d2c 0bbb
00000070: 190d d13b de07 023b 4609 5b3b ea77 953b
00000080: dd3f e1ba 8923 623b 7724 d33b bc8f 4cba
00000090: 43f9 8cb9 3b14 18bb 03ec e8b9 35fa 2f3b
000000a0: 6985 923a d22d 4bbb 16b7 153a fcbf 14ba
000000b0: 320f 643a ea69 aa3a cbed 29bb 9c98 86bb
000000c0: 902e 363b a5eb 70bb 5292 0c3b f6cb 8bba
000000d0: 7586 553b 808e bcba f0fb 7a3b 5fa5 eeba
000000e0: dd0e b5ba 97b6 7e3b 24a9 2c3b de67 2eba
000000f0: 7596 45ba ea39 44b9 0e16 b339 9af8 b43b

psp.0.1.weight f4 [1, 64, 1, 1]
0.049181014 0.06103313 0.036787983 0.038702913 -0.0115121035 -0.06578838 -0.041897155 -0.11813936
-0.033941045 0.05346037 -0.00015425406 0.074237 0.104969434 0.08173268 0.015243894 -0.023186564
-0.0031086484 0.089040846 0.049920402 -0.059055153 0.09782084 -0.064997524 -0.03991374 -0.11123612
0.055853438 0.10114661 -0.14052883 0.006652225 -0.09277518 0.050757114 0.039150428 0.028479917
0.10158344 -0.08416664 -0.054654848 -0.031796314 -0.0052796532 -0.069067486 -0.006865245 0.07070044
-0.050933823 -0.045822375 -0.18557428 0.051312454 0.015052449 -0.19489725 0.0020449832 -0.095182724
0.007000759 0.022104047 0.039484944 0.042326957 -0.023935951 0.12823653 -0.021066291 -0.1744109
0.14327332 -0.104380645 0.021220418 -0.014585155 -0.07584723 0.05848953 -0.033185206 -0.025837628
00000000: 0872 493d e0fd 793d ffae 163d f286 1e3d
00000010: 439d 3cbc 0fbc 86bd 5a9c 2bbd 0cf3 f1bd
00000020: c405 0bbd 43f9 5a3d 42bf 21b9 9109 983d
00000030: 37fa d63d 7763 a73d 87c1 793c c0f1 bdbc
00000040: 77ba 4bbb 0c5b b63d 5679 4c3d d1e3 71bd
00000050: 4b56 c83d 6c1d 85bd 977c 23bd c3cf e3bd
00000060: 93c6 643d f425 cf3d cae6 0fbe e8fa d93b
00000070: ea00 bebd b1e6 4f3d 335c 203d b74e e93c
00000080: fb0a d03d 8f5f acbd c3dd 5fbd da3c 02bd
00000090: f100 adbb 4173 8dbd d9f5 e0bb 64cb 903d
000000a0: fc9f 50bd 3eb0 3bbd 2f07 3ebe 022d 523d
000000b0: 8c9e 763c 2593 47be 2005 063b 29ef c2bd
000000c0: 9f66 e53b 8c13 b53c f7ba 213d 085f 2d3d
000000d0: 5415 c4bc 7050 033e 3793 acbc c598 32be
000000e0: 3eb6 123e 85c5 d5bd 71d6 ad3c 93f6 6ebc
000000f0: cb55 9bbd b892 6f3d 36ed 07bd 6fa9 d3bc

psp.1.1.weight f4 [1, 64, 1, 1]
0.12749763 0.009513595 -0.02141888 -0.00042163872 0.26400357 0.046110388 -0.06533966 0.08402402
-0.06882416 0.0012967823 -0.0004104385 0.05363937 0.008347617 -0.065813884 0.06706927 -0.05894579
-0.11814067 -0.013573141 -0.12537648 0.06666807 -0.09354961 -0.1440492 -0.00084539317 -0.110223286
0.11461851 0.07136511 0.122404344 -0.09681396 0.0874297 -0.05325763 0.080049254 0.04750925
-0.08676595 0.028271062 0.15679407 -0.056372162 0.013037521 -0.07588757 0.08142963 -0.0060100947
-0.073297806 -0.059851147 -0.04189402 -0.07188582 -0.07268916 -0.005573329 0.065098606 0.17709506
0.1989838 -0.03296805 0.18615958 0.08305847 -0.08627929 0.033017848 0.13644876 0.1240316
0.019214539 -0.09623155 0.025265004 -0.1890627 -0.07740179 -0.018596167 0.124421425 0.094799995
00000000: bd8e 023e e9de 1b3c a676 afbc 640f ddb9
00000010: 7a2b 873e 3fde 3c3d cdd0 85bd c914 ac3d
00000020: aef3 8cbd cbf8 a93a 1f30 d7b9 f5b4 5b3d
00000030: 72c4 083c 6ec9 86bd 9d5b 893d 2471 71bd
00000040: bcf3 f1bd e161 5ebc b162 00be 4589 883d
00000050: f096 bfbd a281 13be 609d 5dba bfbc e1bd
00000060: 1cbd ea3d df27 923d 21af fa3d 6646 c6bd
00000070: 580e b33d ac24 5abd ddf0 a33d 0f99 423d
00000080: 59b2 b1bd b798 e73c a08e 203e 7fe6 66bd
00000090: 549b 553c f16a 9bbd 94c4 a63d 54f0 c4bb
000000a0: 291d 96bd 7a26 75bd 1099 2bbd df38 93bd
000000b0: 0ede 94bd 79a0 b6bb 6b52 853d 6858 353e
000000c0: 69c2 4b3e 8209 07bd 9ea0 3e3e 8f1a aa3d
000000d0: 32b3 b0bd b93d 073d 39b9 0b3e 4804 fe3d
000000e0: cf67 9d3c 0c15 c5bd 8ef8 ce3c a799 41be
000000f0: d484 9ebd fd56 98bc a9d0 fe3d 8026 c23d

psp.2.1.weight f4 [1, 64, 1, 1]
0.0413671 0.073118255 -0.20181245 0.006537008 -0.058689654 0.2144481 -0.098736435 0.030463248
-0.15234122 -0.034561154 -0.0023351586 0.024547964 -0.040555485 0.016662726 0.036152445 -0.073620886
0.023401104 -0.07339463 -0.015754517 0.13720211 -0.018337421 -0.030569287 0.007832621 -0.040292583
-0.10690766 -0.099319786 -0.1357185 0.06751179 -0.043343358 -0.012300932 0.054142337 -0.2717612
-0.06330409 -0.010898103 -0.09192876 -0.09983176 0.10328668 0.017545573 0.037021626 0.022990728
-0.1194016 0.06874338 0.063444205 -0.0010112547 0.06751089 0.18061204 -0.28944227 -0.14314245
-0.1180423 -0.035019096 -0.033764914 0.06757203 -0.026004406 0.07215089 -0.153572 -0.029566664
-0.05430064 -0.08917146 -0.006489903 0.035158344 -0.06631191 0.011673397 0.12948324 -0.022001905
00000000: 8c70 293d 06bf 953d eca7 4ebe 6634 d63b
00000010: 9064 70bd 4898 5b3e 5436 cabd 108e f93c
00000020: 56ff 1bbe ff8f 0dbd 7609 19bb d018 c93c
00000030: 821d 26bd 4580 883c 9614 143d 8cc6 96bd
00000040: acb3 bf3c ec4f 96bd 9e0f 81bc b67e 0c3e
00000050: 5c38 96bc 716c fabc 6554 003c d609 25bd
00000060: 67f2 dabd 2c68 cbbd caf9 0abe 9f43 8a3d
00000070: ce88 31bd d989 49bc 5bc4 5d3d 4924 8bbe
00000080: 93a5 81bd f58d 32bc 2545 bcbd 9874 ccbd
00000090: f887 d33d bcbb 8f3c fda3 173d 0d57 bc3c
000000a0: d388 f4bd 54c9 8c3d 09ef 813d 148c 84ba
000000b0: 2643 8a3d 5df2 383e c731 94be ef93 12be
000000c0: 29c0 f1bd 2f70 0fbd 144d 0abd 3463 8a3d
000000d0: 3107 d5bc d9c3 933d fa41 1dbe ca35 f2bc
000000e0: 596a 5ebd 879f b6bd 41a9 d4bb 3202 103d
000000f0: 8ace 87bd c741 3f3c 4197 043e 573d b4bc
