seg_models/SpaceInvaders.pth (torch_old, 513861 bytes, 27 tensors)

cnn.0.mods.1.weight f4 [16, 3, 7, 7]
0.08727046 -0.032531112 -0.0057895603 0.0645538 -0.0019952003 0.019377956 0.09597642 -0.009982124
0.08204977 -0.06455875 -0.10429895 -0.047562998 -0.042540982 0.017400527 -0.060962725 0.043530323
-0.035076797 0.020405617 0.09610904 0.0020827379 0.012635111 0.027170053 -0.05388957 0.1087931
-0.028414477 0.006560466 0.082342125 -0.0131401215 -0.09844265 -0.06539086 0.05278683 -0.011401388
0.008666144 0.041285988 0.030461172 0.018319476 0.036255177 -0.14164005 0.09911585 0.007024572
0.09296033 -0.07256923 -0.009038193 -0.028871115 0.11038478 -0.029949311 -0.04598463 0.142205
-0.032965526 -0.054863673 0.029055014 -0.077411644 -0.008284933 -0.0031677033 -0.1308951 0.015287548
-0.060065657 -0.054487072 0.07917245 0.104518734 0.02021509 -0.03903489 -0.004661028 0.0759912
-0.029354453 -0.013780193 0.03402429 0.12031803 0.1435875 0.011645091 0.021043131 -0.06875028
-0.035293408 0.117218286 0.13490319 -0.068753004 -0.075139806 -0.06572523 -0.020497978 -0.061232723
0.11877169 0.005868364 -0.038061902 0.034335867 -0.049712062 0.039346635 0.0006767725 -0.009096454
-0.040870037 -0.08709755 -0.019670194 -0.086753696 0.024715045 0.10093889 -0.0686175 -0.09154474
-0.032340705 -0.033806518 -0.086131714 -0.042493336 0.09333484 0.020752043 -0.05166419 0.03606202
0.0034020448 -0.115483865 0.11963437 -0.0772607 0.09158476 -0.058967415 0.04188139 -0.024512485
0.04635836 0.03556697 0.04253403 -0.05619807 0.013305484 -0.048908237 -0.050871767 -0.025179105
0.102165595 0.046568457 0.037510335 0.06281825 -0.03898098 -0.032469746 0.072427645 0.0331676
0.025903605 -0.01924636 0.04308498 -0.02794935 -0.076101914 0.122369014 -0.018814817 -0.04215005
0.06029341 0.08931353 0.038601805 -0.05615595 0.016927104 0.11998709 -0.009285419 0.011335444
0.06693298 0.028811282 -0.0091556655 -0.04256911 -0.11368691 0.029502869 0.021702526 -0.04483867
0.08838258 0.11457809 -0.034387022 -0.066114955 0.07946442 -0.031274844 0.08171694 0.051783
-0.027171401 -0.07715106 0.030109521 -0.056387834 -0.07118166 0.025642535 0.09057773 0.11873622
0.008163998 -0.03385649 0.016129084 -0.017614225 -0.06520878 0.109324895 -0.05550102 0.037886392
-0.02535014 0.0014071832 -0.04858466 0.025787435 0.11187586 0.09679469 -0.04709935 -0.05525675
0.045713108 -0.0041106283 0.054545864 0.10664182 -0.042490643 0.01330589 -0.06155228 0.09612805
-0.0011622823 -0.083534196 0.080742404 0.04803198 0.19650754 -0.06783911 -0.037940763 -0.06613671
-0.0020983894 0.0061236974 0.018725865 0.102627784 0.11166449 -0.048895862 -0.023566034 0.023285495
0.07478697 0.13008285 -0.066246256 -0.069532864 0.014430732 0.03843292 0.035676673 0.022451676
0.072571 0.011820461 0.05046198 0.034664147 0.07739201 -0.002774803 -0.0343654 0.0075852294
0.040864132 -0.06960595 0.097688965 -0.21614076 -0.020515028 -0.07483026 -0.03359728 0.043173555
0.07652662 0.06672313 -0.028945144 -0.008972273 0.08169331 0.12823035 0.038372993 -0.020800866
-0.03931709 0.03873246 -0.029614748 -0.003677716 0.085936435 0.08788278 0.118056946 0.08232372
0.015441274 -0.0058526252 -0.048576687 0.021530721 -0.0047758506 0.08514509 0.10125722 0.07357187
00000000: dbba b23d 583f 05bd 5ab6 bdbb c834 843d
00000010: e8c1 02bb 85be 9e3c 498f c43d 108c 23bc
00000020: b609 a83d 6137 84bd b09a d5bd 6bd1 42bd
00000030: 743f 2ebd 8d8b 8e3c 0db4 79bd da4c 323d
00000040: b0ac 0fbd ae29 a73c d1d4 c43d 8b7e 083b
00000050: 7f03 4f3c bb93 de3c 4fbb 5cbd ebce de3d
00000060: 7ac5 e8bc 2df9 d63b fda2 a83d aa49 57bc
00000070: 4d9c c9bd a5eb 85bd 0137 583d e3cc 3abc
00000080: 71fc 0d3c 7f1b 293d b589 f93c ba12 963c
00000090: 4f80 143d 170a 11be 40fd ca3d 622e e63b
000000a0: fc61 be3d 2d9f 94bd ee14 14bc 1e83 ecbc
000000b0: 6a11 e23d 4258 f5bc 615a 3cbd 309e 113e
000000c0: dc06 07bd bbb8 60bd c804 ee3c ff89 9ebd
000000d0: 87bd 07bc 3e99 4fbb 5d09 06be a078 7a3c
000000e0: 6807 76bd d62d 5fbd 2a25 a23d eb0d d63d
000000f0: 1e9a a53c 0ce3 1fbd 89bb 98bb 46a1 9b3d
00000100: c078 f0bc 52c6 61bc 0e5d 0b3d 4d69 f63d
00000110: 9a08 133e 0dcb 3e3c a562 ac3c f2cc 8cbd
00000120: d28f 10bd 2410 f03d 1024 0a3e 60ce 8cbd
00000130: e6e2 99bd f39a 86bd 60eb a7bc 2acf 7abd
00000140: 923e f33d 684b c03b cce6 1bbd c4a3 0c3d
00000150: e09e 4bbd f029 213d 6f69 313a 4b09 15bc
00000160: 5767 27bd 3360 b2bd 6323 a1bc ecab b1bd
00000170: 3577 ca3c 0cb9 ce3d 5587 8cbd cf7b bbbd
00000180: b077 04bd b478 0abd d365 b0bd 7e0d 2ebd
00000190: 5626 bf3d 3000 aa3c d49d 53bd c5b5 133d
000001a0: d7f4 5e3b ce82 ecbd dd02 f53d dc3a 9ebd
000001b0: ca90 bb3d d187 71bd d28b 2b3d 68ce c8bc
000001c0: 44e2 3d3d acae 113d 2a38 2e3d f32f 66bd
000001d0: 3fff 593c 0154 48bd ea5e 50bd 6944 cebc
000001e0: 323c d13d 91be 3e3d 70a4 193d dba6 803d
000001f0: 85aa 1fbd fffe 04bd f254 943d c0da 073d
00000200: cc33 d43c 8baa 9dbc e079 303d 09f6 e4bc
00000210: 52db 9bbd 9b9c fa3d 8821 9abc 88a5 2cbd
00000220: 39f6 763d 03ea b63d ed1c 1e3d c803 66bd
00000230: b6aa 8a3c cbbb f53d df21 18bc 4cb8 393c
00000240: 2914 893d a305 ec3c a501 16bc f25c 2ebd
00000250: afd4 e8bd 00b0 f13c 7fc9 b13c c1a8 37bd
00000260: ed01 b53d eba7 ea3d 68d9 0cbd 4767 87bd
00000270: 3ebe a23d 0d1a 00bd 365b a73d 691a 543d
00000280: 8f96 debc 6001 9ebd 3ea8 f63c eef6 66bd
00000290: b1c7 91bd 4b10 d23c d180 b93d fa2b f33d
000002a0: 4ac2 053c 1aad 0abd 2421 843c b54b 90bc
000002b0: 2e8c 85bd bbe5 df3d 0a55 63bd c32e 1b3d
000002c0: 19ab cfbc 3c71 b83a b500 47bd 2c40 d33c
000002d0: 2c1f e53d 4b3c c63d 3feb 40bd e754 62bd
000002e0: ab3d 3b3d 73b2 86bb 7c6b 5f3d 0767 da3d
000002f0: ab0a 2ebd f300 5a3c 3e1e 7cbd c8de c43d
00000300: b957 98ba fa13 abbd 465c a53d 2ebd 443d
00000310: 4639 493e 3bef 8abd c667 1bbd af72 87bd
00000320: 2285 09bb 4ca9 c83b fc66 993c 842e d23d
00000330: 5ab0 e43d 0747 48bd 8e0d c1bc 39c1 be3c
00000340: e929 993d 7034 053e 1eac 87bd 3f67 8ebd
00000350: e06e 6c3c d66b 1d3d b421 123d 94ec b73c
00000360: 1ba0 943d 9baa 413c 39b1 4e3d fefb 0d3d
00000370: b47f 9e3d 78d9 35bb bcc2 0cbd 848d f83b
00000380: 2661 273d 908d 8ebd 2711 c83d 0154 5dbe
00000390: 220f a8bc 9b40 99bd 4d9d 09bd c1d6 303d
000003a0: fdb9 9c3d 23a6 883d 5e1e edbc 7100 13bc
000003b0: d24e a73d d14e 033e 002d 1d3d 9466 aabc
000003c0: f50a 21bd eea5 1e3d a19a f2bc d605 71bb
000003d0: 71ff af3d e3fb b33d d7c7 f13d 5799 a83d
000003e0: 66fd 7c3c 61c7 bfbb 59f8 46bd 3261 b03c
000003f0: bd7e 9cbb 8d60 ae3d f25f cf3d d9ac 963d

cnn.0.mods.2.weight f4 [16]
0.14489287 0.96364504 0.16092727 0.88745135 0.3930917 0.44400796 0.43776664 0.99250454
0.8847662 0.059304774 0.1122342 0.31145272 0.43018436 0.23701765 0.6444046 0.46072784
00000000: cc5e 143e 71b1 763f 1eca 243e 0330 633f
00000010: 5143 c93e 0355 e33e f322 e03e c714 7e3f
00000020: 0a80 623f 90e9 723d 0bdb e53d bb76 9f3e
00000030: 2041 dc3e c1b4 723e b3f7 243f 85e4 eb3e

cnn.0.mods.2.bias f4 [16]
0.0007009187 0.0017234745 0.0017999068 -0.0014696517 -0.0010776523 5.1475534e-05 0.001547948 -0.0019895632
-0.00046215492 0.002004359 -0.000179747 -0.00016471362 -0.0012814502 0.0014048795 0.0013908171 -0.002736557
00000000: dcbd 373a 35e6 e13a daea eb3a 54a1 c0ba
00000010: 0340 8dba 6fe7 5738 84e4 ca3a 5563 02bb
00000020: 624d f2b9 905b 033b 787a 3cb9 fab6 2cb9
00000030: 55f6 a7ba ef23 b83a 144c b63a cf57 33bb

cnn.0.mods.4.weight f4 [32, 16, 3, 3]
0.00076821033 -0.004508205 -0.00078207033 -0.0008020088 -0.0014723934 -0.0021420259 -0.0017244659 -0.00018218356
-0.00021845946 0.0130517585 0.008784898 0.03154996 -0.03522188 0.007830565 -0.018983515 -0.049543012
-0.004257103 0.0012775218 -9.8427176e-05 0.0010297981 0.00034107786 0.00086626573 0.0032396293 -0.0006072644
0.0024722808 0.007002216 0.001327764 0.01669192 -0.018068213 -0.07306169 -0.011175321 -0.063697256
0.068706036 -0.03427863 0.023223184 0.035650846 -0.0030699978 -0.00087910605 0.0050679836 -0.003002636
-0.00036805938 -0.009647341 0.011814734 -0.0001728337 0.004044476 -0.076376565 -0.009842135 0.037253678
0.01734183 -0.012073738 -0.0008817357 -0.016916994 0.01676191 0.00496027 0.014050573 -0.00027395674
0.018467778 0.009492136 0.0037267203 0.0023969752 0.033864003 0.016655618 0.0009833584 -0.048598062
0.06108389 0.041306425 0.051707406 0.020166235 -0.03427961 0.07724154 -0.14311664 0.0399338
0.002237718 -0.012790862 -0.034467276 -0.014077208 -0.037085786 -0.012951353 0.037244443 -0.026551029
-0.006912813 0.0010180202 0.0022223461 0.00032214564 0.00077788316 -4.1751588e-05 -0.00030729832 -0.0005931948
-0.0010592901 -0.00088449434 -0.00043938754 -0.0008520528 0.016333299 -0.0012889605 -0.00034689665 0.0004616671
-0.0030628338 -0.0025619883 0.011700618 0.0013482407 0.008068994 0.0014785379 -0.008097214 0.0042188736
0.002981926 0.0044084224 -0.002518179 -0.0022593366 -0.035320528 0.007643895 -0.01394017 -0.013340281
-0.0023501639 0.020402834 -0.0024796387 -0.009315781 -0.0011631425 -0.0028197847 0.00016436446 0.0012901945
-0.007881371 -0.0001536348 -0.00792725 -0.010176927 -0.0009767459 0.005349505 -0.003306054 0.010593584
0.017086677 0.0016413208 0.024917524 0.025066275 -0.04079848 -0.02682902 0.026311172 0.012571725
-0.0052296505 0.0011449009 -0.010769615 -0.03741524 0.017705183 0.004561938 0.0074208747 0.0018536459
0.09709938 -0.017544523 0.021342078 -0.043265786 0.02190064 -0.03340631 0.12464584 -0.08049482
-0.09432712 0.04184022 0.04249438 0.020351646 0.008059374 0.10339549 0.055847995 0.03561531
0.106989615 0.027821762 0.043823816 -0.00071946235 -0.048578314 -0.026273204 -0.031638835 -0.11074734
0.04250401 0.021593798 -0.016436318 0.16865388 0.08684147 -0.047553614 -0.020340519 0.0034236477
0.020077057 0.08940741 0.019968307 0.063185915 0.05298885 -0.04211576 -0.070957996 0.055105146
0.08678513 -0.020268893 0.031390183 0.03684188 0.005632374 0.036844887 0.0021639364 -0.0396577
0.040462248 -0.0050931047 -0.147644 -0.0048458837 0.03983688 -0.105269305 0.026265383 0.054939084
-0.034670707 0.064870335 0.045752503 -0.07540188 -0.055007983 -0.0247581 0.019354831 0.062537245
0.03334196 0.04921747 -0.037988316 0.054033656 0.038973797 0.039475948 0.08737811 0.066027105
-0.0023072737 -0.070051104 -0.05893009 0.058333844 0.040197033 0.10430874 0.014421994 -0.08759373
0.06384618 0.03188191 0.10353291 0.008777229 -0.0024788107 0.044967942 0.054367032 -0.017015263
-0.07485989 -0.0455381 -0.027844053 0.044852402 -0.043790124 0.013654459 0.049843505 -0.1086005
-0.008700724 0.028916692 0.09611066 0.034175444 -0.07135096 -0.01699506 -0.02163565 -0.06003181
0.06582696 0.035315882 -0.037910555 -0.062736824 0.10925319 -0.026727105 0.10648812 -0.0014262303
00000000: b961 493a 91b9 93bb da03 4dba e63d 52ba
00000010: 53fd c0ba 3b61 0cbb 7907 e2ba 8708 3fb9
00000020: 4412 65b9 0bd7 553c 88ee 0f3c 883a 013d
00000030: d144 10bd c54b 003c 5183 9bbc 9ded 4abd
00000040: 2b7f 8bbb 8572 a73a b06a ceb8 4afa 863a
00000050: b2d2 b239 1c16 633a f64f 543b d330 1fba
00000060: fd05 223b d872 e53b 5e08 ae3a 7ebd 883c
00000070: ca03 94bc 5ea1 95bd b218 37bc b573 82bd
00000080: c0b5 8c3d c067 0cbd 8c3e be3c 9f06 123d
00000090: 0432 49bb cf73 66ba 5411 a63b dfc7 44bb
000000a0: 18f8 c0b9 e20f 1ebc 9692 413c b13a 35b9
000000b0: 8687 843b 516b 9cbd e840 21bc 5097 183d
000000c0: 7410 8e3c edd0 45bc 4824 67ba 8295 8abc
000000d0: 4650 893c c389 a23b 6034 663c daa1 8fb9
000000e0: bd49 973c e784 1b3c fe3b 743b 9216 1d3b
000000f0: fbb4 0a3d 5d71 883c 08e4 803a c30e 47bd
00000100: 1a33 7a3d ed30 293d 25cb 533d a933 a53c
00000110: c768 0cbd d030 9e3d 2b8d 12be a091 233d
00000120: aea6 123b c390 51bc 8f2d 0dbd 17a4 66bc
00000130: 44e7 17bd e931 54bc a18d 183d 8b81 d9bc
00000140: e184 e2bb 176f 853a c8a4 113b a8e5 a839
00000150: dbea 4b3a 6d1e 2fb8 e21c a1b9 a180 1bba
00000160: e1d7 8aba 69dd 67ba 995d e6b9 4c5c 5fba
00000170: 69cd 853c 56f2 a8ba aedf b5b9 e90b f239
00000180: d3b9 48bb 08e7 27bb f3b3 3f3c 73b7 b03a
00000190: d033 043c 80cb c13a 2daa 04bc 7a3e 8a3b
000001a0: 6b6c 433b 8774 903b 0808 25bb 6111 14bb
000001b0: 42ac 10bd a479 fa3b 5065 64bc 3291 5abc
000001c0: 3505 1abb d823 a73c 6f81 22bb 38a1 18bc
000001d0: 9674 98ba 23cc 38bb 4059 2c39 be1b a93a
000001e0: de20 01bc 0719 21b9 4ce1 01bc 20bd 26bc
000001f0: 2706 80ba e74a af3b 62aa 58bb b690 2d3c
00000200: 5cf9 8b3c 9621 d73a d61f cc3c ca57 cd3c
00000210: 4f1c 27bd 88c8 dbbc 878a d73c a3f9 4d3c
00000220: 7d5d abbb 8010 963a 0a73 30bc b940 19bd
00000230: 760a 913c 4f7c 953b cf2a f33b 09f6 f23a
00000240: 0adc c63d 88b9 8fbc 95d5 ae3c 7737 31bd
00000250: f968 b33c 0ed5 08bd 5146 ff3d 78da a4bd
00000260: 942e c1bd a760 2b3d 960e 2e3d 7fb8 a63c
00000270: 770b 043c 04c1 d33d dec0 643d 5ce1 113d
00000280: 5f1d db3d 77ea e33c 9a80 333d 4d9a 3cba
00000290: 0efa 46bd e73a d7bc b997 01bd 80cf e2bd
000002a0: af18 2e3d 7ae5 b03c 75a5 86bc 9ab3 2c3e
000002b0: f1d9 b13d 94c7 42bd 29a1 a6bc 475f 603b
000002c0: a478 a43c 3b1b b73d 9394 a33c 9e67 813d
000002d0: d60a 593d 9381 2cbd 6d52 91bd efb5 613d
000002e0: 67bc b13d f30a a6bc fe92 003d 83e7 163d
000002f0: c78f b83b aaea 163d d4d0 0d3b 1d70 22bd
00000300: bebb 253d 0fe4 a6bb fd2f 17be 38ca 9ebb
00000310: ff2b 233d 6f97 d7bd 802a d73c ce07 613d
00000320: df02 0ebd bdda 843d fa66 3b3d 4d6c 9abd
00000330: 0d50 61bd 80d1 cabc 068e 9e3c 8713 803d
00000340: 9491 083d 4298 493d a399 1bbd 6552 5d3d
00000350: fda2 1f3d 88b1 213d 4bf3 b23d 3839 873d
00000360: a135 17bb f476 8fbd ae60 71bd 78ef 6e3d
00000370: a5a5 243d d29f d53d 3a4a 6c3c 5764 b3bd
00000380: c9c1 823d 9b96 023d 1009 d43d 5ece 0f3c
00000390: 8b73 22bb 4e30 383d f7af 5e3d 9863 8bbc
000003a0: 2450 99bd 2986 3abd 3619 e4bc 27b7 373d
000003b0: 465d 33bd f4b6 5f3c b428 4c3d f069 debd
000003c0: 7b8d 0ebc b3e2 ec3c aad5 c43d 8dfb 0b3d
000003d0: 7420 92bd 3939 8bbc 3f3d b1bc eae3 75bd
000003e0: 49d0 863d 63a7 103d 1948 1bbd 2a7c 80bd
000003f0: 23c0 df3d cdf2 dabc 7216 da3d 59f0 baba

cnn.0.mods.5.weight f4 [32]
0.018981565 0.820836 0.91630733 0.8058778 0.569387 0.027459897 0.13071725 0.35273224
0.2612749 0.4037552 0.008673193 0.9456512 0.5064046 0.6930716 0.39769965 0.31522405
0.24652123 0.39136562 0.69308585 0.34442246 0.42799884 0.72159505 0.25502178 0.48703042
0.55876446 0.43565395 0.07850672 0.69918764 0.071884274 0.1903689 0.46214694 0.7568817
00000000: 3a7f 9b3c 4f22 523f 1e93 6a3f 024e 4e3f
00000010: 59c3 113f 94f3 e03c beda 053e 5299 b43e
00000020: d3c5 853e 00b9 ce3e 021a 0e3c 3216 723f
00000030: bba3 013f 246d 313f 4a9f cb3e 0c65 a13e
00000040: 1070 7c3e 1361 c83e 136e 313f 2458 b03e
00000050: aa22 db3e 74ba 383f 3792 823e 0d5c f93e
00000060: 300b 0f3f 090e df3e 22c8 a03d f6fd 323f
00000070: 1038 933d 11f0 423e 869e ec3e 00c3 413f

cnn.0.mods.5.bias f4 [32]
-0.0005805643 0.006170221 0.005629351 -0.004800449 -0.0023735613 0.0030970238 0.0010842894 0.002281978
6.6906778e-06 0.0028207537 0.010301435 0.0012189752 0.0060696164 0.0003536775 0.0035224382 -0.0017300384
-0.00012230182 0.0041780304 0.0012911712 0.0069344062 0.007854813 -0.0023592543 0.0032088335 0.00802763
-0.00097506057 0.0052235383 -0.0012830013 0.0022370094 0.005624076 -0.0003177113 0.0043017417 -0.0015497134
00000000: 0331 18ba 912f ca3b 6b76 b83b 164d 9dbb
00000010: c08d 1bbb 70f7 4a3b b71e 8e3a 3d8d 153b
00000020: 7c80 e036 65dc 383b 5ac7 283c 05c6 9f3a
00000030: a2e3 c63b ca6d b939 b5d8 663b 75c2 e2ba
00000040: 253e 00b9 dce7 883b 843c a93a 043a e33b
00000050: 79b1 003c b89d 1abb 4b4b 523b 5286 033c
00000060: 359b 7fba 372a ab3b 612a a8ba ca9a 123b
00000070: 2b4a b83b 7d92 a6b9 a0f5 8c3b c11f cbba

cnn.0.mods.7.weight f4 [64, 32, 3, 3]
-0.0032489316 0.0013596276 0.0012283174 -0.0036053522 -0.011286002 0.0028098486 -0.0029408801 0.0048717945
0.0029481167 -0.045289636 -0.04249725 -0.011058985 0.0020586392 -0.021825153 -0.022936858 -0.039651085
-0.058182776 -0.021061273 0.03645326 0.024850748 0.04934603 -0.021292608 0.10181117 0.010138618
0.0068642655 -0.04254351 -0.030353166 0.000961681 -0.003195798 -0.0900238 0.029857393 -0.018715912
0.05923068 -0.02751751 0.0184886 -0.0020561062 0.06851166 0.0708906 0.028270194 0.03543233
0.024721326 0.009731227 0.023167834 0.013799615 -0.024625758 -0.016430454 0.0072383997 -0.0514268
-0.008820743 -0.017707335 0.022168975 -0.029487196 -0.0034288338 0.020739483 0.040079683 0.020296156
-0.025950076 0.055665944 0.00025211292 0.03027343 0.0001631435 -0.0134871695 -0.0312533 -0.030288089
0.071698144 0.059539903 0.042309493 -0.06543921 0.007681508 0.043174665 -0.056937706 -0.00043934287
-0.03647255 -0.0076569067 0.034339525 -0.02013927 0.048933335 -0.0051689646 -0.049577385 0.02768616
-0.013575853 -0.01943965 0.0420516 0.024355128 0.025052289 0.040683128 0.016907802 0.031747542
0.015860971 0.08668707 0.0013072192 0.00021945877 -0.0009725849 0.0028215565 -0.0021488261 -0.0027388074
-0.0012564111 -0.0041389205 -0.004857696 -0.014247131 0.047305435 0.0386193 0.023650661 -0.011819283
0.039456546 -0.02213223 0.022149973 0.06537317 0.035856724 -0.067317925 -0.047325604 -0.05524843
0.035354108 -0.034462117 -0.04974874 0.022346187 0.006000607 0.026643042 0.023698607 -0.043337867
0.04109891 -0.027618682 -0.0030031337 0.030633124 0.038795467 0.026803602 0.0074283434 -0.007393773
-0.06803555 -0.020659786 -0.02374898 0.050385438 0.05066257 -0.014706801 0.053251237 0.058789466
0.09833596 -0.024536705 0.006219769 0.028754547 0.023656605 0.08068157 0.006924222 0.010949376
0.029430617 -0.05051581 0.031312287 -0.042160437 -0.018753212 -0.01904529 0.08114454 -0.037964743
0.0045288485 -0.005222304 0.013164443 0.035410598 -0.034239106 0.065650046 -0.021026302 0.0505375
-0.004842031 -0.006729197 -0.013281333 0.005233397 -0.023163175 -0.0077442257 -0.031121496 0.089506775
0.027283033 0.02772227 0.060467843 -0.011398144 -0.016027777 0.009044632 -0.0060138954 0.053871844
0.0596427 0.04003071 0.0064679226 -0.019996265 -0.011728858 0.016887104 -0.054016817 -0.055012174
-0.05780647 0.0132873105 0.04616651 0.021998508 -0.07624914 0.016502049 0.026716316 -0.021686114
0.047608856 -0.07513999 0.08132296 -0.079249755 0.017991161 -0.014308851 0.022002436 -0.029285356
-0.03691672 0.0275437 0.0808511 0.01653781 -0.026757743 -0.101581514 -0.09102669 0.08790047
-0.100591 0.022224534 0.038117517 -0.024084067 -0.002925186 -0.063033506 -0.028781993 -0.0007129656
-0.062308595 -0.03405521 -0.107324 -0.024480524 -0.014287876 0.118663676 -0.10995289 0.0028193349
-0.006273085 0.018794538 0.029639015 -0.08222714 -0.011987746 -0.017217565 0.02753612 -0.020838035
0.031344827 -0.0016816913 -0.0432937 -0.02261287 0.0023415484 0.018243501 0.047107644 -0.019916901
-0.013029122 -0.03455456 -0.01055976 0.07938822 0.044206016 0.0038528969 -0.012147761 0.07996169
0.006668516 -0.011266638 -0.029282449 -0.04042427 -0.0458066 -0.01571013 0.05099911 -0.029545054
00000000: 07ec 54bb 8835 b23a 7eff a03a c647 6cbb
00000010: ece8 38bc 7025 383b c8bb 40bb 93a3 9f3b
00000020: 3135 413b a081 39bd 9911 2ebd bf30 35bc
00000030: 3cea 063b aaca b2bc 14e6 bbbc 2d69 22bd
00000040: 1051 6ebd b188 acbc 0350 153d cc93 cb3c
00000050: 101f 4a3d d66d aebc 6082 d03d 721c 263c
00000060: a2ed e03b 1b42 2ebd 34a7 f8bc 5219 7c3a
00000070: 9870 51bb 665e b8bd 7e97 f43c 1d52 99bc
00000080: df9b 723d 676c e1bc 6875 973c bdbf 06bb
00000090: d74f 8c3d 172f 913d e596 e73c 7e21 113d
000000a0: 6184 ca3c b96f 1f3c 78ca bd3c c817 623c
000000b0: f5bb c9bc 2999 86bc 1930 ed3b e9a4 52bd
000000c0: e184 10bc f90e 91bc b69b b53c 228f f1bc
000000d0: 49b6 60bb d9e5 a93c 982a 243d 2044 a63c
000000e0: 4195 d4bc f901 643d 062e 8439 fcff f73c
000000f0: 8011 2b39 4af9 5cbc 7603 00bd ba1e f8bc
00000100: 7ad6 923d 1de0 733d b84c 2d3d fe04 86bd
00000110: 29b5 fb3b ebd7 303d 8337 69bd 9a57 e6b9
00000120: 3e64 15bd cae6 fabb 9aa7 0c3d 1cfb a4bc
00000130: 526e 483d 6b60 a9bb a811 4bbd 16ce e23c
00000140: 416d 5ebc e73f 9fbc 4c3e 2c3d 6884 c73c
00000150: 753a cd3c 5aa3 263d 3b82 8a3c b609 023d
00000160: deee 813c fe88 b13d ff56 ab3a 841e 6639
00000170: 11f5 7eba dde9 383b 52d3 0cbb 907d 33bb
00000180: 29ae a4ba c89f 87bb 4f2d 9fbb cc6c 69bc
00000190: 58c3 413d 452f 1e3d 08bf c13c aaa5 41bc
000001a0: 309d 213d a74e b5bc dc73 b53c 5ee2 853d
000001b0: 80de 123d fbdd 89bd 7ed8 41bd 2e4c 62bd
000001c0: 78cf 103d 2628 0dbd 56c5 4bbd 5a0f b73c
000001d0: bda0 c43b 8242 da3c 9523 c23c 0c83 31bd
000001e0: 5557 283d 9340 e2bc 39d0 44bb 51f2 fa3c
000001f0: ffe7 1e3d 3a93 db3c 7669 f33b 7747 f2bb
00000200: 3956 8bbd b63e a9bc 398d c2bc f660 4e3d
00000210: 8e83 4f3d cbf4 70bc f81d 5a3d 39cd 703d
00000220: 5d64 c93d 3301 c9bc 34cf cb3b a88e eb3c
00000230: 7fcb c13c 613c a53d 96e4 e23b 0365 333c
00000240: 7a18 f13c aae9 4ebd 5041 003d 6cb0 2cbd
00000250: 56a0 99bc de04 9cbc 1c2f a63d eb80 1bbd
00000260: bc66 943b dc1f abbb adaf 573c b40a 113d
00000270: 4e3e 0cbd 8873 863d 5a3f acbc 6900 4f3d
00000280: e6a9 9ebb 9980 dcbb f399 59bc ea7c ab3b
00000290: b3c0 bdbc 46c3 fdbb 82f2 febc 544f b73d
000002a0: ab80 df3c d019 e33c 21ad 773d 48bf 3abc
000002b0: af4c 83bc f02f 143c 3610 c5bb b9a8 5c3d
000002c0: e74b 743d 3ef7 233d def0 d33b 35cf a3bc
000002d0: 652a 40bc d356 8a3c bd40 5dbd 7254 61bd
000002e0: 7ac6 6cbd 05b3 593c 1819 3d3d 3736 b43c
000002f0: 8228 9cbd 4e2f 873c 2ddc da3c 14a7 b1bc
00000300: 8101 433d ffe2 99bd a78c a63d b24d a2bd
00000310: 3362 933c ac6f 6abc 743e b43c d8e7 efbc
00000320: fd35 17bd 53a3 e13c 4395 a53d 4d7a 873c
00000330: 0e33 dbbc f809 d0bd 346c babd 2905 b43d
00000340: a702 cebd 3a10 b63c 1d21 1c3d f34b c5bc
00000350: 7ab4 3fbb b617 81bd 37c8 ebbc 50e6 3aba
00000360: 4c37 7fbd 7a7d 0bbd afcc dbbd 618b c8bc
00000370: b217 6abc f105 f33d fb2e e1bd 97c4 383b
00000380: 738e cdbb 01f7 993c 85cd f23c b466 a8bd
00000390: 4068 44bc da0b 8dbc 6e93 e13c 87b4 aabc
000003a0: 6f63 003d 326c dcba bc54 31bd a03e b9bc
000003b0: aa74 193b 6573 953c f2f3 403d c528 a3bc
000003c0: 1978 55bc 1589 0dbd d802 2dbc 4b96 a23d
000003d0: 5e11 353d e280 7c3b 6707 47bc f4c2 a33d
000003e0: 9183 da3b b497 38bc bfe1 efbc eb93 25bd
000003f0: b49f 3bbd 88b2 80bc 71e4 503d 7808 f2bc

cnn.0.mods.8.weight f4 [64]
0.21897621 0.37743962 0.0034400094 0.6059418 0.48909932 0.4139401 0.4361088 0.7839683
0.7324544 0.59267277 0.6576997 0.26490813 0.43282664 0.56593025 0.38531384 0.8019199
0.15166144 0.017938156 0.59936017 0.27688366 0.6499817 0.6366481 0.25236621 0.7990905
0.55212957 0.45059526 0.46238697 0.35823074 0.34372392 0.5949814 0.05621637 0.7320947
0.92453 0.23233266 0.4819787 0.5124216 0.6236198 0.7163736 0.5088474 0.073716104
0.9438555 0.43600124 0.4969717 0.45029584 0.79236764 0.66464686 0.05173156 0.63483745
0.25888222 0.4263403 0.6948553 0.369476 0.14297615 0.38148886 0.95696604 0.6502996
0.31657934 0.9071761 0.27856827 0.14495768 0.47935 0.24140951 0.2263219 0.40441418
00000000: 4d3b 603e c43f c13e c871 613b 001f 1b3f
00000010: 3a6b fa3e f5ef d33e a749 df3e 26b2 483f
00000020: 2282 3b3f 67b9 173f 025f 283f 0aa2 873e
00000030: 749b dd3e cee0 103f db47 c53e 9f4a 4d3f
00000040: 234d 1b3e 0af3 923c ab6f 193f b2c3 8d3e
00000050: 3365 263f 5ffb 223f 2536 813e 3291 4c3f
00000060: 5d58 0d3f 6cb4 e63e fcbd ec3e 056a b73e
00000070: 95fc af3e b350 183f 2343 663d 8f6a 3b3f
00000080: 00ae 6c3f 9de8 6d3e eac5 f63e 102e 033f
00000090: 8ca5 1f3f 4364 373f d343 023f 78f8 963d
000000a0: 84a0 713f 8e3b df3e 1373 fe3e 2d8d e63e
000000b0: 9bd8 4a3f 4c26 2a3f 79e4 533d b584 223f
000000c0: 368c 843e 4749 da3e 09e2 313f f52b bd3e
000000d0: 5768 123e 8252 c33e bafb 743f 097a 263f
000000e0: b016 a23e b13c 683f 80a0 8e3e c96f 143e
000000f0: 5d6d f53e 0e34 773e eec0 673e 600f cf3e

cnn.0.mods.8.bias f4 [64]
-0.002905568 0.0008726866 -0.0037671477 0.0050255903 0.0025537305 0.007474463 0.0020128188 -0.0013826018
0.0016693108 0.0028594644 -0.00021368677 -0.0029189037 0.0018716643 -0.0038948534 0.0017640794 0.0033526935
-0.0031775818 0.0029971832 0.0012164654 -0.0062213303 0.004456178 -0.0009251757 0.00069266756 0.0002274273
-0.0071416185 0.004234837 0.0051350556 0.00868055 -0.0062286174 -6.630771e-05 -0.0004129801 0.010345254
0.0059386794 -0.006740339 0.0018041964 0.00524091 0.005395821 -0.0019174807 -0.0015661586 -0.0014435005
0.0006319383 0.0010965404 -0.0046080244 0.0013724514 0.008484962 -0.004366592 -0.008438588 0.0028865072
0.00724665 0.0042944322 0.004833393 0.001855912 0.0030880899 -0.00013730416 -0.0026072697 0.00010856476
0.0034732095 0.0030147166 -5.3545107e-05 -0.0012675923 0.0044776252 0.0062498 -0.00096001494 -0.00048328517
00000000: 586b 3ebb 02c5 643a 40e2 76bb b5ad a43b
00000010: 7d5c 273b 57ec f43b 7fe9 033b 6b38 b5ba
00000020: c7cc da3a da65 3b3b 1b11 60b9 144b 3fbb
00000030: a252 f53a cc40 7fbb af38 e73a ddb8 5b3b
00000040: fa3e 50bb 646c 443b ce71 9f3a 4ddc cbbb
00000050: 2105 923b 7d87 72ba 2294 353a 8d79 6e39
00000060: 3d04 eabb 63c4 8a3b f843 a83b de38 0e3c
00000070: 6e19 ccbb ae0e 8bb8 4085 d8b9 247f 293c
00000080: 4199 c23b 10de dcbb c97a ec3a f1bb ab3b
00000090: 6dcf b03b fa53 fbba 9047 cdba d733 bdba
000000a0: a9a8 253a cab9 8f3a e9fe 96bb d4e3 b33a
000000b0: 8304 0b3c a115 8fbb 0142 0abc 8e2b 3d3b
000000c0: 4e75 ed3b 4fb8 8c3b 7061 9e3b 1342 f33a
000000d0: 8d61 4a3b 4ef9 0fb9 bade 2abb 43ad e338
000000e0: c99e 633b 8d92 453b 9f95 60b8 5725 a6ba
000000f0: 0bb9 923b 1fcb cc3b 83a9 7bba 7061 fdb9

cnn.1.blocs.0.weight f4 [64, 64, 3, 3]
-0.00083113945 0.017018545 0.031029629 -0.04583475 -0.004391733 0.023172555 -0.0023532682 0.014173002
-0.041636366 0.023406684 -0.03504578 -0.008049586 0.009419352 0.025496121 -0.03703163 0.013247509
0.027668197 -0.0133997705 -0.00025548175 3.482171e-05 0.00021957363 3.312222e-05 0.0002388278 -0.00012479251
-0.0005124626 -0.00034022552 -0.00019020759 -0.05460314 0.0008539367 -0.0020634837 0.01963105 -0.007910934
0.037540536 0.039805986 -0.0432338 0.004845402 -0.0057543097 0.034960523 0.093906365 0.03532389
0.021279622 0.028377224 0.008208602 0.012534673 0.012537574 0.01993697 0.0039056027 0.019454377
0.04031555 -0.062197376 0.043209374 -0.0055678976 -0.010487131 -0.01019815 0.011691349 -0.008058738
0.040766433 -0.050900407 0.0005295989 0.080320016 0.026264103 0.022104632 -0.024485243 0.0033309388
-0.025759604 -0.035513613 0.0137880035 -0.02870058 -0.023218172 -0.008591228 -0.029826712 -0.007820056
0.018830476 0.05868917 -0.0058555645 0.03181597 0.0035463392 -0.07051384 0.018843872 -0.025440848
-0.0054882406 0.058325812 -0.012602348 0.03282876 0.008202463 0.024641955 0.02299899 0.026203774
0.052460305 0.033464827 0.05688132 -0.006665785 0.034555998 0.004949405 0.02584618 0.05474336
0.00499745 -0.0009579617 -0.048509937 -0.013781193 -0.03415573 -0.034125533 0.011045315 -0.06347855
0.034771115 0.01658668 0.008228776 0.009644786 -0.018813305 -0.068623014 -0.008790992 0.024428373
-0.0050858073 -0.012245692 0.00817125 0.016326617 0.05646166 -0.00059536425 -0.0047812457 0.011045708
0.011447057 -0.010586571 -0.04711629 0.07873663 0.026962837 -0.009415757 0.007984006 0.0031214051
-0.005827471 0.036652308 0.04663496 0.04730468 -0.021946343 0.041183606 0.019779073 -0.03325653
-0.025875581 -0.009020409 -0.022992983 0.04211379 -0.0077572516 0.007389503 0.0043639657 -0.021595635
-0.0150160445 0.040624302 -0.016010977 -0.06417176 -0.001613065 -0.0126526365 0.022822186 -0.011194305
0.026254185 0.004629087 -0.004004232 -0.009184564 -0.0022981116 -0.004794693 0.0074588135 -0.0002046203
0.0023168684 -0.012667305 -0.0113915065 -0.0014687857 0.011893718 0.001208753 0.035177693 0.037338942
-0.069433205 -0.027321339 -0.066793755 -0.0049818116 -0.020847945 0.022643264 -0.052442692 0.009117643
-0.00028970922 0.024465512 0.03293951 0.029707907 0.009827699 0.023481898 -0.015676623 -0.034336645
0.0054009445 0.03474046 -0.015047131 -0.002600443 -0.00081416784 -0.049019188 -0.025921542 0.037565548
0.017315747 -0.023194196 0.011053333 0.07620087 0.0580757 -0.025706599 -0.005659498 -0.018742498
0.01494463 0.014588669 0.023025401 0.034419145 -0.006750937 0.016336033 0.005762794 0.022578167
-0.02825934 -0.023842912 0.013242007 0.033233445 0.012946899 -0.0346735 0.043397706 0.023875948
-0.019872472 -0.04840852 -0.044007663 -0.018194655 0.031198649 0.039103653 -0.003289574 0.01968729
0.008833044 0.03634182 0.06815781 -0.026697347 -0.030085374 -0.024149623 0.03586446 0.014611015
0.031556312 -0.028322587 -0.019624636 -0.0004206466 -0.043522146 0.0093525695 -0.008241587 0.0032615662
0.037886318 -0.020103706 -0.04320965 -0.014326008 0.021236872 0.0004248811 -0.024039114 -0.0006708933
-0.0042302683 0.022939395 0.0031201357 -0.009746002 0.0008743734 -0.08058497 -0.017275382 -0.0133293085
00000000: d3e0 59ba 7a6a 8b3c d931 fe3c 38bd 3bbd
00000010: 87e8 8fbb 5fd4 bd3c 4a39 1abb e135 683c
00000020: e58a 2abd 60bf bf3c 2a8c 0fbd 69e2 03bc
00000030: a053 1a3c 3edd d03c 7aae 17bd 140c 593c
00000040: 6aa8 e23c b68a 5bbc 2ef2 85b9 870d 1238
00000050: 593d 6639 b7ec 0a38 d96d 7a39 bcda 02b9
00000060: c856 06ba 4c60 b2b9 7672 47b9 8ba7 5fbd
00000070: b9da 5f3a 833b 07bb 4cd1 a03c dd9c 01bc
00000080: 1bc4 193d 9a0b 233d ed15 31bd 2ec6 9e3b
00000090: a68e bcbb c432 0f3d fb51 c03d c9af 103d
000000a0: 9a52 ae3c 5a77 e83c 5f7d 063c 3b5e 4d3c
000000b0: 666a 4d3c db52 a33c 24f5 7f3b c95e 9f3c
000000c0: eb21 253d adc2 7ebd 50fc 303d e972 b6bb
000000d0: 37d2 2bbc 2416 27bc 128d 3f3c cc08 04bc
000000e0: b4fa 263d f27c 50bd c8d4 0a3a d27e a43d
000000f0: d127 d73c c614 b53c 4795 c8bc e14b 5a3b
00000100: ce05 d3bc b976 11bd 14e7 613c 7b1d ebbc
00000110: 0934 bebc 39c2 0cbc 2657 f4bc b11f 00bc
00000120: 5f42 9a3c 0e64 703d 09e0 bfbb 7651 023d
00000130: b369 683b 8f69 90bd 775e 9a3c 5369 d0bc
00000140: b3d6 b3bb 0ce7 6e3d 147a 4ebc 7377 063d
00000150: a063 063c eddd c93c 6168 bc3c 4ca9 d63c
00000160: 9ee0 563d 6a12 093d 63fc 683d a86c dabb
00000170: 978a 0d3d 9e2e a23b 5ebb d33c 933a 603d
00000180: a6c1 a33b b91f 7bba 5bb2 46bd 83ca 61bc
00000190: e1e6 0bbd 37c7 0bbd 69f7 343c 0b01 82bd
000001a0: 286c 0e3d cae0 873c fdd1 063c 2a05 1e3c
000001b0: 5c1e 9abc 398a 8cbd 1808 10bc 031e c83c
000001c0: d8a6 a6bb 28a2 48bc b5e0 053c 66bf 853c
000001d0: 5744 673d 3812 1cba ffab 9cbb 0ff9 343c
000001e0: 708c 3b3c 4c73 2dbc 03fd 40bd ac40 a13d
000001f0: 2be1 dc3c 8c44 1abc 59cf 023c 7d90 4c3b
00000200: 5ff4 bebb bb20 163d 4d04 3f3d 8dc2 413d
00000210: d1c8 b3bc 24b0 283d b907 a23c 0038 08bd
00000220: 07f9 d3bc 56ca 13bc c85b bcbc 827f 2c3d
00000230: 8b30 febb a523 f23b 99ff 8e3b 54e9 b0bc
00000240: db05 76bc ab65 263d 7429 83bc 7c6c 83bd
00000250: 7b6d d3ba 014d 4fbc 98f5 ba3c 5168 37bc
00000260: 0413 d73c 99af 973b ef35 83bb db7a 16bc
00000270: ea9b 16bb cd1c 9dbb 1069 f43b 588f 56b9
00000280: 9ad6 173b 878a 4fbc 71a3 3abc 4584 c0ba
00000290: dedd 423c 056f 9e3a 7c16 103d b8f0 183d
000002a0: ff32 8ebd 00d1 dfbc 2acb 88bd 773e a3bb
000002b0: 4fc9 aabc 5e7e b93c 26ce 56bd 2b62 153c
000002c0: 1de4 97b9 e66b c83c 94eb 063d ff5d f33c
000002d0: 5b04 213c 1c5d c03c 436c 80bc 95a4 0cbd
000002e0: 68fa b03b 034c 0e3d 3e88 76bc 326c 2abb
000002f0: e16d 55ba 58c8 48bd 6a59 d4bc 55de 193d
00000300: c1d9 8d3c c101 bebc 0a19 353c 340f 9c3d
00000310: c9e0 6d3d a596 d2bc 4f73 b9bb de89 99bc
00000320: 52da 743c 5005 6f3c c49f bc3c 17fb 0c3d
00000330: f736 ddbb 25d3 853c d2d5 bc3b d9f5 b83c
00000340: 2280 e7bc 3652 c3bc 01f5 583c cb1f 083d
00000350: 3b1f 543c cd05 0ebd cbc1 313d 7e97 c33c
00000360: 98cb a2bc 0348 46bd 6141 34bd f50c 95bc
00000370: 4f94 ff3c 272b 203d e595 57bb 3d47 a13c
00000380: 79b8 103c 29db 143d 5296 8b3d 65b4 dabc
00000390: 9a75 f6bc 6ed5 c5bc 9de6 123d 0a63 6f3c
000003a0: 3141 013d c504 e8bc d8c3 a0bc 3b8a dcb9
000003b0: 4744 32bd 853b 193c b907 07bc 00c0 553b
000003c0: af2e 1b3d 87b0 a4bc 9afc 30bd a2b7 6abc
000003d0: f3f8 ad3c 93c2 de39 aded c4bc e3de 2fba
000003e0: 109e 8abb 66eb bb3c 317b 4c3b b2ad 1fbc
000003f0: 3536 653a bc09 a5bd 1a85 8dbc 2c63 5abc

cnn.1.blocs.1.weight f4 [64]
0.36790025 0.95244 0.87156105 0.43213844 0.6787098 0.765623 0.20871384 0.6150135
0.19839232 0.61166286 0.41919047 0.30267492 0.22572348 0.6589382 0.42721936 0.51647824
0.7194475 0.019819453 0.4479878 0.41522503 0.44321677 0.07742618 0.20904519 0.95864767
0.124606505 0.090027265 0.39591333 0.8771589 0.032638617 0.3931618 0.726303 0.15219507
0.08829037 0.41342592 0.5236011 0.93914443 0.7809281 0.49073762 0.92520416 0.70905244
0.6274328 0.17680547 0.3470607 0.010520069 0.4428197 0.1332018 0.5268993 0.2505158
0.79002833 0.40360513 0.88406765 0.470768 0.6225441 0.8972145 0.56480175 0.82534343
0.7034277 0.87962234 0.38946185 0.7303848 0.018431691 0.28106993 0.8610766 0.25229067
00000000: 6c5d bc3e 1cd3 733f a01e 5f3f 4041 dd3e
00000010: edbf 2d3f deff 433f 15b9 553e 8671 1d3f
00000020: 5b27 4b3e f095 1c3f 22a0 d63e 35f8 9a3e
00000030: 0e24 673e 2db0 283f 7fbc da3e eb37 043f
00000040: b62d 383f 685c a23c a85e e53e 6098 d43e
00000050: 4fed e23e 9e91 9e3d f10f 563e ef69 753f
00000060: b231 ff3d 3760 b83d 27b5 ca3e 7c8d 603f
00000070: 12b0 053d 814c c93e feee 393f 06d9 1b3e
00000080: 95d1 b43d 90ac d33e b90a 063f c56b 703f
00000090: e7ea 473f f641 fb3e 2eda 6c3f 7684 353f
000000a0: 709f 203f 7e0c 353e f1b1 b13e 5e5c 2c3c
000000b0: 44b9 e23e 0d66 083e dfe2 063f 9b43 803e
000000c0: 4c3f 4a3f 55a5 ce3e 4252 623f 8108 f13e
000000d0: 0d5f 1f3f d9af 653f d996 103f b549 533f
000000e0: d613 343f ee2e 613f 8b67 c73e 80fa 3a3f
000000f0: 0ffe 963c 66e8 8f3e 846f 5c3f 3e2c 813e

cnn.1.blocs.1.bias f4 [64]
-0.0020124093 -0.00018906669 -0.0011943796 0.0066820355 0.0004789985 0.00070049043 0.0050815623 -0.0002804468
0.008968941 0.0011501344 -0.0024184668 0.0067464174 0.00048642373 0.0066678235 -0.00021742635 0.0064042034
0.0008855989 0.0016615614 -0.0009402388 0.0018753043 0.006356886 0.003943156 0.0017399318 0.00024552247
0.004498411 0.009398835 -0.0013379874 0.0019059237 0.0089343395 -0.000100117235 0.0031085438 0.007203278
0.009237723 0.0026021686 0.0042629214 0.0008919783 -0.0020396095 0.012717524 0.0011051961 0.0026396376
-0.004412953 0.0049841693 0.009247343 0.004531049 0.00066847523 0.0034122374 0.0021979294 -0.00037044662
0.0072274194 0.0037331544 -0.000996151 0.007255929 0.0015367619 0.00037693532 0.0016867166 -0.00077604287
0.0033594475 0.00020941334 0.006927606 0.0023044527 0.0042113033 0.0024676106 0.0023038106 2.7535425e-05
00000000: a0e2 03bb 3440 46b9 bb8c 9cba faf4 da3b
00000010: 1722 fb39 1ea1 373a 3c83 a63b ef08 93b9
00000020: 77f2 123c 1bc0 963a 247f 1ebb 0d11 dd3b
00000030: b006 ff39 c27d da3b f1fc 63b9 5ada d13b
00000040: 8927 683a c0c8 d93a 5c7a 76ba c5cc f53a
00000050: 6d4d d03b 9735 813b 6c0e e43a 78b9 8039
00000060: 6867 933b 92fd 193c 685f afba 30d0 f93a
00000070: 5661 123c 08f6 d1b8 b6b8 4b3b 7a09 ec3b
00000080: d259 173c 2589 2a3b faaf 8b3b a7d3 693a
00000090: f8aa 05bb 295d 503c 3adc 903a c5fd 2c3b
000000a0: 889a 90bb 3e52 a33b 2b82 173c 3279 943b
000000b0: 9d3c 2f3a d89f 5f3b 230b 103b 8138 c2b9
000000c0: fdd3 ec3b f0a7 743b 4891 82ba 25c3 ed3b
000000d0: 2c6d c93a 679f c539 d114 dd3a 5b6f 4bba
000000e0: 2d2a 5c3b f795 5b39 f900 e33b 4d06 173b
000000f0: f9fe 893b a3b7 213b 87fb 163b e0fb e637

cnn.1.blocs.3.weight f4 [64, 64, 3, 3]
0.008358404 -0.028074037 -0.025377031 -0.028626885 0.06672221 -0.03915659 -0.021014191 0.049503107
0.015510247 -0.02604068 -0.030725999 -0.01167538 0.0059166485 0.0034776505 0.004094294 -0.09503476
-0.009558544 0.018986013 -0.008114834 -0.024255103 0.03524725 -0.032995738 0.04752858 0.038505573
-0.028503098 0.046524588 -0.01529573 -0.032787118 0.052962586 -0.006031967 0.0043148273 -0.001125719
-0.008123529 -0.07239268 -0.015079899 -0.0120764505 0.001076555 0.002231861 0.0147103565 -0.051196255
-0.013234417 0.015003062 0.046596717 0.0008677514 0.0330547 0.025027717 0.0033407388 0.012340877
-0.021753551 -0.038154274 -0.035023995 0.023728875 0.047425494 0.0146734845 0.02106129 0.0024933883
-0.049568284 -0.031391256 -0.023771537 -0.018567858 0.015295229 0.032773566 -0.016553232 -0.029812358
-0.011300916 0.033790134 0.010979305 -0.008563314 0.025794309 0.03119464 0.020314388 0.058034703
0.012245731 -0.04465466 -0.0039050858 0.014484022 -0.005185224 0.03958796 -0.0088046305 0.029838108
0.014799381 0.005419072 -0.034317996 -0.029625878 -0.0339716 0.024436545 0.031663433 0.018301852
0.026133504 -0.029369885 -0.0098086 0.03810902 -0.007648205 -0.015552899 0.0086250035 -0.017069083
0.063424475 0.014664772 0.008890171 -0.03475887 0.015600054 -0.030342698 0.0072688526 0.047623627
0.0030796067 -0.014586334 -0.012005244 -0.0020810047 -0.010109413 0.04291939 0.008783717 0.0028277861
-0.0042396737 -0.011698376 -0.02750373 -0.049971446 0.0059857527 0.023032038 0.000589162 0.07935586
-0.023492796 0.011186763 -0.041172028 0.073882625 0.007725795 -0.007996166 -0.0031177385 -0.014080314
0.005348117 0.0080511235 0.024412667 -0.051258903 0.043611616 0.036298428 0.0059674033 -0.025974294
0.010865558 -0.008510642 -0.01252835 0.04603099 0.031072875 -0.0572461 0.03640241 0.022214435
-0.026578458 -0.006295788 0.01939513 0.018878583 0.01757174 0.010749469 -0.036933713 0.017632676
0.010404777 -0.005706443 -0.0016058156 -0.003936793 -8.325709e-06 0.000941646 -0.006303548 -0.008812612
0.0008524851 0.009847523 -0.053212754 -0.036132105 -0.030136349 -0.093397945 -0.030701784 0.02069321
0.030407744 -0.048212487 0.055667907 -0.011692858 -0.0040127 -0.017059427 -0.0010900703 -0.06558586
0.010098498 -0.0035176505 -0.0051779347 0.025860379 0.010405481 -0.0043774936 -0.05333102 0.028608106
0.057731688 -0.054992393 0.072695725 -0.013426857 0.009160912 -0.031435687 0.034564942 -0.020021101
-0.02381028 -0.021039052 -0.018234001 0.020463448 0.002936029 -0.014941857 0.0003744745 0.018960737
-0.05520231 -0.017174331 -0.066744536 0.0005515005 -0.0011311332 0.008627021 -0.046036273 0.044951662
0.029149603 -0.05692209 -0.03769363 0.020540457 -0.011779061 0.019661572 0.006427261 -0.0034631516
-0.03324043 0.008500847 -0.009102551 0.017138533 0.010119257 -0.022873888 -0.018090077 -0.02231719
0.04456207 -0.01569694 -0.0048065963 0.0021938134 0.033871386 -0.00439661 -0.02757477 -0.05344577
-0.025943257 0.020319853 0.009380864 -0.033885345 -0.013552095 -0.0264227 -0.030181108 -0.0073653436
-0.035235744 0.0031251844 0.073325664 0.04410747 -0.002240026 0.02456432 -0.01932233 0.03196425
0.0386347 0.068023376 -0.030091442 0.035186328 0.0006573511 0.007553226 0.011378007 -0.0064985417
00000000: b0f1 083c 86fb e5bc 7ee3 cfbc ee82 eabc
00000010: a7a5 883d a962 20bd f425 acbc c5c3 4a3d
00000020: b11e 7e3c 4453 d5bc 17b5 fbbc 184a 3fbc
00000030: 72e0 c13b 4be9 633b 6d29 863b 96a1 c2bd
00000040: 709b 1cbc 8e88 9b3c 15f4 04bc a3b2 c6bc
00000050: 6c5f 103d 8a26 07bd 54ad 423d 05b8 1d3d
00000060: 547f e9bc 9190 3e3d f19a 7abc c94b 06bd
00000070: 4cef 583d cea7 c5bb 6563 8d3b dd8c 93ba
00000080: 8d18 05bc 9d42 94bd ae11 77bc 4edc 45bc
00000090: 311b 8d3a 6a44 123b b503 713c 2ab3 51bd
000000a0: 2bd5 58bc 67cf 753c 33dc 3e3d d079 633a
000000b0: 5d64 073d ed06 cd3c 4cf0 5a3b 6431 4a3c
000000c0: 8134 b2bc a847 1cbd 5275 0fbd 0f63 c23c
000000d0: 3c41 423d 0e69 703c ba88 ac3c 1d68 233b
000000e0: 1d08 4bbd 1e94 00bd 87bc c2bc 9f1b 98bc
000000f0: d798 7a3c 933d 063d a59a 87bc 0c39 f4bc
00000100: 7a27 39bc 8667 0a3d 8be2 333c 244d 0cbc
00000110: 964e d33c e78b ff3c 5c6a a63c ccb5 6d3d
00000120: 52a2 483c cee7 36bd 78ec 7fbb 644e 6d3c
00000130: d0e8 a9bb fc26 223d 4c41 10bc 0c6f f43c
00000140: 1a79 723c 7992 b13b 0791 0cbd f8b1 f2bc
00000150: ce25 0bbd 262f c83c 84b1 013d c4ed 953c
00000160: ee15 d63c 1d99 f0bc 40b4 20bc 3418 1c3d
00000170: cb9d fabb 96d1 7ebc e34f 0d3c 76d4 8bbc
00000180: b1e4 813d 8344 703c 14a8 113c 515f 0ebd
00000190: 5e97 7f3c 4091 f8bc 8e2f ee3b fe10 433d
000001a0: 3ad3 493b 85fb 6ebc a5b1 44bc 7761 08bb
000001b0: f4a1 25bc 3ecc 2f3d 94e9 0f3c 6152 393b
000001c0: f6ec 8abb 8caa 3fbc 814f e1bc dcae 4cbd
000001d0: 2224 c43b afad bc3c fe71 1a3a 5385 a23d
000001e0: f773 c0bc af48 373c 00a4 28bd c64f 973d
000001f0: aa28 fd3b 5a02 03bc f952 4cbb 1eb1 66bc
00000200: 423f af3b dce8 033c 13fd c73c dbf4 51bd
00000210: 18a2 323d a9ad 143d 358a c33b 0bc8 d4bc
00000220: 7405 323c 3870 0bbc b543 4dbc fe8a 3c3d
00000230: 8b8c fe3c e37a 6abd b21a 153d 0cfb b53c
00000240: 11bb d9bc e64c cebb 89e2 9e3c 42a7 9a3c
00000250: 9cf2 8f3c 8a1e 303c ce47 17bd 6772 903c
00000260: cc78 2a3c 1dfd babb 3b7a d2ba 3700 81bb
00000270: a6ae 0bb7 cbd8 763a fe8d cebb c662 10bc
00000280: 4e79 5f3a 8157 213c 9ef5 59bd 42ff 13bd
00000290: 81e0 f6bc 6c47 bfbd 4f82 fbbc cf84 a93c
000002a0: a919 f93c 757a 45bd 0804 643d 6793 3fbc
000002b0: f87c 83bb 36c0 8bbc b1e0 8eba e151 86bd
000002c0: 2c74 253c 6288 66bb aaab a9bb 25d9 d33c
000002d0: c07b 2a3c 1471 8fbb a171 5abd 8c5b ea3c
000002e0: 1078 6c3d b43f 61bd 7fe1 943d 52fc 5bbc
000002f0: a617 163c b5c2 00bd f893 0d3d 4b03 a4bc
00000300: c70d c3bc 175a acbc 795f 95bc f6a2 a73c
00000310: 656a 403b b1ce 74bc 1e55 c439 8c53 9b3c
00000320: d11b 62bd 2fb1 8cbc 5cb1 88bd 9292 103a
00000330: 8842 94ba 5958 0d3c 8890 3cbd 3c1f 383d
00000340: 26cb ee3c 2327 69bd a364 1abd 7644 a83c
00000350: f6fc 40bc 4e11 a13c c69b d23b 0bf6 62bb
00000360: 1e27 08bd 2347 0b3c de22 15bc 1c66 8c3c
00000370: 3dcb 253c 0562 bbbc a431 94bc 8ad2 b6bc
00000380: b886 363d de96 80bc a780 9dbb 15c6 0f3b
00000390: b9bc 0a3d 7011 90bb 7ce4 e1bc f4e9 5abd
000003a0: f486 d4bc d275 a63c 32b2 193c 5ccb 0abd
000003b0: 9b09 5ebc 6b74 d8bc 5f3e f7bc fb58 f1bb
000003c0: 5b53 10bd e5cf 4c3b c42b 963d 09aa 343d
000003d0: 66cd 12bb 1d3b c93c dd49 9ebc f2ec 023d
000003e0: 6b3f 1e3d d74f 8b3d 5482 f6bc 8a1f 103d
000003f0: 1652 2c3a 0d81 f73b d26a 3a3c b8f1 d4bb

cnn.1.blocs.3.bias f4 [64]
1.2603552e-06 -4.800843e-08 5.7206637e-07 -2.847287e-06 -1.7012968e-06 4.6438836e-07 -2.6687667e-07 1.5817699e-07
-7.320887e-07 -5.552496e-07 6.1682375e-09 -6.842995e-07 -3.5919777e-07 -1.03966954e-07 -1.2740201e-09 1.7204161e-07
-5.3193554e-07 2.0914018e-07 4.178655e-07 -6.2966046e-07 -8.234352e-07 -1.0537868e-07 5.242462e-10 8.8478785e-08
-3.6479907e-08 5.946402e-07 2.1202219e-08 7.048714e-07 -3.6406739e-06 -4.3046174e-07 2.0404473e-06 6.818798e-07
-1.233729e-06 1.085555e-06 3.3677173e-07 -1.03754346e-07 1.1732374e-07 4.4961777e-08 3.5858028e-09 -7.0313874e-08
-3.6969325e-08 -4.3664738e-07 1.5100548e-07 -8.882453e-08 -2.4283686e-08 1.2565951e-07 1.3463799e-06 9.958739e-08
6.454833e-07 -6.0116726e-08 -1.3136402e-06 6.0154366e-07 -2.7645601e-06 -1.8539199e-06 -1.8542339e-07 4.9052947e-08
-3.205843e-07 4.706724e-08 2.1731981e-07 2.1092544e-06 1.0014434e-07 5.594823e-08 3.4912304e-07 -8.215085e-09
00000000: 7a29 a935 d431 4eb3 1a90 1935 0514 3fb6
00000010: 1d58 e4b5 0d51 f934 4047 8fb4 5cd7 2934
00000020: c184 44b5 760c 15b5 64f0 d331 b4b0 37b5
00000030: c4d7 c0b4 7044 dfb3 9919 afb0 70ba 3834
00000040: 55ca 0eb5 0490 6034 ff56 e034 f005 29b5
00000050: 090a 5db5 8b4c e2b3 8c1a 1030 ba01 be33
00000060: 15ae 1cb3 5d9f 1f35 2c20 b632 6536 3d35
00000070: 4d52 74b6 361a e7b4 9eee 0836 6c0a 3735
00000080: 9b96 a5b5 63b3 9135 8ecd b434 8ecf deb3
00000090: 68f3 fb33 ff1b 4133 1c6a 7631 76ff 96b3
000000a0: 34c8 1eb3 5c6c eab4 1224 2234 cdbf beb3
000000b0: 6498 d0b2 06ed 0634 43b5 b435 bfdc d533
000000c0: 4645 2d35 8519 81b3 5550 b0b5 c479 2135
000000d0: c886 39b6 34d4 f8b5 cb18 47b4 49ae 5233
000000e0: c51c acb4 fa26 4a33 6a58 6934 b78c 0d36
000000f0: ef0e d733 bb4b 7033 1b6f bb34 5322 0db2

cnn.1.activationF.0.weight f4 [64]
0.33838835 0.2708835 0.49759498 0.7020426 0.5666584 0.71723104 0.11373947 0.9260584
0.6545825 0.9119496 0.033606775 0.91596055 0.71213955 0.71526587 0.101514086 0.25084952
0.5239831 0.2013892 0.5572978 0.6127571 0.32817432 0.5552862 0.0054293512 0.61257046
0.15796383 0.40731037 0.04072651 0.19046807 0.5088864 0.7501899 0.9067765 0.20497723
0.8985154 0.8689513 0.87019795 0.24090028 0.3479908 0.5748099 -0.009410249 0.03333863
0.3774259 0.45298442 0.39707097 0.66803026 0.65326655 0.4520673 0.71260494 0.1916527
0.6654365 0.06801467 0.5230439 0.21520872 0.90483224 0.5685221 0.1705188 0.106581405
0.2376294 0.055565596 0.36116955 0.87622505 0.082798816 0.22983748 0.22972612 0.0886274
00000000: 3d41 ad3e 3eb1 8a3e c5c4 fe3e 10b9 333f
00000010: 8610 113f 749c 373f 3df0 e83d 2a12 6d3f
00000020: b892 273f 8775 693f 42a7 093d 647c 6a3f
00000030: c74e 363f aa1b 373f 9ee6 cf3d 596f 803e
00000040: c223 063f f838 4e3e 12ab 0e3f a6dd 1c3f
00000050: 7706 a83e 3d27 0e3f b3e8 b13b 6bd1 1c3f
00000060: 45c1 213e fc8a d03e d7d0 263d 100a 433e
00000070: 6146 023f 720c 403f 8122 683f 8de5 513e
00000080: 1b05 663f 9873 5e3f 4bc5 5e3f 90ae 763e
00000090: da2b b23e be26 133f 722d 1abc 168e 083d
000000a0: f83d c13e 93ed e73e e34c cb3e 0804 2b3f
000000b0: 7a3c 273f 5d75 e73e 476d 363f 9b40 443e
000000c0: 0c5a 2a3f 464b 8b3d 34e6 053f ad5f 5c3e
000000d0: 16a3 673f aa8a 113f 7b9c 2e3e 5a47 da3d
000000e0: 1f55 733e c098 633d 37eb b83e 4950 603f
000000f0: 6d92 a93d 845a 6b3e 533d 6b3e 4882 b53d

cnn.1.activationF.0.bias f4 [64]
0.011080067 0.010531606 -0.0037521706 0.0006328465 0.0143165 -0.00011784652 -0.0044265743 -0.004593678
0.00669413 0.00044760012 0.011359367 -0.005106915 0.004084182 -0.005464918 0.004089551 0.0027409282
-0.005732579 -0.00029560053 0.008852624 -0.0015885968 -0.0013427282 -0.0038402195 0.0014291964 -0.005333318
-0.0011971109 0.006282594 0.012359667 0.0098760165 0.007913496 0.0011696182 0.0026850875 0.00070100266
-0.004658523 -0.0015397444 0.008216906 -0.0060529276 0.0013896293 -0.0013041028 0.005119521 0.011059629
0.0044194674 0.004802551 0.0053364 -0.003969027 0.0044297166 -0.00027665016 0.010491022 0.0023434863
-0.0005543519 0.003979047 0.005231654 0.0033720003 0.006203192 0.0008655669 0.0016004567 0.0014154366
-0.00085063657 0.0018115556 0.007049468 0.0013865454 0.0016365674 2.6452182e-05 0.00054085 -0.00026443566
00000000: 2b89 353c c28c 2c3c fae6 75bb 9ce5 253a
00000010: c18f 6a3c 5e24 f7b8 cc0c 91bb 9086 96bb
00000020: 6f5a db3b dfab ea39 a31c 3a3c e857 a7bb
00000030: 9ad4 853b 0e13 b3bb a401 863b 25a1 333b
00000040: 5cd8 bbbb d5fa 9ab9 990a 113c 7738 d0ba
00000050: 7bfe afba 31ac 7bbb e053 bb3a 1dc3 aebb
00000060: 60e8 9cba 38de cd3b 3380 4a3c 04cf 213c
00000070: 9ca7 013c e04d 993a 4bf8 2f3b 7ec3 373a
00000080: 86a6 98bb 40d1 c9ba 34a0 063c a357 c6bb
00000090: 3924 b63a 6eee aaba a8c1 a73b 7233 353c
000000a0: 2ed1 903b b85e 9d3b f8dc ae3b 9d0e 82bb
000000b0: 2827 913b 5b0b 91b9 89e2 2b3c 2d95 193b
000000c0: ed51 11ba aa62 823b 4b6e ab3b c7fc 5c3b
000000d0: 2544 cb3b 36e7 623a 6ac6 d13a 2c86 b93a
000000e0: 41fd 5eba b871 ed3a 39ff e63b bebc b53a
000000f0: 1782 d63a a1e5 dd37 d4c7 0d3a f4a3 8ab9

psp.0.1.weight f4 [1, 64, 1, 1]
0.014163617 -0.005635859 9.454119e-05 -0.03266597 -0.056580044 -0.006655567 -0.000674854 0.020468961
-0.025345549 -0.036143884 -0.00031264435 -0.007553009 -0.035838187 -0.00017042713 -0.002121601 -0.0030754674
-0.009932142 -0.0019501401 -0.009105238 -0.017934885 -0.001689101 -0.027646745 -7.23854e-05 -0.020660255
-0.004804433 0.004810918 -0.0003477398 -0.012623575 -0.030897988 -0.073097184 0.032447204 0.0017779216
-0.008434676 -8.2286024e-05 -0.015310784 -0.002177084 -0.0064028422 0.0038445457 -0.00017514915 -0.00032750063
-0.007197303 -0.0052389186 -0.012533489 0.06409786 0.00019458785 -0.0020551153 -0.054857135 -0.0013448593
-0.017782124 -0.00028495525 -0.016824117 -0.016865525 -0.052569002 -0.01648188 -0.0029144362 -0.00077109394
-0.002083306 -0.00031593192 0.0050013964 -0.03874902 -0.00052950036 -0.0017545333 0.0022687907 -0.0005588108
00000000: 840e 683c 03ad b8bb 6a44 c638 c1cc 05bd
00000010: 7ac0 67bd f116 dabb afe8 30ba 86ae a73c
00000020: 78a1 cfbc 9c0b 14bd 6aea a3b9 3b7f f7bb
00000030: 10cb 12bd afb4 32b9 8f0a 0bbb c88d 49bb
00000040: 6cba 22bc d89b ffba 232e 15bc 2eec 92bc
00000050: d364 ddba 6d7b e2bc 9ecd 97b8 b23f a9bc
00000060: 816e 9dbb e8a4 9d3b d950 b6b9 1cd3 4ebc
00000070: c71d fdbc fab3 95bd 5ce7 043d 2609 e93a
00000080: 9831 0abc f990 acb8 15da 7abc 69ad 0ebb
00000090: efce d1bb c6f4 7b3b 3ea8 37b9 64b4 abb9
000000a0: 5bd7 ebbb 3cab abbb 4359 4dbc bd45 833d
000000b0: 470a 4c39 1daf 06bb e0b1 60bd fd45 b0ba
000000c0: d1ab 91bc 0c66 95b9 bbd2 89bc 9229 8abc
000000d0: 9852 57bd 0205 87bc 2000 3fbb 3d23 4aba
000000e0: 1388 08bb aaa3 a5b9 c1e2 a33b 4bb7 1ebd
000000f0: 2bce 0aba 5ef8 e5ba feaf 143b 287d 12ba

psp.1.1.weight f4 [1, 64, 1, 1]
-0.013764005 0.041171238 0.025006149 0.10687742 0.043829504 -0.0910344 0.0008773295 0.06535951
-0.056997824 0.023084741 -0.006349397 0.079105824 0.050817408 0.1384551 0.006819489 -0.012411126
0.0012272936 -0.033870198 -0.06872258 -0.006198858 -0.02616533 -0.043715477 -0.00027166356 -0.16781043
0.007523973 0.013261949 0.013611925 -0.0857198 0.04641744 -0.06597925 0.025394844 -0.0042249234
-0.01503393 0.0020034527 -0.03155995 0.0058113798 0.009092033 -0.01606508 -0.0004049749 -0.002404515
-0.026143596 0.038414054 0.06892219 0.03918854 -0.003850996 -0.1628872 -0.057127964 -0.021327242
-0.07896659 0.0026499208 0.070878536 -0.012042491 -0.009133697 0.16372886 -0.0028276925 -0.0015825107
0.015421522 -0.0011716397 0.031627607 0.15886098 0.047746915 -0.049308617 0.003753663 -0.00045065727
00000000: 6c82 61bc 2ca3 283d b2d9 cc3c 8ce2 da3d
00000010: 9186 333d 3e70 babd 96fc 653a 35db 853d
00000020: 8d76 69bd 361c bd3c 9a0e d0bb 3c02 a23d
00000030: ea25 503d 2cc7 0d3e 0576 df3b 0958 4bbc
00000040: 24dd a03a 7abb 0abd 6dbe 8cbd ca1f cbbb
00000050: ad58 d6bc 000f 33bd 116e 8eb9 7fd6 2bbe
00000060: a98b f63b a548 593c 8d04 5f3c dd8d afbd
00000070: 3720 3e3d 2120 87bd d908 d03c 3a71 8abb
00000080: df50 76bc 5c4c 033b 0245 01bd 636d be3b
00000090: c0f6 143c ea9a 83bc d052 d4b9 1195 1dbb
000000a0: 182b d6bc 0e58 1d3d 1427 8d3d 2a84 203d
000000b0: fe60 7cbb e7cb 26be 03ff 69bd 78b6 aebc
000000c0: 3cb9 a1bd 4baa 2d3b c428 913d de4d 45bc
000000d0: 80a5 15bc 8aa8 273e cf50 39bb 3f6c cfba
000000e0: 8daa 7c3c b491 99ba f38b 013d 74ac 223e
000000f0: 4592 433d d5f7 49bd 0400 763b 3246 ecb9
