seg_models/UpNDown.pth (torch_old, 513861 bytes, 27 tensors)

cnn.0.mods.1.weight f4 [16, 3, 7, 7]
000000 d7 d5 96 bc e9 ba 3c 3c 43 22 74 3c 7a 8d 47 3d
       -0.018412514 0.011519172 0.014900747 0.048718907
000010 0f 8a 5b bc 7d 6b ca 3c 90 cf 95 3b aa 24 81 bd
       -0.013399615 0.024709458 0.0045718625 -0.06305821
000020 b6 45 fe 3d 13 ad ad 3d b4 c4 b8 bc c4 be 93 bd
       0.1241564 0.08480277 -0.022554733 -0.0721412
000030 c1 5b 25 bd 70 62 dd bc 13 5e 91 3b 40 4f 23 3c
       -0.040370706 -0.027024478 0.0044362633 0.009967625
000040 a6 12 94 bd 3d f3 f5 bc d9 8a b1 3c 08 ba c8 bc
       -0.072301194 -0.030023212 0.021672653 -0.02450277
000050 f5 4b 97 3d 48 af a9 3d 39 f2 12 3c a3 29 c1 3d
       0.073875345 0.08285385 0.008968883 0.0943177
000060 5b 9c 2d be a7 80 5c bd e6 9a dc 3d 9c 96 e5 bd
       -0.16954176 -0.05383363 0.10771732 -0.11210367
000070 4f ea b9 3c 72 8e 89 3c 4e a5 f7 3d 10 25 d3 3c
       0.022694735 0.016791556 0.12092076 0.025774509
000080 0e 70 22 bc f7 4e 1d 3d 3c 96 d9 bd fe cc 8f 3b
       -0.009914411 0.038405385 -0.10624358 0.0043884506
000090 59 fe 08 bd e4 60 d1 3d 42 c9 80 3d ea d3 19 bd
       -0.03344569 0.102235585 0.06288387 -0.037555613
0000a0 0f 73 b5 bd 3b 13 d2 3c bf 80 1c 3b 19 8d a7 3d
       -0.08859836 0.025643935 0.002388045 0.08181209
0000b0 ab 49 f9 bc 4a 02 84 bd d8 ff 3b bc c2 22 c3 bc
       -0.030430635 -0.06445749 -0.011474572 -0.023820285
0000c0 7f fe 05 bd 95 25 8b 3b ed f1 6c bd cb 7b 9b 3c
       -0.03271341 0.0042464235 -0.057847906 0.018979928
0000d0 a6 8e 11 bd 0b 6e 57 3d 4e 56 04 3c bd 16 2d bd
       -0.03553643 0.05259518 0.008077217 -0.042258013
0000e0 10 3e 39 3d c3 0d 84 3c f7 c4 62 bd dd af cc bd
       0.045225203 0.016119843 -0.05536362 -0.09994481
0000f0 0e ec 11 bd d1 dd f9 3b b2 07 65 3d 4a 8a 37 3d
       -0.03562551 0.0076253195 0.055915542 0.044809617
000100 d7 f3 d9 bc c3 8e 80 bd db 04 10 bd 8c 74 4a bb
       -0.02660553 -0.0627723 -0.03516088 -0.0030892221
000110 30 af c4 bd 09 69 85 bc 16 88 a2 3d e1 19 f5 3d
       -0.09603727 -0.016285436 0.079361126 0.11967827
000120 d4 68 92 bd 46 ab b3 bd 60 26 6b bc 41 c8 22 3d
       -0.07148901 -0.08772902 -0.014352411 0.03974176
000130 04 ff d7 bc 94 c0 44 bd de fb ec 3d db 41 d2 bd
       -0.026366718 -0.04803522 0.11571477 -0.10266467
000140 0d 98 17 3d ec 96 cd 3d 48 5f e0 3d 3f 2c eb bc
       0.03701024 0.10038552 0.109556735 -0.028707622
000150 3a b1 db bc 2f d8 d5 bd cc e5 d3 3b 72 11 1b 3d
       -0.026817907 -0.104416244 0.006466603 0.037858434
000160 67 32 b0 3d d5 47 ce bc 4c f9 ce bd a7 1e 21 be
       0.086033635 -0.025180737 -0.10106143 -0.15734349
000170 d5 58 18 3d eb 93 a4 bd d6 c0 2d 3d 3d 5d d8 3d
       0.03719409 -0.080360256 0.04242023 0.10564659
000180 4b 04 18 3e 0d 56 ba 3c 88 44 01 bd bf 40 be bc
       0.14845388 0.02274611 -0.031559497 -0.023224233
000190 d5 8c 6e bc ea a4 0b bc d4 df 81 bd 65 32 33 bd
       -0.014559944 -0.008523205 -0.0634152 -0.04374923
0001a0 b1 c8 f2 bd 6c 43 1a bd 82 2c de bd 8d a3 5f 3d
       -0.11854685 -0.037661955 -0.10848333 0.054599334
0001b0 fe 10 f7 3c 74 75 dd bc 81 98 83 bd 4d bd 81 bc
       0.03015947 -0.027033545 -0.06425572 -0.015837336
0001c0 8c b5 6f 3d c7 af 01 be 28 32 55 bd 44 09 c4 3c
       0.058522746 -0.1266471 -0.052049786 0.0239302
0001d0 22 3f a6 bc b2 13 44 bc 30 5d ba bc 2e 01 28 3d
       -0.020293776 -0.011967586 -0.022749513 0.04101675
0001e0 85 38 8e 3d 06 eb 86 bd 93 e8 06 3e f8 bc 8f bd
       0.06944374 -0.06587796 0.13174658 -0.07018465
0001f0 7d 80 bf bb 36 32 04 3c c4 67 19 be fe d3 15 bc
       -0.0058441744 0.008068612 -0.1498099 -0.009144781
000200 9a 56 36 bd 39 fc bd 3c 9c b6 12 3b cd b3 9f bb
       -0.044516183 0.023191558 0.0022386676 -0.004873729
000210 2c 19 b2 3c 25 e4 98 bd ff 73 f3 bd e3 d5 94 bd
       0.021740519 -0.0746539 -0.11887359 -0.07267358
000220 49 46 9b 3d 58 0b 2d be 55 8a 3f bd 65 29 bb 3d
       0.07581765 -0.16898859 -0.046762783 0.09138755
000230 e8 3b 90 bc 5d 62 c9 3c 4e 1c 9a bd 18 a2 28 bc
       -0.01760669 0.024583036 -0.0752493 -0.010292552
000240 85 7d 0b bd 3d 90 b3 3d e8 83 43 3d 13 22 ba bd
       -0.03405525 0.08767746 0.047733217 -0.090885304
000250 1c 23 b3 bd 3f 44 25 bd 94 69 c9 3c e3 12 3b 3d
       -0.08746931 -0.040348288 0.024586476 0.04567231
000260 c8 30 b5 3d 55 a2 6a bd d0 07 61 bd 31 a5 c3 3c
       0.08847195 -0.05728372 -0.05493909 0.02388248
000270 62 31 aa bb cb 61 c1 3c 66 db 4b 3d 1b 1d 0c 3c
       -0.005193875 0.023606202 0.04976978 0.008551861
000280 b6 7b 18 3e 02 26 27 3d 54 a3 2c 3d 5c fd b7 bc
       0.14890942 0.04080773 0.04214795 -0.022459678
000290 62 2b 29 3d 21 16 b4 3d de 82 91 3d a2 28 77 3d
       0.04130114 0.08793283 0.07105039 0.060341485
0002a0 c1 f0 ca bd b4 b5 25 bc 1a c4 cd bb 12 fc 5d bc
       -0.099092014 -0.010114122 -0.0062794806 -0.013548868
0002b0 cf 30 6c bd 7b aa 70 bc e4 e1 98 bc 53 fa 23 bd
       -0.057663735 -0.014689083 -0.0186624 -0.04003365
0002c0 49 de cf bc a0 f2 b4 bd 8a 42 1a 3e 8f f3 aa bd
       -0.025374549 -0.088353395 0.15064445 -0.08347236
0002d0 89 a5 93 bd 35 aa 36 3d 67 6c b8 bc 8d 41 5c bd
       -0.07209308 0.044595916 -0.022512628 -0.05377345
0002e0 f3 1d e2 3d f2 f5 98 3c 16 ab 33 3d 57 b1 99 3c
       0.110408686 0.018671963 0.043864332 0.01876132
0002f0 d1 f5 e3 3a 40 2c cc bc 20 1c 3f 3d a0 c6 6f 3c
       0.0017391985 -0.024923444 0.04665768 0.014634758
000300 4b 8a e9 3d 2e 8e 48 3d 9e ca 2a 3d 51 60 5a bd
       0.114033304 0.048963718 0.041697137 -0.05331451
000310 ac 6d 45 3b cd 1e 94 bd 70 77 6b 3c 15 c7 ce 3d
       0.0030125184 -0.07232437 0.014371738 0.10096566
000320 c8 f9 fb 3d ff 34 d9 bc 3e c1 ab 3c 3c 3a 23 bd
       0.12303501 -0.026514528 0.020966168 -0.03985046
000330 d4 e1 ca 3d d9 2b 90 3d 49 b3 12 3d 44 f4 06 3e
       0.099063545 0.07039613 0.03581551 0.13179117
000340 1b 83 0e be 81 e2 03 3e 28 4f ff bc 92 bf 8c bd
       -0.139172 0.12879373 -0.031165674 -0.06872477
000350 6d 86 30 3d 72 ba 94 bd c9 02 10 bc 9a 90 e7 3d
       0.04309695 -0.07262124 -0.0087897265 0.113068774
000360 15 b7 93 bc 6a 28 16 3c bf 92 aa 3d 90 b3 f3 3d
       -0.018031636 0.009164909 0.08328771 0.11899483
000370 cc 7c a2 3d 15 52 1f bd 8f c8 2e bd d7 eb 51 bd
       0.07933959 -0.03889664 -0.042671736 -0.051250305
000380 09 bc 8f 3d b6 59 ca ba 21 b8 c9 bc 5b cf 19 bd
       0.07018287 -0.0015438113 -0.024623932 -0.037551265
000390 b4 49 d7 3b 1a f9 28 bd 0b 90 07 3d a2 16 1d 3d
       0.0065700654 -0.041253187 0.033096354 0.038351662
0003a0 7b 5c cc 3d b3 2a 76 bd 4d 75 d8 bc 5b 06 b8 3b
       0.09978577 -0.060099315 -0.02642312 0.005615992
0003b0 6a 49 52 bd 39 7a 4f 3d bb 7f c2 bc 97 cb 65 bd
       -0.051339544 0.05065367 -0.023742547 -0.05610236
0003c0 f7 63 c5 bc 5d 51 97 bc fc ee 6f 3e 19 4d 1f bc
       -0.024095519 -0.018471414 0.23431009 -0.009722971
0003d0 df 08 ec 3a 09 dc 13 3e 4a 6e 2d bc 5b 54 03 bc
       0.0018008015 0.14439406 -0.010585377 -0.008015717
0003e0 73 89 0f bc af 74 66 3c 0b d3 d8 bc bb bc 3d bd
       -0.008760798 0.0140659055 -0.02646782 -0.046322566
0003f0 9b c1 1d bd c6 cc 0d be e6 8b a1 3d 03 51 61 3d
       -0.038514715 -0.13847646 0.07888012 0.0550089

cnn.0.mods.2.weight f4 [16]
000000 a3 c8 29 3f 26 04 2f 3e f6 df d0 3e 4c fa a8 3e
       0.6632177 0.17091426 0.4079587 0.3300346
000010 a5 62 01 3f 0a f7 ba 3e 79 4e 48 3f 8b fc 4e 3f
       0.50541145 0.365166 0.7824474 0.808541
000020 f9 21 4f 3f 44 25 57 3f 83 67 58 3f 2c f4 d7 3e
       0.80911213 0.8404124 0.84532946 0.42178476
000030 34 cd be 3e df e2 f8 3d 11 de 51 3f 7c 3d 4d 3f
       0.37265933 0.12152647 0.8197947 0.8017194

cnn.0.mods.2.bias f4 [16]
000000 c8 bf da b9 3b 04 92 b9 f4 ae cc 3a fc 18 d7 39
       -0.00041723088 -0.00027850442 0.0015616105 0.0004102661
000010 89 25 88 39 69 e1 17 3a 10 3a fa 39 ce 45 96 39
       0.00025967907 0.00057937816 0.00047726976 0.00028662238
000020 d8 23 13 37 53 59 9d 36 0f 57 8b ba 62 1e 81 3a
       8.770228e-06 4.6893633e-06 -0.0010630804 0.0009850974
000030 cf 57 89 38 b4 2a 81 ba b1 b6 b1 3a 9e a3 26 b9
       6.549025e-05 -0.0009854645 0.0013558475 -0.00015891946

cnn.0.mods.4.weight f4 [32, 16, 3, 3]
000000 cf aa 31 bc ec 35 51 3d fc ec 1f 3d 1c dd a6 3d
       -0.010843947 0.051076815 0.039044365 0.08147642
000010 57 9c 47 3c e8 09 92 bd 8b 1d 66 3c 86 5a 13 be
       0.01218327 -0.07130796 0.0140451295 -0.1439
000020 4f 6c 58 bd 90 49 59 bd bc 85 43 bc 0c 63 e4 bd
       -0.052837666 -0.05304867 -0.01193374 -0.11151704
000030 cd c9 52 3d a5 0b be 3a 0d ac cd 3d be 4b 92 3d
       0.051461983 0.001449932 0.10042582 0.07143353
000040 e4 47 5a bd 6c 1d 3f bd 96 d8 25 3d b2 8b d7 bc
       -0.053291216 -0.04665892 0.040489756 -0.02631173
000050 bb 8e 09 bd 85 45 9b bd bf fc 1c 3e f6 ea ad 3d
       -0.033583384 -0.07581619 0.1533079 0.08492081
000060 6d 9b 62 3d cb a0 52 3d 78 dc 9a 3c ab ea 95 bd
       0.055324007 0.051422875 0.018903956 -0.0732015
000070 a6 2a e5 bd ab 53 b8 3b 58 d3 26 be f0 f4 51 bd
       -0.11189775 0.0056252084 -0.16291559 -0.05125898
000080 e7 92 7c 3d 4a b0 f9 3b b3 f6 d5 3d 0e 05 93 3d
       0.061663534 0.0076198922 0.10447445 0.071786985
000090 7f 36 03 be 94 db 0f bc 68 b5 5a bd d9 8b 93 3d
       -0.12813757 -0.008780379 -0.05339566 0.07204408
0000a0 05 7a d1 3c 9b 14 c3 bc 69 6c 32 3c 95 e6 2f be
       0.025570879 -0.023813536 0.010890105 -0.17177804
0000b0 0e 7d 0c be fa d1 87 3b fb 40 78 3d 92 ff e0 ba
       -0.1371958 0.004144904 0.060608845 -0.001716601
0000c0 5b 69 29 3d 01 28 a5 bb 04 1c 12 bc eb 20 c8 bd
       0.04136024 -0.005040169 -0.008917812 -0.097719036
0000d0 c5 3c 9e 3c 4e 13 6a 3c 37 73 90 3d 9e 54 f5 bc
       0.019316087 0.014286829 0.070532255 -0.029947575
0000e0 d1 21 a4 bc e6 dd ab 3d 5e e4 5c bc ff f6 50 bd
       -0.020035656 0.08391933 -0.013482181 -0.051016804
0000f0 dd 6a aa bd d4 68 8b 3d 9d e7 eb 3c 06 ca 87 3d
       -0.08321164 0.06807104 0.028796965 0.0663033
000100 52 e6 bc bc 35 29 cd bd 84 51 3d bd 6e 29 89 3c
       -0.023059044 -0.10017625 -0.046220317 0.016743388
000110 c9 14 0d bd 0f 8d 3b bd bc 07 21 3d 25 72 c0 bc
       -0.03444365 -0.04578882 0.039314017 -0.023491928
000120 cc f2 0e bd 48 74 0c be 41 93 34 bd d9 49 2a 3c
       -0.034899518 -0.13716233 -0.044085745 0.010393583
000130 67 63 d7 3c c5 cb d0 bc ae 81 88 bd e2 c1 bb 3d
       0.026292516 -0.02548779 -0.066653594 0.091678396
000140 43 f1 b0 bd b0 ad 04 3d ca 55 ca bd 57 24 13 bd
       -0.08639767 0.032392204 -0.09879644 -0.03592333
000150 24 b0 c9 bc 1b 39 e5 bc 49 96 04 3d d7 c1 6e 3d
       -0.024620123 -0.027981332 0.032369886 0.05829033
000160 81 a6 b3 3c 30 83 a6 bc 13 b6 40 3d 73 d6 03 3d
       0.021929981 -0.020326227 0.04704864 0.032186937
000170 b4 76 8c 3d 86 3c bc bc d6 27 30 3d 60 d4 1e bd
       0.06858578 -0.022978079 0.04300674 -0.038776755
000180 59 28 24 3e 13 88 f2 bc 29 5b 15 3d 12 1a a5 bc
       0.16031016 -0.0296059 0.03646389 -0.020154033
000190 ec 31 c1 3d 51 5e 88 3c a5 03 a5 3b d8 f7 59 3d
       0.0943335 0.016646536 0.005035835 0.053214878
0001a0 10 84 b6 bd 6c 40 09 bd 2f d8 92 3d a6 be 48 bd
       -0.08911908 -0.033508703 0.0717014 -0.04900994
0001b0 8f b0 f6 3c c5 75 6a 3d fb 3e bc 3d 41 53 27 3d
       0.030113487 0.05724122 0.091917 0.04085088
0001c0 65 24 0c be 9d dd fa 3d b5 b4 f7 3c fb 90 a5 3c
       -0.13685758 0.12249301 0.030237535 0.020210734
0001d0 18 0f f4 3d a2 d9 e8 ba 04 fe 00 3e 4b 7b 1d 3d
       0.119169414 -0.0017765055 0.125969 0.03844766
0001e0 ad 0f 5e bc 79 2c a0 3d 56 72 2b be b9 d0 87 bd
       -0.013553542 0.078209825 -0.16742834 -0.066316076
0001f0 90 2c 1f bd b4 7a 21 3d fe 21 61 3d 08 db 31 3c
       -0.038860857 0.03942366 0.054964058 0.010855444
000200 dc c3 a1 3d 1f 50 ee bc 9d 60 b7 bc 7d 80 cf 3d
       0.07898685 -0.02909094 -0.022384936 0.10131929
000210 77 f2 56 3c 92 0e db bc 04 53 c2 bd 55 01 bd bb
       0.013119332 -0.026740346 -0.0948849 -0.005767981
000220 d0 37 36 bc c0 b3 34 3d 49 fb 67 bd 3e a7 ea bc
       -0.011121705 0.044116735 -0.05663613 -0.0286442
000230 a7 f5 98 bd e2 8a 41 bc 94 91 39 bc 3a 10 cd bd
       -0.074687295 -0.011812897 -0.011326212 -0.100128606
000240 fe bf bb 3d ec 46 a2 bd 9c 78 cc 3d 7c fe a2 3c
       0.09167479 -0.079236835 0.09983942 0.019896738
000250 17 4a 6d bd 9a 64 88 bc b5 11 88 bc 00 d5 a3 bc
       -0.057931986 -0.016649533 -0.016610006 -0.019999027
000260 5c 75 40 3d a3 6d 00 3b c8 ba 0e 3e 5c 5b 13 3d
       0.046986923 0.0019596599 0.13938439 0.0359758
000270 6d 22 0a 3c c4 c3 2f 3d a9 09 5d bc 9f 84 e8 bc
       0.008431059 0.042911306 -0.013491073 -0.028383551
000280 2d 41 c8 bd 03 de a6 3d 29 f3 16 3d ec ea 4a 3b
       -0.09778056 0.08147814 0.03685299 0.0030962778
000290 4e 27 13 3e 79 18 2b bc b1 e7 8d bd bf 4f a9 3d
       0.14370462 -0.010442846 -0.06928957 0.082671635
0002a0 db b9 e6 3c 9d e8 7c bc 09 11 74 bc 68 47 8e 3c
       0.028164795 -0.015436319 -0.01489664 0.017368034
0002b0 d8 a2 48 bb 67 90 9f 3d fb 67 13 3d 9a e5 2c be
       -0.003061464 0.077912144 0.035987835 -0.16884461
0002c0 46 b5 e2 3c 1b 6a cc 3d 6c 8c b2 3c 1d 5c 23 bd
       0.027674329 0.099811755 0.021795474 -0.039882768
0002d0 9a 2d 07 bd b8 29 ac 3c 3a 4d 20 be 98 ba 91 3d
       -0.033002473 0.021015987 -0.1565446 0.07115668
0002e0 e0 5d c3 3d 31 23 0c 3c 3f ec a3 3d 3b 25 2e bd
       0.095393896 0.008553312 0.08004045 -0.042515974
0002f0 40 33 4e bd 81 e2 28 be e3 5e 20 3d bb 7b 26 bd
       -0.050341845 -0.16492654 0.03915299 -0.040645342
000300 10 fa 8b 3d fe be 15 bc 22 d8 6b bd 05 bb af bc
       0.06834805 -0.009139774 -0.057579167 -0.021451483
000310 f9 cc 84 bd 94 5e ab bd 6e 0f 04 bd 84 4d ce bd
       -0.06484408 -0.08367649 -0.032241277 -0.10073379
000320 9c 3a 74 3c 38 fd cb bc 44 c6 3d bd e2 12 1f be
       0.014906552 -0.024901018 -0.04633166 -0.15534547
000330 cf 28 0c 3d 06 00 51 3c 19 54 6a bc bd cc 9a bb
       0.034218606 0.012756353 -0.014302277 -0.0047241137
000340 4f 6f d8 3c df 5c 73 bb 1c df 89 bd 45 14 9f bd
       0.026420264 -0.0037134213 -0.06732008 -0.07767538
000350 17 72 d0 bb 35 22 81 bd 98 70 38 bc 73 7d 77 3d
       -0.006361257 -0.063053526 -0.011257313 0.060422372
000360 f1 42 73 3b 99 b2 c8 3d 00 32 24 bd df 23 bb bd
       0.0037118758 0.0979969 -0.040086746 -0.09137701
000370 a8 c6 26 3e 49 f8 8a bd c5 f9 db 3d 42 82 91 bc
       0.16286719 -0.06785638 0.10740999 -0.017762307
000380 85 10 47 3d f6 94 24 3d 4b c3 fd 3c 46 c8 d8 3b
       0.04859974 0.040181123 0.030976912 0.0066156713
000390 e4 59 d3 bd 2b d1 b2 bc e2 10 0c 3d 47 f1 76 bd
       -0.1031988 -0.021828255 0.03419579 -0.060288694
0003a0 bb 10 b7 3d b3 be 2c bd c0 44 98 3d a8 e3 06 3d
       0.08938738 -0.042174052 0.07434988 0.032931954
0003b0 09 8d 31 bc 0f a7 f0 bc 0b d9 9c 3c f1 d5 2a 3d
       -0.010836848 -0.029376535 0.019146463 0.041707937
0003c0 3a f3 10 be 3c df 32 3d 0b 9d 29 bd a4 c0 af 3d
       -0.14155284 0.043669924 -0.041409533 0.08581665
0003d0 89 54 80 bc 7d ba f5 bd 0d fa b6 bd 80 fb e9 3d
       -0.01566531 -0.119984604 -0.08934412 0.11424923
0003e0 10 16 fd bd bf a8 54 bb ac 3b 77 3d 4d 1b 93 bc
       -0.12357724 -0.0032449213 0.060359642 -0.017957354
0003f0 a2 d2 35 3d 15 b2 f7 3c 79 ea 78 bc d1 aa 87 bd
       0.04439033 0.030236283 -0.015192621 -0.066243775

cnn.0.mods.5.weight f4 [32]
000000 26 36 00 3f 74 c8 4a 3f 90 94 03 3f 14 7e 63 3f
       0.50082624 0.7921212 0.51398563 0.88864255
000010 ac af 9f 3e 96 85 7f 3e b6 04 41 3f f0 1d 30 3f
       0.31188715 0.24953303 0.75397813 0.6879568
000020 db 31 b6 3e 2a 14 69 3e ea c7 3d 3e 6a 78 41 3d
       0.35584912 0.22761598 0.18533292 0.047233976
000030 a0 13 0e 3f e1 cf be 3e 8a 9c 78 3f 7c b6 23 3d
       0.55498695 0.37267974 0.9711386 0.039968953
000040 42 9b 99 3e e4 a6 3f 3f cb f2 6f 3d 2a ae 6c 3f
       0.30001265 0.7486403 0.058581155 0.92453253
000050 b6 d6 ec 3e 03 c3 2c 3f 62 19 bf 3e 8a fe 5a 3e
       0.4625756 0.67485064 0.37324053 0.21386161
000060 7b 64 72 3f 78 07 0a 3f 00 d5 9d 3d 89 57 5d 3e
       0.9468457 0.53917646 0.07706642 0.21615423
000070 06 ec cf 3e b5 0e 0e 3e 40 cf 75 3f 75 88 b5 3e
       0.4060976 0.13872798 0.96019363 0.3545567

cnn.0.mods.5.bias f4 [32]
000000 38 34 89 b7 c6 ac 51 b9 d1 ab 1e 3b 98 dc 54 ba
       -1.6355989e-05 -0.00019996156 0.0024211297 -0.0008120029
000010 6f b6 f0 38 f1 54 61 ba 0b 4e 4f ba 7e 4b 87 ba
       0.00011478073 -0.0008595726 -0.00079080526 -0.0010322181
000020 87 76 d7 ba c7 42 a1 b9 bc 88 56 39 b9 58 1f ba
       -0.0016438522 -0.00030758066 0.00020459568 -0.00060785894
000030 4c 06 32 ba 3e 63 13 39 60 6c 3f b9 2b e5 b5 3a
       -0.00067910994 0.00014055983 -0.00018255552 0.0013877501
000040 a6 9c 74 38 7b 16 f0 39 3a 09 03 3a 89 22 2d 3a
       5.8320024e-05 0.00045793116 0.0004998628 0.00066045724
000050 1e 19 f7 b8 6b 73 e8 3a 72 c0 84 3a 25 dc a7 b9
       -0.00011782556 0.0017734593 0.0010128154 -0.00032016743
000060 ce 2d 91 3a 63 16 8b b9 77 25 01 b9 b5 74 9b 3a
       0.0011076273 -0.00026528825 -0.00012316355 0.0011860343
000070 db 61 04 b7 f1 56 80 b9 38 4e e2 ba ed c6 a7 3a
       -7.890597e-06 -0.0002447884 -0.0017265743 0.0012800373

cnn.0.mods.7.weight f4 [64, 32, 3, 3]
000000 8a 8d 20 bd 76 24 b4 3d 3f bc 35 3c 78 66 8d bc
       -0.039197482 0.08796017 0.011092245 -0.017260775
000010 bf c7 b5 bc 8e fd c4 3c 4d 34 cd 3d f2 57 f9 bc
       -0.022189973 0.024046686 0.10019741 -0.030437443
000020 0d 54 03 3d 73 78 18 3d da bc 8c 3d ea cc 10 3d
       0.03206258 0.037224244 0.06871958 0.03535167
000030 24 81 90 bc c1 c8 22 bd 66 45 86 3d 03 77 06 3d
       -0.017639704 -0.039742235 0.065562055 0.032828342
000040 e1 6d cc bd d1 8e dc bb 4a 8d ad 3c 29 38 40 3c
       -0.09981895 -0.006730892 0.021185536 0.01173214
000050 00 0b 18 3c 12 3c 13 bd 54 63 9b bc 2b 14 73 3d
       0.009279966 -0.03594596 -0.018968262 0.059345406
000060 e8 6d 9f 3d d2 05 37 be a3 b2 bb bc 32 44 7a 3d
       0.07784635 -0.17873314 -0.022912329 0.061100192
000070 77 18 b6 3d b7 db 6f 3d c5 5e 83 39 ef 79 1e bd
       0.08891385 0.058559146 0.00025056876 -0.038690504
000080 ed 45 c1 bd a5 1d 92 bb 98 e5 14 bc 30 46 f5 3c
       -0.094371654 -0.0044591003 -0.009087943 0.029940695
000090 cf ad 32 bd 00 54 27 3d e1 52 0c 3d 62 0e 30 bc
       -0.043622788 0.040851593 0.034258727 -0.010745617
0000a0 c4 06 29 3a fd 87 fe bc 2b 80 39 3c b9 96 16 bd
       0.00064478465 -0.031070704 0.0113220615 -0.036764834
0000b0 56 57 40 bd d8 15 64 bd d2 61 8c bd 8c a4 8f bd
       -0.04695829 -0.055684894 -0.06854595 -0.07013807
0000c0 8c 46 a3 3d 6c f3 12 3c 58 4b 36 bc 00 50 c9 3c
       0.0797244 0.008969169 -0.011126362 0.02457428
0000d0 c6 c5 f4 bc dd 23 e9 3b 2e e9 3c 3c c4 61 fe bc
       -0.029879462 0.007114871 0.011530204 -0.031052478
0000e0 79 3f da bd d7 c4 fb bc 67 5e 78 3b bd cf 19 3c
       -0.10656638 -0.030733509 0.0037898065 0.009387908
0000f0 6f 9e b6 bc 2a c8 93 3c e4 92 7f bd 46 da ce 3c
       -0.022292344 0.018039782 -0.062395945 0.025250565
000100 a0 31 fe bc 6c 51 eb ba d5 ea 25 bd 2f c1 f7 bd
       -0.031029522 -0.0017953343 -0.040507156 -0.12097394
000110 06 1f 0a 3e db 19 6f bd b0 55 26 3d d7 03 c6 3c
       0.13488397 -0.058374267 0.04060906 0.024171753
000120 cc 9f e4 bb 8d 88 1a 3d 9c 74 09 3b 06 77 45 3d
       -0.006977057 0.03772788 0.0020974046 0.048209213
000130 ed 39 09 3d 0e 21 1a bd 04 3d 35 bd a3 d9 5e bc
       0.033502508 -0.03762918 -0.044247642 -0.013601693
000140 7d 5c fe 3b f9 43 36 bd 48 e2 0b bd 3f e9 8f bd
       0.0077624903 -0.044498418 -0.034151345 -0.0702691
000150 a6 cf 2e 3d d3 84 4d bd 2e 2b 66 bc f5 15 8f bd
       0.042678498 -0.0501755 -0.014048381 -0.0698661
000160 0a e3 51 ba ea 57 ee 3b 4b 37 99 3d ed 7a 51 bc
       -0.0008006549 0.0072736638 0.074812494 -0.012785655
000170 6c f7 fc 3c 23 9d f8 bd c1 9c e0 3d 7c b8 0b 3d
       0.030879699 -0.121393465 0.109673984 0.034111485
000180 25 c3 07 bc 9d 4c 23 bd ea 07 c6 ba a3 47 fa 3c
       -0.008286272 -0.039867986 -0.001510856 0.030551737
000190 7b 27 86 bd a4 f7 79 3c 5d 9d 5c bd 3e ea 1c bd
       -0.06550499 0.015256796 -0.05386101 -0.03830933
0001a0 5c 49 25 bd 07 32 db bc 93 01 e7 3b 7d 20 4e bc
       -0.040353164 -0.026757253 0.007049748 -0.012580988
0001b0 68 d8 5d 3d 97 2c 14 bb 9e f1 ae bc 8b 5f 6b 3c
       0.05416146 -0.0022609585 -0.021355446 0.014366041
0001c0 2e 5f 96 3d 91 31 47 3d 59 02 43 3c 66 ae 33 3c
       0.07342373 0.048631255 0.011902415 0.010966873
0001d0 df 01 29 bd e0 22 dd 3d eb c1 26 bd 5a 52 a4 3c
       -0.04126155 0.107976675 -0.04071228 0.0200588
0001e0 b4 19 0b bd d6 75 f2 bc 0e 7c a9 3d ae c3 3e 3d
       -0.03396006 -0.029597204 0.08275615 0.046573333
0001f0 ce 5d 03 3d b7 ba ce 3b 62 64 25 bc 06 aa c5 bb
       0.03207188 0.0063088792 -0.010094734 -0.0060322313
000200 0c 2d 98 bd 69 69 1e bc d3 5c f6 bb b4 78 74 3c
       -0.07430467 -0.009668686 -0.0075183897 0.014921356
000210 27 40 8a 3c ab 62 58 3d fd 0e 20 bc 5c 3d 42 bc
       0.016876293 0.052828472 -0.0097691985 -0.0118554495
000220 eb 50 6a 3c c4 b3 8d bd 1d 24 7d bc fb f6 48 bd
       0.014301519 -0.06919053 -0.015450505 -0.049063664
000230 f0 7f 77 3d cd a7 04 ba fc 2c 17 bd 1d e2 68 3d
       0.060424745 -0.00050604047 -0.036908135 0.056856263
000240 14 92 cc 3b 52 20 1f bd 62 ee 42 bc d4 65 3c bd
       0.006243 -0.038849182 -0.011897655 -0.04599555
000250 6e 1b 37 3d fb 76 19 3d 24 04 5d 3d a8 ad b3 3b
       0.044703893 0.037466984 0.053959027 0.005483348
000260 58 14 b7 3c 23 09 9b 3d 33 12 90 bc 36 83 44 bc
       0.022348568 0.07570102 -0.017586803 -0.011994174
000270 15 5f 0d bd d2 b0 89 3c eb 00 5c bc a1 05 3f 39
       -0.034514505 0.016807947 -0.013427953 0.00018217276
000280 f5 71 6f bd 8d 66 a5 39 77 32 08 3d 17 27 c9 bc
       -0.058458287 0.0003154766 0.033251252 -0.024554772
000290 6b 05 16 3d cd 4b 59 3b 9a f7 ed 3d 7e 10 09 3d
       0.03662626 0.0033156753 0.11619492 0.033462994
0002a0 b6 dd ba bc 69 09 eb bd 82 c4 06 3b 3d f6 9e 3c
       -0.022810798 -0.11476404 0.0020563905 0.019404525
0002b0 47 ae 80 3d 5b 39 ae 3c ab a7 29 bc dc eb ca 3d
       0.06283241 0.021267584 -0.010354917 0.09908268
0002c0 d6 23 29 bc e2 4d 1b bb cd 0e d1 3b 81 b9 a4 3c
       -0.010323485 -0.0023697545 0.006379938 0.020107986
0002d0 cb b1 8a 3d e3 8e 38 bd 96 da c4 bd 5c 31 66 3d
       0.067721926 -0.045058142 -0.096120045 0.056199417
0002e0 10 ee 0f 3d d3 3d 96 bc f9 cf 5a 3d c0 41 ac 3c
       0.035139143 -0.018340027 0.053420994 0.021027446
0002f0 48 1c 4e 3d c7 39 ab bc 9a 61 25 bd 4e 1d 77 bd
       0.05031994 -0.020901574 -0.040376283 -0.06033068
000300 b7 03 35 bd 1a a6 bb bd ab f6 0f 3d 34 fd cc bd
       -0.044192996 -0.09162541 0.03514735 -0.10009232
000310 be 88 c4 bd 3e 11 9c bc e7 04 02 bc ad 9f 1e 3d
       -0.09596394 -0.01905119 -0.007935739 0.038726497
000320 5d a6 53 3d ad 87 89 3c 9b 45 44 3c a8 f7 88 3c
       0.05167233 0.016788328 0.011979486 0.016719654
000330 5b 8f 1a bd 2a 83 1d bd c2 fd f2 bc 37 f2 ef bc
       -0.03773437 -0.038455166 -0.029662017 -0.029290302
000340 aa 00 9e bc 2c 66 df bd 69 ae 83 bd 55 b2 4b bd
       -0.019287426 -0.109081596 -0.064297505 -0.049730618
000350 73 b4 b7 3c f1 13 2e 3d 71 44 c9 bc 06 b5 32 bd
       0.022424912 0.042499486 -0.024568768 -0.04362967
000360 a9 64 7a bd 44 ba 32 bd 7c 69 0d 3d 0c 0e 23 bd
       -0.061131153 -0.043634668 0.034524426 -0.039808318
000370 fa a4 b9 bc 10 9c 19 bc 17 2b 4c bd 69 5b fb 3c
       -0.022661675 -0.009375587 -0.04984578 0.030683236
000380 a3 30 7e bc 81 ac 80 bd 0e 3b b8 3d 39 d3 0f bd
       -0.015514526 -0.062829025 0.08995639 -0.035113547
000390 ff 73 6f 3c 7f 65 16 3d 77 92 21 3d 55 88 57 bb
       0.014615058 0.036717888 0.03944632 -0.0032887657
0003a0 c8 9c 1a 3d b5 8d e7 3c 43 91 e6 3b 6d 48 ac ba
       0.037747175 0.028265813 0.0070363595 -0.0013144143
0003b0 64 bc 5a bd 5f 4e b5 3c f9 aa 09 bd b2 43 01 3d
       -0.05340232 0.022132097 -0.033610318 0.0315587
0003c0 6f 23 3f 3d 30 92 80 3d c4 8d 46 3d 9d c0 0d 3c
       0.04666465 0.06277883 0.048475042 0.00865188
0003d0 64 d2 4b bd 09 32 4d 3b fe f7 f6 3a a5 6d 38 bd
       -0.04976119 0.003131034 0.0018842218 -0.04502644
0003e0 28 75 ab bc eb 73 b8 3d f0 6c 9e 3c bf 0b 0c bd
       -0.020929888 0.090064846 0.019339055 -0.03419089
0003f0 cb b2 86 bc ea 6e 6c 3a 0b 7e d7 3c dc 95 b9 bd
       -0.016442677 0.0009019213 0.02630522 -0.090617865

cnn.0.mods.8.weight f4 [64]
000000 a4 aa 0b 3f 6b 5e 61 3d 0e 57 3e 3f 2b d7 7d 3e
       0.5455725 0.055021685 0.74351585 0.24789111
000010 66 8a 32 3f d3 16 03 3e f6 fa 1f 3f 98 d5 25 3f
       0.6974243 0.12801675 0.6249231 0.64779043
000020 2a 89 59 3f 5c 66 29 3f d9 0a 6f 3f 83 65 cf 3e
       0.8497492 0.66171813 0.9337593 0.40507135
000030 2a d8 03 3f b6 07 6e 3e ab e4 bb 3e fb d9 13 3f
       0.51501715 0.23245129 0.36697897 0.57754487
000040 5f 5e ea 3e c5 b2 df 3e b2 eb 08 3f c8 ca bc 3e
       0.45775124 0.43691078 0.5348464 0.3687346
000050 63 c0 02 3f 18 6a 46 3f fd 79 46 3e 1e 08 24 3f
       0.5107481 0.77505636 0.19382472 0.64074886
000060 c0 e4 11 3f 4b 48 f6 3e 9b ac 1c 3e bd 57 87 3e
       0.5698967 0.4810203 0.15300219 0.26434126
000070 c9 52 6a 3f 06 27 89 3e 62 7f ca 3e ce f3 4f 3f
       0.9153257 0.26787585 0.3955031 0.8123139
000080 7a d4 31 3f 88 e1 68 3f 14 4f 7e 3e 42 06 4e 3f
       0.6946484 0.90969133 0.24834853 0.804783
000090 40 3e 81 3e b9 17 6f 3f d9 2f 0d 3e b6 42 53 3f
       0.25242805 0.9339557 0.13787784 0.8252367
0000a0 4e e7 b6 3b 60 e8 d3 3d d5 46 1c 3f d5 7c c5 3d
       0.005581773 0.103470564 0.6104558 0.096429504
0000b0 50 b6 96 3e ef ea 9f 3e f3 61 8f 3e c6 39 20 3f
       0.29435968 0.31233928 0.28004417 0.62588155
0000c0 71 1b 57 3f c8 bb 18 3f e6 fe d5 3d 3b 86 40 3f
       0.8402625 0.5966153 0.10449009 0.7520482
0000d0 02 68 86 3e af d8 17 3f 23 80 03 3f 10 21 e6 3e
       0.26251227 0.5931501 0.51367396 0.449471
0000e0 18 de bd 3e 46 db 39 3f 8a b9 01 3f 36 e1 59 3f
       0.37083507 0.7260021 0.50673735 0.8510927
0000f0 dc d7 0a 3f c1 74 78 3f 77 86 01 3f 18 31 68 3e
       0.54235625 0.9705315 0.505958 0.22674978

cnn.0.mods.8.bias f4 [64]
000000 2f fc 84 3a a0 95 43 ba ee 9f d9 b9 13 46 08 b9
       0.0010145957 -0.00074609555 -0.00041508622 -0.00012996075
000010 b5 80 08 ba a3 c5 5e ba 13 ba 1a 3a c7 aa d6 3a
       -0.0005207167 -0.0008498078 0.0005902361 0.00163778
000020 3b 1c f0 39 d3 9e 9b 3a bb 78 8b 38 0f a5 0f b9
       0.000457974 0.0011872895 6.650524e-05 -0.00013699032
000030 71 f8 80 ba e5 7a db b9 40 3a 0e 39 7f 7f a6 3a
       -0.0009839666 -0.000418625 0.00013563875 0.0012702792
000040 7e 77 9d b9 fa 1f 84 b9 cc 55 ef ba db 77 3b 3a
       -0.00030034402 -0.00025200826 -0.0018259822 0.0007151344
000050 2e f6 a8 b8 cd b4 e9 39 d9 58 1f b8 0d 93 16 ba
       -8.056719e-05 0.0004457593 -3.79913e-05 -0.0005743958
000060 54 6d 2e b8 d8 01 04 3a 7d c5 d7 ba 53 c4 a7 ba
       -4.1586653e-05 0.0005035675 -0.0016462054 -0.0012799598
000070 7d 83 0b ba e7 84 22 38 f2 a4 fc 39 cf 7d ff 39
       -0.00053220225 3.8747585e-05 0.0004818808 0.00048731125
000080 01 b4 08 3a 49 5b 55 ba b3 10 2c ba 9a 2d b5 b9
       0.0005214811 -0.0008138908 -0.00065637677 -0.00034556986
000090 f0 54 cf 39 8e 91 75 39 a6 73 1b 3a 91 a7 5c b9
       0.000395454 0.00023419244 0.0005930014 -0.00021043258
0000a0 0b b5 de 38 78 87 95 3a 9f ab 48 3a 56 7e d3 3a
       0.00010619507 0.0011408171 0.0007654968 0.0016135674
0000b0 73 97 3b ba 00 da 66 b9 95 7c 9a 3a d4 88 d8 39
       -0.00071560516 -0.0002201572 0.0011786396 0.00041300675
0000c0 fc ed 32 ba 10 73 98 b9 d0 19 2b 39 91 be 3f b7
       -0.00068256236 -0.00029077427 0.00016317447 -1.1428857e-05
0000d0 df 3e 00 ba bc 1e 37 3a 9a e4 b0 ba 87 68 5b ba
       -0.0004892181 0.0006985476 -0.0013495863 -0.0008369763
0000e0 8c a0 9f b9 fc c9 52 39 6a f3 39 3a 34 a9 bb 3a
       -0.0003044646 0.00020102406 0.00070934615 0.0014317394
0000f0 76 cd c5 b9 45 59 06 bb 39 36 eb b9 67 86 6c 3a
       -0.00037727848 -0.0020499986 -0.00044863092 0.0009022713

cnn.1.blocs.0.weight f4 [64, 64, 3, 3]
000000 3f 6e 25 3d 56 af 93 3b df f6 bb bb fa d7 fc 3c
       0.040388342 0.0045069857 -0.0057362164 0.030864704
000010 e5 e5 49 3d 4c 11 00 3c 9f 8c b6 3b bf ef e7 3c
       0.04929151 0.007816624 0.0055709626 0.028312562
000020 0f 25 d1 bc 5d 4b aa 3c f3 2a 98 bd 05 c6 0a 3c
       -0.025530366 0.02078789 -0.07430067 0.008470063
000030 1e 5b 90 3c ef 97 7b bd 13 05 55 3c 17 c4 1e 3d
       0.017621573 -0.061424192 0.013001698 0.038761225
000040 b1 1b 94 3c b2 34 e1 bb 05 88 0e 3c 7a 3f 2f bc
       0.01807961 -0.006872737 0.008699422 -0.010696286
000050 d6 ad 1b bd b0 80 e9 3c 33 c3 8b bc 4b aa 19 bd
       -0.03800758 0.028503746 -0.017060852 -0.03751592
000060 2f f9 2f bc 86 7a 0d bd 69 33 cd 3d d0 03 2d bd
       -0.010740562 -0.034540676 0.10019571 -0.042239964
000070 6b 75 13 3d 89 56 44 3b 67 57 17 3d 45 b6 fc bc
       0.03600065 0.0029958806 0.036948588 -0.030848632
000080 2a bf 73 bc f5 66 95 3c c1 95 d8 bc 06 a4 87 3c
       -0.01487712 0.01823757 -0.026438596 0.016557705
000090 ee c8 fa ba e3 6a f6 3c d9 e4 13 bd 36 2a 79 3d
       -0.0019133368 0.030080264 -0.036106918 0.06083127
0000a0 48 99 bb 3b a3 ee 6d 3d 4c 4f 0a 3d 35 fb a1 3c
       0.0057250597 0.05808891 0.03376703 0.019773105
0000b0 fb 11 09 bc 5d 29 bf bc 5f 21 9c 3b ab ab 81 3c
       -0.008366103 -0.023335153 0.0047647203 0.015828928
0000c0 7a 7c 3d bd 8d f1 6a bd 2e 55 a0 bc af bf ff ba
       -0.04626129 -0.057359267 -0.019571867 -0.0019512082
0000d0 08 0d 1d 3c 2c b7 09 3d 68 98 fd bc 04 07 28 3d
       0.009585626 0.033621952 -0.030956462 0.041022316
0000e0 cf c6 01 3d 89 9d 41 bd 15 71 d3 bb ab f1 11 3d
       0.03168374 -0.047269378 -0.0064526894 0.035630863
0000f0 76 69 f3 bc 3d f1 a1 3b b0 37 bd bb 39 04 fa bc
       -0.029713374 0.004942088 -0.0057744607 -0.030519592
000100 b9 5b 3a bc d7 ba 90 3a f7 c7 30 bd 9e 3e 6f bb
       -0.011374407 0.0011042011 -0.04315945 -0.0036505829
000110 9e 37 34 bd 5e 53 33 3d c6 86 52 bb bf 78 5e bd
       -0.043998353 0.043780677 -0.0032123788 -0.05431437
000120 6b 0b ef 3c 66 b2 69 3c e3 48 81 3c e1 e9 70 3c
       0.02918025 0.014263725 0.015781825 0.014704199
000130 ff 6b d9 bc 3a 79 ef 3b 08 17 64 ba 91 d6 33 3a
       -0.026540754 0.0073081525 -0.00087009417 0.0006860281
000140 6f 00 bf 3b 16 d4 85 3d 0e 44 31 3c 2a b8 08 bd
       0.005828909 0.06534593 0.010819448 -0.033378758
000150 e8 e7 31 bd a3 31 4f bd bf 1a 4f bd 56 fa 41 3d
       -0.043434054 -0.050584447 -0.050562616 0.04735788
000160 0d 2d 06 bc b3 89 9e bd 7b c6 21 bb bc be 85 3d
       -0.008189452 -0.07741108 -0.0024684954 0.0653052
000170 78 68 89 bc d0 b2 f7 3c 16 53 ce bc 42 c6 ca bb
       -0.016773447 0.030236632 -0.025186103 -0.006188185
000180 57 17 69 3d 42 45 c8 bc 82 01 cc bb 43 6c c3 bc
       0.056907024 -0.024447087 -0.0062257657 -0.023855334
000190 32 7b ba b9 d1 93 7d 3c dc bb f5 3a d6 6f ea 3a
       -0.00035568472 0.015477137 0.0018748003 0.0017886113
0001a0 27 50 59 bd df 73 0b bc f4 f4 b9 3d ce cf 5a 3d
       -0.053054955 -0.008511513 0.09079924 0.053420834
0001b0 e3 6b 94 37 93 43 56 3c a6 37 95 3a 66 01 80 3c
       1.7693214e-05 0.013077634 0.0011384382 0.015625667
0001c0 c2 4d a6 bb ba ca 98 bb fe 82 89 3c cf c8 e3 bd
       -0.0050751874 -0.0046628388 0.016786095 -0.111222856
0001d0 e4 83 1a bd a4 8c 2d bd ff 7f f4 bc b9 98 02 3d
       -0.037723437 -0.042370453 -0.02984619 0.03188393
0001e0 58 36 2d bd b1 37 01 bd 5a 70 76 bd 8d 23 d1 3c
       -0.042288154 -0.031547252 -0.06016574 0.025529647
0001f0 4f f4 be bc 85 aa e0 3b 04 f2 e8 3c fe 6b 8a 3b
       -0.023309855 0.006856265 0.028435715 0.0042242995
000200 01 fb bf bc 99 5a 16 3d ca b6 9f bb 92 5d 0d bb
       -0.023435118 0.036707494 -0.004874085 -0.0021570665
000210 99 48 ea bc 90 eb 57 bd fb 80 51 3c 8b d7 3a bd
       -0.02859907 -0.052714884 0.012787099 -0.045615714
000220 3f e9 58 3c ee a2 cc bc 59 ee 50 3c b7 b6 84 bd
       0.013239204 -0.024980035 0.012752139 -0.064801626
000230 83 35 16 3c c7 d8 3a 3d 96 eb bc 3c 39 33 55 bd
       0.009168032 0.04561689 0.023061555 -0.052050803
000240 d8 fd 15 bd 7f 50 3c bb 64 62 02 3c c5 94 05 bc
       -0.036619037 -0.0028734503 0.007958028 -0.008153145
000250 de 1f eb ba 85 73 91 3c cc 98 08 bd b0 05 1e bd
       -0.0017938574 0.01775528 -0.033348843 -0.038579643
000260 2b 17 7d 3d 0e 3e 06 bd d6 41 ba bb c7 71 e0 bc
       0.061789673 -0.032774024 -0.005684118 -0.027398003
000270 f8 e1 89 bd e6 e8 c7 3b d2 8d 69 3c c5 8b 36 bb
       -0.06732553 0.0061007617 0.014255004 -0.0027854305
000280 b6 69 5c 3c 2f 2a 0d 3d 7a 38 97 bd ff b2 aa bb
       0.013452938 0.034464058 -0.07383819 -0.0052093263
000290 3d cf 11 bc 51 24 82 3c 61 0e b1 3c cf 85 f4 bb
       -0.008899507 0.015886458 0.021613302 -0.0074622403
0002a0 88 1c b0 3c b6 eb 01 bc 3e 52 fb 3b 74 80 67 bc
       0.02149798 -0.007929733 0.007669716 -0.014129747
0002b0 4f 75 bb 3c 95 af 32 3d 73 ee 8b 3b 93 86 80 3c
       0.022883086 0.04362448 0.0042703687 0.01568917
0002c0 1f d9 93 bc a2 7f b3 3c 92 8a 98 bc c0 84 d7 bc
       -0.018047867 0.021911446 -0.018620763 -0.026308417
0002d0 4e 91 04 bd 71 2f 2d 3c 40 f5 2c bc 4a 31 ac 3c
       -0.032365136 0.010570393 -0.010556519 0.021019597
0002e0 24 c8 8c 3d 69 fa 95 bc 9c 86 32 3c 32 94 b5 3c
       0.06874111 -0.018307881 0.010896351 0.022165392
0002f0 3d 52 b7 bb ad cf d7 bc e6 52 20 3d 0b b4 83 bc
       -0.0055945204 -0.026344145 0.039141558 -0.016077062
000300 7b c4 9b 3d e9 6d 7b 3c 15 a7 0b 3d 08 a2 83 bb
       0.07605835 0.015346029 0.03409489 -0.0040171184
000310 ec 3e fe bc 8d cb 9f 3b 9c 46 a8 bc 15 d8 e7 bb
       -0.031035863 0.00487656 -0.020541482 -0.0070753195
000320 a9 6f c7 bc 31 df 33 bd 2c 1d 4c 3c 22 b8 00 bd
       -0.024345236 -0.043914024 0.012458127 -0.031425603
000330 3b 0b 3d 3d c7 a2 f3 3a 42 63 4b bd 68 1c 55 bd
       0.04615329 0.001858794 -0.049655207 -0.052029043
000340 78 9a 38 3d f6 51 91 3c af c7 bc bc 8a 79 89 b9
       0.045069188 0.017739277 -0.023044435 -0.0002622123
000350 d6 a1 c8 3c 62 62 f4 3c e2 26 05 3b b6 8c 3a bd
       0.024491232 0.029832069 0.0020317365 -0.04554435
000360 c4 ba 9b 3c 72 83 25 3c 19 6d 0c bd d0 b2 71 3d
       0.019009955 0.01010214 -0.03428373 0.05900842
000370 dc 2e 0c 3d e0 13 37 3c 83 f5 89 3c f9 3c 27 3d
       0.034224376 0.011174172 0.016840702 0.040829632
000380 38 d4 dc 3c af 5f 79 bb fd 55 87 3d 63 1e 09 3d
       0.026956663 -0.0038051417 0.06608198 0.033476245
000390 b1 20 25 3d 7f 80 12 bc e3 fc a2 3c 6f d5 e0 3c
       0.04031438 -0.008941769 0.019895976 0.027445523
0003a0 a3 4d d7 3c 02 0b 4c 3a 45 b8 c8 3c b7 f4 b1 3c
       0.026282137 0.0007783623 0.024501929 0.021723134
0003b0 53 de 35 3c bd 74 a6 3c 92 56 89 3d 3b 05 e2 bc
       0.0111003695 0.020319337 0.06705965 -0.027590385
0003c0 5a 30 55 3c 32 aa d0 3d 02 31 b2 bc 97 a3 43 bd
       0.013012016 0.10188712 -0.021751884 -0.047763433
0003d0 c3 b0 4d bc dc eb 22 bd 5d bb ca bc 79 ee 85 3c
       -0.01255435 -0.039775714 -0.024747545 0.016349064
0003e0 1a a1 09 3d 01 39 07 bc 5d fa ca 3c 6e 3c aa bc
       0.033600904 -0.008253337 0.024777586 -0.020780768
0003f0 af 45 06 3c 5e c9 5a bd c9 93 a1 3d 85 4e 4b 3d
       0.008195325 -0.053414695 0.07889516 0.04963543

cnn.1.blocs.1.weight f4 [64]
000000 47 6d 42 3f 5b d5 f2 3e 3c cd 75 3f 01 e3 7d 3f
       0.75947994 0.47428402 0.9601629 0.99174505
000010 e0 9c 6d 3f d6 f4 1f 3f 3b c9 1f 3f b3 77 b6 3e
       0.928175 0.62482965 0.6241643 0.35638198
000020 27 04 b6 3d 0c 8c 3d 3f 17 2c 44 3f 3d 69 28 3f
       0.08887511 0.7404182 0.76629776 0.6578558
000030 f9 e4 4f 3f f8 0d 01 3f 7d fc 85 3e 7f 18 7e 3f
       0.8120876 0.5041194 0.26169196 0.9925613
000040 cb f1 46 3f 7a c9 7c 3f 9a 7b 4f 3e f6 aa 3a 3f
       0.77712697 0.9874493 0.20261994 0.72917116
000050 ac bf 4d 3f 9a cc bc 3e 4a 74 b4 3e 95 d1 00 3f
       0.80370593 0.3687485 0.35244972 0.50319797
000060 51 7b 4f 3e 31 9b 6c 3e bb 6d 3f 3d ea 70 0f 3f
       0.20261885 0.23106076 0.046735507 0.5603167
000070 78 4e 64 3f 68 42 b0 3d e9 69 3b 3f 6e 42 1c 3d
       0.89182234 0.08606416 0.7320848 0.03814929
000080 c9 26 2b 3f 55 dd 57 3e 87 57 66 3f 27 4d c5 3e
       0.66856056 0.21080525 0.89977306 0.38535425
000090 b6 d8 97 3e 11 40 91 3e ec 10 19 3f 9c 9c 17 3f
       0.29657525 0.2836919 0.59791446 0.5922334
0000a0 3f c3 46 3e 3d a4 58 3f d5 89 08 3e a3 5b e5 3e
       0.19410418 0.8462561 0.13333829 0.44796476
0000b0 0b aa c3 3e 28 63 5c 3d 0e de e8 3e 88 8b 26 3f
       0.3821567 0.0538055 0.45481914 0.6505666
0000c0 eb d5 21 3f 54 d7 b2 3e ee 5a 0b 3f a3 36 ea 3e
       0.6321704 0.34929907 0.5443562 0.4574481
0000d0 75 6a 1b 3f 05 c2 07 3f 2a e1 e6 3e 8f 9c fe 3e
       0.60709316 0.53030425 0.45093662 0.4972882
0000e0 82 af 1b 3e c0 c1 cb 3d eb 07 1d 3e 4f 6e ca 3e
       0.1520367 0.09949064 0.15335052 0.39537284
0000f0 63 4e b5 3e 16 7d 00 3e 9a 59 10 3f 73 5b ed 3e
       0.35411367 0.12547716 0.5638672 0.46358833

cnn.1.blocs.1.bias f4 [64]
000000 7e a2 48 3a 6b 16 16 ba a8 f9 ad 3a c7 4c 13 3a
       0.0007653608 -0.00057253864 0.0013273256 0.00056190457
000010 8f 45 81 39 3d 67 fa b9 52 23 21 37 38 0b d6 ba
       0.00024656623 -0.00047760634 9.6045715e-06 -0.0016330248
000020 37 01 01 3a da 8b ea b9 0d 8d c9 39 9d 52 45 3a
       0.00049211405 -0.00044736156 0.00038442799 0.0007527264
000030 d8 e9 33 bb 08 5a 5c ba 43 7c b0 38 bd 53 c8 39
       -0.0027452614 -0.00084057497 8.4154795e-05 0.00038209363
000040 70 eb 15 ba ff 0b db 39 4f 9c f4 b9 95 a3 a4 ba
       -0.0005718982 0.00041779873 -0.00046655766 -0.0012560958
000050 7b bf 11 3a 57 ff f4 b8 70 74 2b 3a 29 88 34 ba
       0.0005559844 -0.000116823874 0.0006540483 -0.00068867445
000060 15 d3 96 3a 0f 45 05 3a c7 17 7f b9 ff 46 b6 39
       0.0011506999 0.0005083838 -0.00024327553 0.0003476664
000070 94 61 80 ba 5d 2c da ba f9 96 f3 39 f6 aa ae b9
       -0.0009794706 -0.0016645301 0.00046461055 -0.00033315242
000080 cf 6e df 3a b7 42 0b ba 72 cf b9 39 0f c7 07 3a
       0.0017046573 -0.00053123705 0.00035440509 0.00051795034
000090 7d 43 7f ba d4 28 41 39 cd 29 25 3a 24 30 7f 3a
       -0.00097375346 0.00018421124 0.0006300479 0.00097346515
0000a0 24 1b f6 38 07 1d 65 ba 93 4b b1 39 17 bc 69 39
       0.000117352494 -0.0008739982 0.00033816378 0.0002229068
0000b0 2e 6f 4c b9 81 fd ba 3a 5f 5e 9a ba 59 21 34 3a
       -0.00019496374 0.0014266224 -0.0011777392 0.0006871424
0000c0 ab 3a 13 3a 40 6d b2 b9 a4 97 e3 38 93 bd 03 3b
       0.0005616347 -0.00034032203 0.00010852449 0.0020102009
0000d0 fb c8 91 3a 3a 9e 04 3a 5a 48 bb 39 4e f7 1c ba
       0.0011122519 0.0005058978 0.00035721326 -0.0005987779
0000e0 97 0e 42 ba 52 03 c1 39 96 4d 65 b9 41 5c bd 35
       -0.0007402687 0.00036814302 -0.00021868045 1.4108447e-06
0000f0 ef 53 1a 3a 90 61 a2 3a b2 d5 2d ba 37 c2 2c ba
       0.0005887141 0.0012388695 -0.00066312694 -0.00065902196

cnn.1.blocs.3.weight f4 [64, 64, 3, 3]
000000 56 a8 46 bc ac 08 6a bc 46 b0 53 bc 11 48 44 bd
       -0.012125095 -0.014284294 -0.012920445 -0.04792029
000010 d7 57 6e bc 01 2d 91 3c 8a 3d 3c 3c 3c 85 4c 3d
       -0.01454731 0.017721655 0.011489281 0.04993175
000020 f6 04 23 bc c9 1c b8 bc 41 1a 05 bc 1b e6 a0 3b
       -0.009949913 -0.022474663 -0.008123935 0.004910243
000030 6f 18 df 3b 8e 82 66 3c 5c 96 90 bc f8 af a8 3c
       0.0068083326 0.014069213 -0.017649822 0.020591721
000040 3e 34 ba 3c 24 96 3c 3d ee c1 1b bd 88 ad 07 bc
       0.02272999 0.046041623 -0.038026743 -0.008281119
000050 d3 7c 01 3d 39 a5 ec bc 5e 7f 2c 37 75 6e 09 bc
       0.031613182 -0.028887378 1.0281654e-05 -0.008388151
000060 3e 96 ea bb 40 67 a3 3d 38 f3 54 bc d4 d5 f0 bb
       -0.0071590235 0.07978678 -0.012997441 -0.007349709
000070 51 25 b2 bb 4b e8 63 3c e1 e1 29 3d 83 92 61 3d
       -0.0054365774 0.013910363 0.04147518 0.055071365
000080 93 ee 29 bd 68 b7 02 3c bf 8e 10 bd 3f da 0c bd
       -0.041487288 0.007978298 -0.035292383 -0.034387823
000090 25 c9 fa 3c a2 86 67 bd 5b b4 11 bc a0 bd c6 ba
       0.030613491 -0.05652488 -0.008893098 -0.0015162714
0000a0 ce fa dd 3c bd 3a 0c bd 16 86 dc 3b 7d 83 2a bc
       0.027097132 -0.034235705 0.0067298515 -0.010407326
0000b0 7f b3 27 3d 07 ee 93 bb d1 5b 3f 3b d7 b6 83 bd
       0.040942665 -0.004514459 0.0029199014 -0.06431358
0000c0 55 58 90 3d e7 f7 a1 bd 88 f8 02 3d 14 f1 33 bd
       0.07048098 -0.07908612 0.0319753 -0.043931082
0000d0 00 fb 8d bc 8c a4 c2 bc 4c 89 c5 3c 18 24 89 3b
       -0.0173316 -0.023760103 0.02411332 0.004185211
0000e0 a1 6f 07 bd e6 d8 bd 3c e5 35 6e 3d 2d 9a d6 3d
       -0.033065442 0.023174714 0.058156867 0.104786254
0000f0 82 d3 38 bd 4a 48 02 bd 87 ff a9 3a b5 25 fb 3c
       -0.045123585 -0.03180722 0.001296983 0.030657629
000100 40 df 75 bb 5f 6d 58 3d 7e 0c 9b bb b9 2d a7 bc
       -0.00375171 0.05283868 -0.004731714 -0.020407544
000110 34 ab b0 bd 7e 78 92 bc 99 15 31 3d f1 4b ec 3c
       -0.086264044 -0.01787972 0.043233488 0.028844805
000120 1b 21 e9 bb a1 b4 07 bd 82 01 0b 3d 7f 57 0c 3c
       -0.007114542 -0.033131246 0.033936985 0.008565783
000130 05 13 c3 3c f0 65 1e bc ee 08 3b 3d 08 68 7a 3c
       0.02381278 -0.0096678585 0.045662813 0.015283592
000140 e8 6e 2d 3d 48 19 61 bc b9 d3 b6 3b 5a 76 95 bb
       0.042342097 -0.013738938 0.0055794385 -0.0045612277
000150 26 0e e6 bc b0 69 43 3d a3 4d 2a bb a6 cb d8 3c
       -0.028082918 0.047708213 -0.0025986216 0.026464295
000160 6c 6d 36 bd b7 d3 88 3b 36 cb 89 bb 55 fc 3a 3b
       -0.044537947 0.004175629 -0.004205133 0.002853175
000170 ff 51 ee bc cc 50 57 bd 89 a8 03 bd cd ee c2 3c
       -0.029091833 -0.05256729 -0.03214315 0.02379551
000180 c2 f4 c8 bc fd 15 4d bd 31 a5 14 3c d0 b3 00 3d
       -0.024530772 -0.050069798 0.009072588 0.031421483
000190 cf fd ec bc 9a 66 96 bd 28 28 15 3d 02 f0 1e ba
       -0.02892962 -0.073437884 0.03641525 -0.00060629856
0001a0 ab f3 21 bd ee 35 be 3c 64 d1 91 3d 64 9e 14 3d
       -0.03953902 0.023219075 0.07120016 0.036283866
0001b0 e7 ae 0e bc 5d 4e e2 bc 00 bf cc bc 2b 65 1b 3c
       -0.008708692 -0.027625257 -0.02499342 0.00948457
0001c0 59 2d 91 bd 39 33 07 3d 0c 5a 37 3d 5e 6e e5 bb
       -0.070887275 0.033007834 0.04476361 -0.007001682
0001d0 12 64 9a bd 67 39 b9 3c a4 19 da 3b 39 27 7c 3b
       -0.07538618 0.02261038 0.0066558886 0.0038475527
0001e0 af bb 90 3d d1 d5 ec bc ac ef 02 bd 1a 13 78 bd
       0.07067048 -0.02891055 -0.03196685 -0.06056509
0001f0 0f 6a 43 3c a8 e4 e1 3b cf e8 fc 3c 7f 9a 04 3d
       0.011927142 0.006893713 0.03087273 0.0323739
000200 df f3 68 3c 41 8e cd 3c 4a 82 82 3c 27 11 86 3c
       0.0142183 0.025092246 0.015931267 0.0163656
000210 9e 3b c3 ba e2 a3 09 bc 57 88 a4 3c 2e d7 dc 3c
       -0.0014895087 -0.008400889 0.020084543 0.026958074
000220 a8 be ba bc 87 7f 02 ba 07 f2 12 3c b6 22 10 3d
       -0.02279599 -0.00049781095 0.008968837 0.035189353
000230 6d 5c 06 3b 44 c0 8a bd 08 3d 20 3d 8c d2 ff 3c
       0.0020501867 -0.06774953 0.039120704 0.031228326
000240 48 ec 58 3d 14 01 b2 bc d6 ba 4e bd 7d f4 ad 3b
       0.05295971 -0.02172903 -0.05047115 0.0053086863
000250 8a b2 0e 3a 44 17 27 bc 99 83 22 bd fc d4 0e bd
       0.00054434745 -0.010198418 -0.039676283 -0.034871086
000260 a8 4f 50 bc 80 52 26 bd 4e c0 b3 bb d2 cc ce 3b
       -0.012714304 -0.040606022 -0.005485571 0.0063110376
000270 33 23 04 3b 24 b7 0d bc 0c e5 f6 3c d3 12 16 bd
       0.0020162582 -0.008649621 0.030138515 -0.036639046
000280 05 3e e0 3c 97 f3 0b bb c5 b1 b6 bb 65 e0 c0 bc
       0.027373323 -0.0021354908 -0.005575391 -0.0235445
000290 4b 04 b5 3c c6 c7 92 3d c4 cd 96 3c 6b e3 42 3c
       0.022096774 0.0716701 0.018408664 0.011895041
0002a0 bc 53 93 3d c2 2b 8e 3b 7d 99 95 3d e1 fd 49 bd
       0.071937054 0.0043387124 0.07304666 -0.049314383
0002b0 e8 2d a9 3c 1a fa ae 3c 82 80 72 bc c1 f3 de 3c
       0.020651773 0.021359492 -0.014801146 0.02721584
0002c0 6e da 7a 3d 0b 44 1b 3b 98 44 d9 3c b6 2d da bc
       0.061243467 0.002369168 0.026521966 -0.026633125
0002d0 b5 e9 79 3d 79 05 19 3d 75 13 2d bd c9 a2 16 3d
       0.061013896 0.037358735 -0.042254884 0.036776338
0002e0 1f bb 55 bc 07 53 40 3d 7b 4a 0e 3d e7 4f 58 3d
       -0.013045101 0.04695418 0.034739 0.052810576
0002f0 61 6d 81 3c da 47 64 bb d4 d1 76 bb 61 f3 93 bc
       0.015799226 -0.0034832866 -0.0037661688 -0.018060388
000300 d8 6c 94 bc 4a 6a 42 3d e1 19 10 bc ae d0 62 3b
       -0.018118307 0.047464646 -0.0087952325 0.0034609246
000310 6e c7 3a bc d2 0f 41 3c 94 55 6f 3c 8b d0 dd bb
       -0.011400087 0.011783557 0.014607806 -0.006769245
000320 20 bf ff 3c 72 58 40 3c 3e da 0a 3c f3 2c e4 3c
       0.031219065 0.011739837 0.008474885 0.027853465
000330 65 3f b5 3d d2 81 97 ba 7c 29 71 bb 46 37 a5 3c
       0.08849982 -0.0011559075 -0.0036798408 0.020167958
000340 29 64 cf 3b e8 0e 84 3d e2 fd 1d bd a7 44 de 3c
       0.0063290787 0.06448156 -0.0385722 0.027132345
000350 39 d3 18 3d 1b 22 22 bd a9 ff 32 bb 24 59 78 3c
       0.037310813 -0.039583307 -0.002731303 0.0151579715
000360 e3 87 55 3d cf 19 00 bd 4c 53 42 3d 4d 0d 67 bc
       0.052131545 -0.031274613 0.04744272 -0.014102292
000370 9b bb 10 bd 0d bc c3 bc b7 dd 20 bc 1a 30 00 bb
       -0.035335165 -0.02389338 -0.009818486 -0.001955992
000380 e0 af 7d bc 4e 31 dc 3c 30 01 db bc 08 06 82 bc
       -0.015483826 0.026878979 -0.026733965 -0.015872017
000390 10 56 9e 3c ab 83 12 bd ef 4b cf bc c7 2d 03 3d
       0.019328147 -0.0357701 -0.025304763 0.03202608
0003a0 70 49 ce bc 63 3c e0 3c 5a 9d b9 bc a9 aa 37 3d
       -0.025181502 0.027372545 -0.022658039 0.04484049
0003b0 5e 64 4b 3c ea d6 08 bc 1e 12 48 bd b7 2b ec bc
       0.012414066 -0.008352021 -0.048845403 -0.028829439
0003c0 05 ec 0b bd df c7 52 3c 9f ab 48 3d 42 0c e3 bc
       -0.034160633 0.012865036 0.048991796 -0.027715806
0003d0 57 7c 84 bc 8c 94 9e bc 5a 44 5e b9 a5 32 1d 3d
       -0.016172571 -0.019357942 -0.00021197033 0.038378377
0003e0 ad 8a b1 bc 87 c1 70 3d a5 dc bf 3c f2 b6 92 bc
       -0.021672571 0.058778312 0.023420641 -0.0179095
0003f0 79 2b 1c 3c 39 9f 34 bd 8c bf 0e 3b b5 3b eb 39
       0.009531849 -0.04409716 0.0021781651 0.00044867178

cnn.1.blocs.3.bias f4 [64]
000000 cb d9 d1 b5 1d 88 90 36 50 5e a1 b5 aa 1a 0a b6
       -1.56351e-06 4.30738e-06 -1.2022883e-06 -2.0579123e-06
000010 d5 01 1b b6 65 2c 0f b5 c6 3e 0b b2 95 dc 26 33
       -2.3097866e-06 -5.3336254e-07 -8.105138e-09 3.8850505e-08
000020 77 58 04 b6 4b c4 a9 36 7f 8d d5 b5 bc 63 72 36
       -1.9721026e-06 5.059444e-06 -1.5910917e-06 3.6118863e-06
000030 e8 c9 5e 36 58 08 89 b5 11 88 42 b6 bc ff a8 b4
       3.3198103e-06 -1.0209724e-06 -2.8987454e-06 -3.147851e-07
000040 e0 ae 4e 35 ea 44 46 36 c3 f8 19 b6 e9 da 83 36
       7.6995457e-07 2.9544412e-06 -2.2943575e-06 3.9295887e-06
000050 c8 95 55 34 51 62 42 35 81 2e f2 35 91 57 db 35
       1.9891661e-07 7.24137e-07 1.804394e-06 1.6342257e-06
000060 7b ae 01 b6 19 ff d2 32 04 b9 ac 34 f9 c5 33 b5
       -1.932406e-06 2.4563223e-08 3.2172113e-07 -6.6970784e-07
000070 af ca 1e 34 4b 63 2d b4 2d 63 16 36 e3 42 15 35
       1.4788633e-07 -1.6148003e-07 2.240947e-06 5.560416e-07
000080 8a 62 96 b5 f3 e4 8b 35 01 d2 97 34 44 71 64 b3
       -1.120455e-06 1.042294e-06 2.827874e-07 -5.31884e-08
000090 9b 22 67 3b cb cb 03 b9 90 c4 34 b5 f1 37 82 3b
       0.003526843 -0.00012569052 -6.734126e-07 0.003973954
0000a0 e6 a9 85 36 bd c0 d8 b6 11 0e c1 b5 ae 17 19 36
       3.9834877e-06 -6.4597393e-06 -1.4383714e-06 2.281256e-06
0000b0 ee 5d 25 35 2b 10 71 3a c1 3c 16 b6 28 79 25 36
       6.1603976e-07 0.00091958296 -2.2387105e-06 2.4657438e-06
0000c0 39 bf 09 b5 2e 3d 40 3b 46 c7 3a b5 76 dd bc 35
       -5.131474e-07 0.002933334 -6.958038e-07 1.4071545e-06
0000d0 73 03 7f b6 aa 62 f7 b5 c6 1d f9 34 c8 09 3f 35
       -3.7999969e-06 -1.8431649e-06 4.6401527e-07 7.116728e-07
0000e0 9c 00 c6 3a 2b a5 1e 34 47 fe ae 36 b4 ac 05 36
       0.0015106383 1.4774984e-07 5.215206e-06 1.991907e-06
0000f0 f3 ef 54 34 80 50 fc 31 83 c2 fb b2 47 60 f6 35
       1.9831332e-07 7.343317e-09 -2.93087e-08 1.8356449e-06

cnn.1.activationF.0.weight f4 [64]
000000 d8 43 10 3f 39 00 43 3f 76 0e 9e 3e d0 57 0d 3e
       0.5635352 0.76172215 0.30870408 0.13803029
000010 84 40 c6 3e 4c 0d 43 3f 70 97 a2 3e b0 c6 44 3f
       0.38721097 0.76192164 0.31756163 0.76865673
000020 f7 c3 d6 3e 46 08 13 3f f7 04 eb 3e af 7f 58 3f
       0.41946384 0.574345 0.45902225 0.8456983
000030 51 16 6d 3f e1 e6 76 3e 90 72 c2 3e 6c 50 81 3e
       0.9261218 0.24111511 0.3797803 0.2525667
000040 ec cf 49 3e e0 90 28 3f 80 e1 04 3f 79 b9 f0 3e
       0.19708222 0.6584606 0.51906586 0.47016504
000050 17 1f 7d 3f 75 02 48 3f a8 c2 7d 3e 50 b4 9a 3e
       0.98875564 0.7812875 0.24781287 0.30215693
000060 5d a4 37 3f 54 d6 44 3f 08 dc 36 3f 56 a7 3f 3e
       0.71735173 0.7688954 0.7142949 0.18716177
000070 15 59 20 3f 38 96 7f 3f 2e b4 f8 3e ad e3 cd 3e
       0.6263593 0.9983859 0.48574966 0.40212765
000080 da 57 d0 3e fb 0d 45 3f 67 80 72 3d 65 5b 51 3e
       0.40692025 0.7697446 0.059204485 0.2044502
000090 ae 3c e1 3e bf 8d a4 3e 34 52 67 3e cd ee 11 3f
       0.43991607 0.32139394 0.22589952 0.57005006
0000a0 57 c4 79 3f 49 b9 40 3f b0 7b 49 3f e7 33 bc 3e
       0.97565216 0.7528272 0.7870436 0.36758348
0000b0 35 0a 03 3f ef 95 64 3f 44 a7 9c 3e 94 42 3d 3f
       0.5118745 0.8929128 0.30596364 0.73929715
0000c0 1e 87 65 3f 06 31 bd 3c de 37 bf 3e 0f 64 53 3f
       0.896593 0.023094665 0.3734731 0.8257455
0000d0 ff 81 35 3f 0a 53 40 3e 30 9a 64 3e 2f da 64 3e
       0.70901483 0.18781677 0.22324443 0.22348855
0000e0 49 2f 47 3f 2a 88 91 3d f7 7e 5a 3f b9 bb 3c 3f
       0.77806526 0.07106049 0.8534998 0.7372394
0000f0 2e 55 05 3f 5a ab bc 3b ca 2e da 3e 6d 11 27 3f
       0.520831 0.0057577314 0.42613822 0.65260965
